models/ConvTran/Results/Dataset/UEA/Dataset/UEA/2024-11-26_10-38/checkpoints/IMU_MP_0.pth (torch, 949498 bytes, 77 tensors)

embed_layer.0.weight f4 [64, 1, 1, 8]
00000000: cab2 21be 047f 9dbe 982f 82be 7869 173e
00000010: 9e51 d53c c9de 21be 4246 0cbe 820a b5bc
00000020: 85fa 663e a410 663e f7a7 11bd 1d56 7ebe
00000030: c25a 5f3e 0735 ac3e bfab 1fbe 939e b0be
00000040: 2154 3a3d 6827 8b3e 0c86 30be 6c5e 733d
00000050: af29 1ebe cdda 933e a25b 3e3e 5019 8dbe
00000060: d5b2 8bbe b62f edbc 4f2c 34be 80f5 663e
00000070: 91d2 b13d 4882 6e3e b1ae 05be 838a 453e
00000080: aceb ffbd 9d24 febd 7307 043e 024f 25be
00000090: 4f73 87be 2e87 473e 2e77 3f3e 4f0e cbbb
000000a0: b349 91be 2b75 393e d223 e53c 21d3 233e
000000b0: d220 9dbd 8f68 89bd 5baa 9c3e 0ee7 34be
000000c0: c636 3fbe 351b a9be 48f2 5a3e cb4e 20be
000000d0: c1cf 76bd df98 a0be 6efd 36bc 228a 58be
000000e0: 43cd b23e cac8 e23c 4ecc 893e 47b9 b0be
000000f0: 2d78 3fbe 3b2e 483e 6ef4 063d d411 d03d
00000100: 0b74 b0be 15aa 1fbd 9ca9 21be 32e5 1d3d
00000110: 9101 e43d 5efb 1cbe d936 03be 441d 46be
00000120: 1116 033e b89b bcbc f726 373e b8de ed3d
00000130: 7923 1f3e 78a3 7a3e dbaa c63c 5c4f 093e
00000140: 7247 0abd 8a38 b5bd 251e 193e 968b c93d
00000150: 2e38 6f3e 3375 3bbd b4d0 763e de01 483d
00000160: b6c9 14be 3bc2 abbe 3e34 f0bd f162 b03d
00000170: 1c57 343e ca50 503d 6597 bcbd ab8b 9dbe
00000180: 388a 33be 2a34 1ebd 0ead 04bc 4c63 7b3e
00000190: 9785 adbe cd4b 90be 7b93 ae3d be5c 98be
000001a0: 3d14 343e 47da 2c3e 2ddd e9bd 2639 183e
000001b0: 6dfc 2cbe ba50 d5bd f829 1abd 9e3c c13d
000001c0: fb05 593e 376e 47bd 54cc be3d ba37 c83d
000001d0: a5f4 d43d 6c17 7f3e ff4b e53d 9ab1 31bd
000001e0: fa4f 88be 1cc3 86bd 2b27 cc3d 03ae 84be
000001f0: 1783 713e fd53 b3be 0c70 513e 5cc8 2abe
00000200: f6dc d5bd 3da5 20be 82be 4bbe 2969 97be
00000210: 25f9 bdbd 51dc 45bd d6f3 073e 238e 973d
00000220: 5516 8dbe e823 333e 2155 7a3e 3bd8 7e3e
00000230: 920b 4cbe 4501 7a3e 0226 af3e 8c2b e83d
00000240: 7a68 a93e 64bd 69be 4b67 cbbd d845 23bd
00000250: 9a47 70be 6be5 9d3e 50cf 963e 9c26 ebbd
00000260: d764 603e 18b2 ed3d 4b97 1c3e 418b 36be
00000270: fb12 ffbd 35df 853b 44af 323d b625 0d3e
00000280: e8dc 88bd c901 9c3b b60d 91bd 8bd1 9fbe
00000290: 902f 9e3e 10a2 33be dc77 b23e 12e9 a73e
000002a0: c5a8 64be 9569 98be fd63 553e 57ce f13d
000002b0: e3dd 3abe dec6 74bc 4257 643e 21c6 b2be
000002c0: 19e1 673d a406 5a3e 32d8 0ebe 897f 9dbe
000002d0: 81a3 8f3e 568c 5abe 03b5 39be e650 14be
000002e0: ff6f 13be 6861 6cbe 54d1 53be 973d 9f3e
000002f0: 30a4 a13e b1e0 8ebe b865 d6bc ccaa 9bbe
00000300: ab7c 39be beb6 513c b905 c43d cd3d 78be
00000310: 7105 a53e 158f 6e3e 07de 1e3c 772c 633d
00000320: b200 883e 7f41 fc3d fc02 d3bc 67f8 083e
00000330: 0539 45be cd24 98bd 48ba 8a3e bbb7 133c
00000340: 4aea 98be f9c5 e23b 1995 a23d 7921 ae3e
00000350: 1de5 70be 2ae1 a03e 527d 8e3d 2b6f b53e
00000360: 5c5c acbe ffbc 403e 080c a63e ff87 71be
00000370: cbfe b43c 35e9 593e 62b0 293e 4555 54be
00000380: 2642 28bd abfe 073d 849f 4fbe 254d a0be
00000390: 3b69 4ebe a4f8 d8bc 2c49 74bd 48f6 5bbe
000003a0: 567c 00bd 192b 35be e1fa 25be 4768 763e
000003b0: 4c60 50be dbf7 bcbd 84fa 583c 3447 843e
000003c0: 2c18 9cbe 5979 0a3d 48ad 663e 200a c13d
000003d0: faa4 8e3e ac30 a83e 10da 9ebe 5954 4dbe
000003e0: cb6a a0be 66e2 38be 8fb1 cf3d d9aa edb9
000003f0: 9dc6 cabd 84d4 90bd 5c47 403e 43fb 06bd
-0.15790859 -0.30760968 -0.25426936 0.14786327 0.026039895 -0.15807642 -0.13698676 -0.022099737
0.22556503 0.22467285 -0.035560574 -0.24837537 0.21811965 0.33634207 -0.1559286 -0.34495983
0.045490388 0.27178502 -0.17238635 0.05941622 -0.15445589 0.2887787 0.18589643 -0.27558374
-0.27284876 -0.028953414 -0.17595027 0.22554588 0.086827405 0.23291886 -0.1305492 0.1929112
-0.12496123 -0.12409327 0.12893467 -0.1614342 -0.2645516 0.1948516 0.18697807 -0.006196774
-0.2837654 0.18111102 0.027971182 0.15998508 -0.076722756 -0.06709396 0.3059872 -0.17666265
-0.18673238 -0.3302857 0.21381485 -0.15655057 -0.060256723 -0.3136663 -0.011168821 -0.21146443
0.34922227 0.027683634 0.26913685 -0.34516355 -0.18698187 0.19548886 0.03294795 0.101596504
-0.34463534 -0.038980562 -0.15787357 0.038548656 0.11133111 -0.15330264 -0.12813891 -0.19347101
0.12801386 -0.023023471 0.17885958 0.11614746 0.15540875 0.24476421 0.024251392 0.1340918
-0.03375954 -0.088486746 0.14952905 0.09841077 0.23361275 -0.045766067 0.24103051 0.048829906
-0.14530072 -0.33546624 -0.117287144 0.086126216 0.17611355 0.050858296 -0.09208564 -0.3077062
-0.17533195 -0.038623966 -0.0080979 0.24549598 -0.33890983 -0.2818283 0.085242234 -0.29758257
0.17585845 0.16880141 -0.11419139 0.1486555 -0.16893168 -0.10415788 -0.03763768 0.0943539
0.21193688 -0.048689093 0.09316316 0.09776254 0.10398225 0.24911278 0.11196136 -0.043382265
-0.26623517 -0.06580183 0.09968408 -0.2591401 0.23585163 -0.35025015 0.20452899 -0.16677994
-0.104425356 -0.15688033 -0.19896892 -0.29572418 -0.09276036 -0.048305813 0.1327661 0.07400157
-0.275561 0.17494166 0.24446537 0.24887173 -0.19926289 0.24414547 0.34208685 0.11336431
0.33087522 -0.22826153 -0.09931811 -0.03986153 -0.23464814 0.30839095 0.29455042 -0.114819735
0.21913467 0.11606234 0.15292089 -0.17826559 -0.12454792 0.0040854462 0.043624178 0.13783917
-0.066827595 0.004760955 -0.07082693 -0.31214556 0.30895662 -0.1754229 0.3485707 0.32795006
-0.22330005 -0.29768053 0.20838924 0.11806934 -0.18248706 -0.014939992 0.22298911 -0.34916785
0.056611154 0.21291596 -0.1394966 -0.30761364 0.2805443 -0.21342596 -0.18135457 -0.14483985
-0.14398192 -0.23084033 -0.20685321 0.31101677 0.31570578 -0.279058 -0.02617155 -0.30403745
-0.18113963 0.012799917 0.09571404 -0.24242325 0.32230714 0.23296769 0.00969649 0.055462327
0.2656303 0.1231718 -0.025758259 0.13376008 -0.19260032 -0.07428894 0.27095246 0.009015973
-0.29866248 0.006920573 0.07938594 0.34009913 -0.235249 0.31421787 0.06957497 0.35436377
-0.33664215 0.18822096 0.32431054 -0.23587035 0.022094151 0.21280368 0.16571191 -0.20735653
-0.04107871 0.033201855 -0.20275694 -0.31308857 -0.2015733 -0.026485749 -0.059640095 -0.21480668
-0.031368576 -0.17692222 -0.16208984 0.24063216 -0.20349234 -0.09226962 0.013243321 0.25835574
-0.30487192 0.033807132 0.22527039 0.09425759 0.27860242 0.32849634 -0.31025743 -0.20051707
-0.31331477 -0.18055114 0.101412885 -0.00045331454 -0.09901164 -0.07071784 0.18777221 -0.032954466

embed_layer.0.bias f4 [64]
00000000: 28a3 47be 2337 5abe 294c 7a3d dc99 86bd
00000010: 241b 5a3e f05e a2be d36c 0a3e 4ffa a5be
00000020: 22aa 3a3e 3202 b5be bbe5 30bc 442c a23d
00000030: 2319 ab3e 0aa4 74bd 66be a13e ca4d 32be
00000040: 9cad 0b3e 4d83 b23c 7634 90bd 86bf 4fbe
00000050: 426f 96bd 6a20 ae3e 80e5 37be 307e 853e
00000060: bd76 98be 9e4d 98be 5ab9 a63e 89d3 773d
00000070: 5ceb 24be f176 45bc 861a a2be c497 2abe
00000080: c8e5 98be 4165 a73d 59ea 48be c305 64be
00000090: b452 76be 8e90 a5be 431a 85be 5560 093e
000000a0: 9f63 abbd d751 ff3d 7ffc 383e 673a 5e3e
000000b0: d92b 9bbe 335d 8fbe 244e 16be 16d4 163e
000000c0: ff9d f53d aeb4 3bbd aa1f a13e 5a08 e63d
000000d0: cd92 323e 1c9e 133e ffab 883d ea77 3f3e
000000e0: 8c57 7ebd 67a6 89be be60 02be 75db 93be
000000f0: 00b5 a93d a8fc 913e fd49 67be 9e66 a7be
-0.19495833 -0.21310095 0.06110779 -0.06572315 0.21299416 -0.31713057 0.13518076 -0.32417533
0.18228963 -0.35353237 -0.0107969595 0.07918599 0.33417615 -0.059726752 0.31590575 -0.17412487
0.13640445 0.021791125 -0.07041256 -0.20287904 -0.073454395 0.34009105 -0.17958641 0.26072836
-0.2977809 -0.29746717 0.32563287 0.06050447 -0.16105407 -0.012052284 -0.3166086 -0.16659456
-0.2986281 0.081736095 -0.19620647 -0.22267823 -0.24054986 -0.3233685 -0.259966 0.13415654
-0.083686106 0.124667816 0.1806507 0.21701966 -0.3030689 -0.28000793 -0.14678246 0.14729342
0.11993026 -0.045826606 0.3146947 0.11232062 0.17438813 0.14415783 0.06673431 0.18698087
-0.06209521 -0.26884767 -0.12732217 -0.2887837 0.08286476 0.28513074 -0.22586818 -0.32695478

embed_layer.1.weight f4 [64]
00000000: c9c3 7f3f c4b1 7f3f a2e2 7f3f 43cd 7f3f
00000010: 1c2d 803f 84a8 7f3f f912 803f e00c 803f
00000020: 862b 803f 064a 803f 616d 803f 3e34 803f
00000030: 2bbd 7f3f 6050 7f3f c145 803f f3df 7f3f
00000040: 8f3a 7f3f fab4 803f 845b 803f 027c 803f
00000050: def7 7f3f 9c73 7f3f d606 803f ca65 803f
00000060: 9b0e 803f be0a 803f 3e2c 803f 0903 803f
00000070: 3496 803f 6932 803f 47a4 7f3f a565 803f
00000080: ec63 7f3f c20b 803f c77e 803f 1a7d 7e3f
00000090: 4632 7f3f 764c 803f 577e 803f 2856 803f
000000a0: 591b 803f 27fc 7f3f 8197 7f3f 577a 803f
000000b0: 6e5b 7f3f f76e 7f3f 7f94 7f3f 2a49 803f
000000c0: d2ee 7f3f 8613 803f 74c9 7e3f d03c 803f
000000d0: 2b23 7f3f 9f65 803f b211 803f 4342 7f3f
000000e0: f202 803f 35e1 7e3f 9110 7f3f 269b 803f
000000f0: cb89 7f3f 47ea 7f3f b7ac 7f3f 3054 803f
0.9990812 0.99880624 0.9995519 0.9992258 1.0013766 0.9986651 1.000579 1.0003929
1.0013282 1.002259 1.003338 1.0015943 0.9989802 0.9973202 1.0021287 0.99951094
0.9969873 1.005523 1.0027928 1.0037844 0.9998759 0.9978578 1.0002086 1.0031064
1.0004457 1.0003278 1.0013502 1.0000926 1.0045838 1.0015384 0.9986004 1.003102
0.99761844 1.0003588 1.0038689 0.9940964 0.99686086 1.0023334 1.0038556 1.0026293
1.0008346 0.9999413 0.9984055 1.0037335 0.99748886 0.99778694 0.9983596 1.0022328
0.99973786 1.0005958 0.99526143 1.0018559 0.9966304 1.0031012 1.00054 0.9971048
1.0000899 0.9956239 0.99634653 1.0047348 0.9981963 0.99966854 0.99872917 1.0025692

embed_layer.1.bias f4 [64]
00000000: 4181 983b d6ff f5ba b35a 363b 86ea 4bbb
00000010: 9fd5 b13b 912f 603b 595f a83b e2a5 803b
00000020: 830c 3f3b 6b67 ac3a 1185 beba 0ac6 be39
00000030: 084d e6ba f6f6 213b 7f0c a63b 1b8c 8a3b
00000040: b5a3 24bb b5b0 d33b 271a 5cbb db97 033c
00000050: b2df 08bb ed05 ef3b 52d6 e13b 34ed bc3b
00000060: 7699 703b 2510 823b 295b 8d3b a793 a939
00000070: 3aa1 d03b 5dc2 993a a7b0 4dbb f329 bd3b
00000080: a264 723b ae98 973b ea94 003c cda7 25bb
00000090: 9aac 83bb 5de2 963b 7ba2 fe3b 6393 b43b
000000a0: 3bf9 563b 1e83 0a3c cb75 dd3a 094e b83b
000000b0: 33c3 1dba 333e c0bb cb76 f1b9 d066 a73b
000000c0: 78d8 893b 5ee8 cd3a 3c04 a9bb b029 e53a
000000d0: 9af8 cc3b e179 ba3b cb65 95bb f3d1 0bbb
000000e0: b0d8 90ba 02cf e7b9 35a3 52b9 2d1a 5e3b
000000f0: 7c2c 9e3a e421 c43b 90ea 853b d0ff d0ba
0.00465408 -0.0018768262 0.0027825057 -0.0031115129 0.005427077 0.003420804 0.0051383195 0.003926025
0.0029151745 0.001315338 -0.0014535506 0.00036387175 -0.0017570565 0.002471385 0.0050674076 0.0042281277
-0.002512199 0.006460274 -0.0033584924 0.008031811 -0.0020885286 0.0072944076 0.006892004 0.0057655815
0.0036712564 0.0039692097 0.0043138457 0.00032344201 0.006366876 0.0011730898 -0.003138581 0.005772823
0.0036986251 0.004626355 0.007848004 -0.002527702 -0.0040183784 0.0046046213 0.007770834 0.005510734
0.0032802362 0.008454112 0.0016896067 0.005624537 -0.00060181617 -0.0058667897 -0.0004605561 0.0051086918
0.0042067133 0.001570951 -0.0051579755 0.0017483737 0.0062552216 0.0056907986 -0.004559254 -0.0021334856
-0.0011050906 -0.00044213986 -0.0002008796 0.0033890114 0.0012067701 0.0059854854 0.0040868 -0.0015945379

embed_layer.1.running_mean f4 [64]
00000000: 5a7d acbe 9c86 37be f745 cc3d e165 1dbd
00000010: ed31 3d3e 7697 9abe 7409 28bd f0a1 82be
00000020: 9571 213d 0999 43be 967d bf3d 465f 00bd
00000030: bd77 4c3e 2d8e 14bd 7864 e43e b731 89be
00000040: 2565 9f3c 2980 353e 77d1 1abd 1815 15be
00000050: d537 45bc 1422 833e 6830 83be 06bb 2f3e
00000060: cd1f 7bbe 43ea 5bbe ccbe df3e 59a4 af3d
00000070: 0de8 acbe 1231 14bd bc12 93be 71a9 6bbe
00000080: 5352 84be 8761 0c3e 8aea 5ebd 73c0 85be
00000090: 9292 42be ec5b f7bd 16b1 acbe d9a5 f33c
000000a0: 626b 82be 7b8d 913c 9038 433e d1f3 e43d
000000b0: ad56 8fbe 4e39 3bbe f60f 12be d6d5 553e
000000c0: 2296 813c 57f1 c9bd 9fbd b73e 3457 913d
000000d0: 57dd 6a3e d3cc d33d 4f2a 8d3c d242 2d3e
000000e0: d949 f3bd d221 4bbe f7f6 1abe 29a3 2cbe
000000f0: ef11 87bb d44a e33e 35e3 0abe 7892 85be
-0.33689386 -0.17922443 0.09974282 -0.038427237 0.18476076 -0.3019368 -0.04102464 -0.25514174
0.03941496 -0.19101347 0.093501255 -0.03134086 0.19967552 -0.036268402 0.44607902 -0.26795742
0.01945741 0.1772467 -0.037797417 -0.14558828 -0.012037237 0.25611937 -0.2562287 0.17161188
-0.2452385 -0.21476083 0.43700254 0.08576269 -0.3377079 -0.03617961 -0.2872523 -0.23013856
-0.25844058 0.13709079 -0.054422893 -0.2612339 -0.19001225 -0.120780796 -0.33728856 0.029742168
-0.25472552 0.017767658 0.19064546 0.11179317 -0.27995816 -0.18283579 -0.14263901 0.20882353
0.01581866 -0.09860485 0.35886857 0.07096711 0.22935997 0.103418015 0.017232088 0.16920021
-0.1187932 -0.1983712 -0.15133272 -0.16859116 -0.004122011 0.44393027 -0.13563235 -0.2608831

embed_layer.1.running_var f4 [64]
00000000: 92fa 0244 2b9d 8a42 1de2 3f42 12d5 2542
00000010: 0df9 0642 825a 1541 3543 4144 607f 1043
00000020: 2bcc 0144 b916 2244 9b87 8543 0a79 a043
00000030: 1171 e543 0ddf c641 3ca3 d443 33a5 5f43
00000040: d4c8 b643 45c5 1344 cff8 2342 d601 c142
00000050: 9acc 0343 6835 3b43 8786 1643 ae04 5c43
00000060: f758 a442 999c 3643 68c7 9f43 2971 b841
00000070: 6058 3c44 27be fe41 105d 3142 168d fc42
00000080: 2595 4642 e4b8 e642 4724 f443 5aed 2042
00000090: 036e d342 65f3 8044 080d 1b43 7d39 8543
000000a0: 0b2f 3c44 de70 9743 092e cc41 6739 8b43
000000b0: 77ec a841 d2a6 6e43 e975 0f41 f037 e742
000000c0: 79e6 8943 ef16 d442 c619 8e42 34bd 5542
000000d0: e3e4 b542 e34a 4442 f91f 8f42 2379 b241
000000e0: 1301 b442 3dc9 fc42 c3d9 c541 9455 b443
000000f0: 6708 4e43 e055 1944 587c 6d43 ae08 dc42
523.91516 69.30697 47.970814 41.458076 33.743214 9.334597 773.0501 144.49756
519.1901 648.35504 267.05942 320.94562 458.88333 24.858912 425.27527 223.64531
365.56897 591.08234 40.992977 96.503586 131.79922 187.20862 150.5255 220.01828
82.17376 182.61171 319.55786 23.055254 753.38086 31.842848 44.34088 126.27556
49.64565 115.361115 488.28342 40.23179 105.71487 1031.6061 155.0509 266.44913
752.73505 302.88177 25.522478 278.44846 21.115461 238.65164 8.966287 115.60925
275.80057 106.04479 71.05034 53.43477 90.947044 49.07313 71.56245 22.309149
90.0021 126.39304 24.731329 360.66858 206.03282 613.3418 237.48572 110.01695

embed_layer2.0.weight f4 [16, 64, 45, 1]
00000000: a8dc 4e3c 6c70 e93a 59ea acbb dfd8 56bb
00000010: fd20 eebb e7da 74bc e49c cd39 0870 9cbc
00000020: a1ce c6b9 54ec 55bc b364 05bc ed49 563b
00000030: 6517 333c dfbd 573c 41c3 6f3b 04f5 f53b
00000040: d24c cd3c 5a11 0cbc 5ec7 373c b544 53bc
00000050: 1d06 4bbc cb5f bbbc 2a89 07bc ff70 663c
00000060: bbe5 e73a 5178 5abc 09f4 19bc 813f 3a3c
00000070: cd07 8e3c 3829 5a3c f216 66bb 5e37 3fbb
00000080: 77f5 90bc 11e5 a53c d92a 8bb9 662d 7bba
00000090: 7435 9fbc bef9 f7ba eed7 8ebb 7f7b e73b
000000a0: 01ce a4bb 66a9 d3bb 95c7 5e3c d6c4 b8bb
000000b0: cf5c e2bb 271f 0e3c ea8b 423c c98f 893c
000000c0: 59d1 5a3c 5bac 483c 1ab0 083c 0811 463c
000000d0: d2c6 d3bb 2a7e a2bb f60c 29bc ae40 5d3c
000000e0: 41b2 b5bc baa0 38bc 4339 123c 16b3 81bc
000000f0: 3bda 8c3c acc3 b03b 2b09 4f3c 392e 4bbc
00000100: f982 72bc 2c85 863c 4230 4dbc ec20 3d3a
00000110: 5b24 41ba fcc4 23bc 864b b43b 1194 89bc
00000120: e6a5 4b3c 9aff 59bc 86fe 893c 6b4d c0bb
00000130: 762c ab3a 433d 993c f0cf b3bc ad54 fa3a
00000140: a42c 873b ecbd 17bc bbfd b53c 94ca 99bc
00000150: f521 99bb 4e94 ac3b 3a57 433c d728 85bc
00000160: 990b 74bc 2195 c63c db83 af3c e575 58bc
00000170: a2fd 59bc 84fb 88bc 0b9d 9f3b 1929 a1bc
00000180: e47d 25bc c0b0 753b 4ec7 a63b 962e f8ba
00000190: 4016 b3bb 1789 563c a7cf f73a 8d0c 273c
000001a0: e267 9f3b c2f0 b23c 4972 f03b a51f 053c
000001b0: 8bc5 8a3b f1e0 80bc bd57 f4b8 b7b4 8ebc
000001c0: 7667 3fbb 0a69 37bc 4588 893b 4ffe 9e3c
000001d0: a45c d5b9 1eaa 7bbb 2a42 66bb 9e08 1c3b
000001e0: b106 4c3c 4509 233b 145b 60bb f695 94bc
000001f0: 947e 973b a7c4 b5bb c6b2 783c c14f 01bc
00000200: 2450 acbc 41cd b4bc c453 ed3b 4d2c d6bb
00000210: 8104 4fbc 3eb4 d939 ca3e 053b 2ad6 dd3b
00000220: 2da8 a5bb f755 2cbb 7e8e 2f3c 3dca d0bb
00000230: d516 93bb b426 c2b9 0a6b d63b 16d9 a7bc
00000240: f38f 9cbc fd66 833a 43a3 853b 804d 153b
00000250: 6888 bf3b e3ba 6fbc 7e0e 883c fc29 b6ba
00000260: dbc2 873c e05f 333c 7c71 013c 3074 683c
00000270: 4ec4 3f3b 7715 223a 5522 503c c898 8bbc
00000280: ec4a 3b3c 77a7 0bbc 4ae2 2c3c cc43 21bb
00000290: 599b d3bb 0389 92bc f0db 7c3c a1c0 89bb
000002a0: 1c95 6bbc 1954 803c 3f30 7e3c a164 5cbc
000002b0: 61d4 58bb 1418 273b 8b9b e9bb 0688 863c
000002c0: b798 fbbb 18f1 2abc 3e6a f33b 8b60 d23b
000002d0: 314d 363c 9100 0cbc a0f1 80bc 7bb5 06bc
000002e0: 4033 0c3c de3d 9f3c fd5e 563c d1e2 5aba
000002f0: eac5 8fba 9fa1 76bc fb78 26bb 94ce 8c3c
00000300: 2127 32bb c9f6 3d3c fa1a 6ebc 1144 7c3b
00000310: 5d97 c03c 0741 e93b de3f 8c3c 8c79 d63b
00000320: 4fd8 693a 9362 653b 9cbc be3b 299b 68bc
00000330: c89c 2e3c 1bee 3fbc 6d3f d4bb 569a 073b
00000340: 1525 a43b 2544 6f3c afe1 38ba d387 643c
00000350: ce0e d3ba 39d4 7c39 b529 08bc 61d4 a43a
00000360: d623 ef3b d15c cd3a 40a1 18bc 5971 62bc
00000370: d51b 023c ef26 733c 8334 2c3b 8f99 40ba
00000380: 883e 06bc 6d9e c13c b82a aebc 510b 86bc
00000390: 5a50 71bc be03 6cbc 12f5 5abc ae0d 873b
000003a0: a442 ae3b 1119 f83b 8d1d a33b 4e0f a73c
000003b0: f9bc 72bc 2e87 91bc 038c 1dbc a3d6 03bc
000003c0: 62ab 9b3c d1f0 263b db6a 40bc 106a 9c3b
000003d0: b87a debb 51fc 7d3c b696 243c 3a7b d6b8
000003e0: 213b 243c 872c 8939 40dd 04bb c07a 5a3c
000003f0: afba 9cba e7ee 25bb 6f7c 6e3c a1fe c3bb
0.012625851 0.0017809994 -0.00527696 -0.0032783074 -0.007267116 -0.0149447685 0.0003921754 -0.01909639
-0.00037919453 -0.013056833 -0.008141684 0.0032697872 0.010930871 0.013167827 0.0036584886 0.007506015
0.025061045 -0.008549059 0.011216966 -0.012894799 -0.012391594 -0.022872826 -0.008272449 0.014065026
0.0017692366 -0.01333435 -0.009396561 0.01136768 0.017337704 0.013315491 -0.0035108891 -0.0029177289
-0.017695172 0.020250829 -0.0002654407 -0.0009581655 -0.019434668 -0.0018919033 -0.004359237 0.0070642824
-0.0050294404 -0.006459403 0.013597389 -0.005638699 -0.0069080363 0.0086744195 0.011874178 0.016792195
0.013355576 0.012248124 0.008342767 0.0120890215 -0.00646291 -0.0049588876 -0.010318032 0.01350419
-0.022179725 -0.011268789 0.008924785 -0.015832465 0.017193904 0.0053944197 0.012636463 -0.012401157
-0.014801734 0.016420923 -0.012523713 0.00072146836 -0.0007367783 -0.009995695 0.005502167 -0.016794236
0.01242969 -0.013305569 0.016844999 -0.005868604 0.0013059515 0.01870597 -0.021949738 0.0019098722
0.0041251946 -0.0092615895 0.022215715 -0.018773355 -0.0046732374 0.0052667027 0.011922652 -0.016254826
-0.014895343 0.024241032 0.021425178 -0.013211702 -0.0133051 -0.016721494 0.004871016 -0.019672917
-0.010100815 0.0037489384 0.005089677 -0.0018934782 -0.005465299 0.013094208 0.001890649 0.010195863
0.0048646787 0.021843318 0.0073378426 0.00812522 0.0042349747 -0.01573226 -0.00011651169 -0.017420156
-0.0029205955 -0.011194477 0.004197153 0.019408373 -0.00040695549 -0.0038400958 -0.0035134652 0.0023808847
0.012452767 0.0024877351 -0.0034233974 -0.018137913 0.0046232436 -0.0055471244 0.015179342 -0.00789255
-0.021034308 -0.022070529 0.0072426517 -0.006536043 -0.012635351 0.00041523756 0.0020331615 0.006769915
-0.0050554485 -0.0026296356 0.010715125 -0.006371765 -0.004488806 -0.000370314 0.006543522 -0.020489257
-0.01911161 0.00100252 0.0040783 0.002278179 0.0058451183 -0.01463196 0.016608473 -0.001389801
0.016572407 0.010948151 0.007900592 0.0141878575 0.0029261294 0.0006183008 0.012703498 -0.017040625
0.011431437 -0.008523813 0.010551998 -0.002460706 -0.006457728 -0.017887598 0.015433297 -0.0042038714
-0.014378812 0.0156651 0.015514432 -0.013451726 -0.0033085572 0.002549653 -0.007129138 0.016422283
-0.007678117 -0.010433458 0.0074284365 0.0064202 0.011126802 -0.008545057 -0.015740216 -0.008221979
0.008557141 0.01943868 0.01308417 -0.00083498383 -0.0010969017 -0.015053182 -0.00254017 0.017188348
-0.0027183967 0.011594483 -0.014532799 0.003849272 0.023509676 0.0071183476 0.017120298 0.0065452512
0.0008920477 0.0035001382 0.005820824 -0.014197149 0.010657497 -0.011714484 -0.0064772875 0.0020691357
0.0050093033 0.014603649 -0.00070526724 0.013948399 -0.0016102435 0.00024111652 -0.008310725 0.0012575501
0.007297973 0.001566792 -0.009315789 -0.0138209695 0.007941206 0.014840825 0.0026276417 -0.0007347101
-0.00819362 0.023635114 -0.021260604 -0.016362818 -0.01472863 -0.014405189 -0.013364093 0.004121504
0.005318003 0.0075713475 0.004977888 0.02039304 -0.014815562 -0.017764654 -0.009615901 -0.008046779
0.01900262 0.0025473128 -0.011744226 0.004773386 -0.0067895316 0.015502051 0.010045698 -0.00010227268
0.010023863 0.00026163852 -0.0020273477 0.01333493 -0.0011957492 -0.00253194 0.0145560345 -0.005981282

embed_layer2.0.bias f4 [16]
00000000: b14e f6bb a545 583c b9b3 32bc 8725 03bc
00000010: bf0d 5b3c f800 7e3c 0134 263c a8c7 e3bb
00000020: 0825 da3a 520b 33bc d5f7 1c3c 5968 6b3c
00000030: 4155 e7b9 07ce 2a3c a437 56bc 39c9 e3bb
-0.007516705 0.013200198 -0.010907107 -0.008004553 0.013369977 0.015503161 0.010144235 -0.006951291
0.0016643116 -0.010927992 0.009580572 0.01436814 -0.00044123273 0.010425097 -0.013074789 -0.006951478

embed_layer2.1.weight f4 [16]
00000000: ae22 803f f6f8 803f 4ca0 803f 2334 803f
00000010: d7c9 803f 19dc 7e3f 06ce 803f dc1e 813f
00000020: 7fcb 803f 62f7 7f3f 5ba2 803f 6324 7f3f
00000030: 59b1 7e3f b465 7f3f b136 813f 7e78 7f3f
1.0010583 1.0075977 1.0048919 1.0015911 1.0061597 0.9955459 1.0062873 1.0087543
1.0062102 0.9998685 1.0049547 0.99664897 0.9948936 0.9976456 1.0094815 0.9979323

embed_layer2.1.bias f4 [16]
00000000: 0f50 eeb9 83ef c53b 336b 9238 c432 3a39
00000010: 2103 763b 374f e8bb ec7d 793b 5594 ef3b
00000020: 735a 403b 1bd6 55ba 3066 a5ba 03f9 bcbb
00000030: 8089 0ebc 327d 87bb ff19 173c 8bc2 9fbb
-0.00045454546 0.006040515 6.98179e-05 0.00017757254 0.0037538486 -0.0070895213 0.003806944 0.0073113837
0.0029350787 -0.00081572094 -0.0012618955 -0.005766989 -0.008699775 -0.0041347975 0.009222507 -0.0048754863

embed_layer2.1.running_mean f4 [16]
00000000: fdf6 43be 69c9 1cbd 7e9d d3be 7fd1 afbe
00000010: 1fc1 59bd 3416 bb3d 7bfa 41be ad69 aebe
00000020: 9397 78be f0c1 69be 070b 583e e97f 37bd
00000030: 8cf4 e43e 0cf3 ab3d 546a d3be 5c77 a13e
-0.19137187 -0.038278017 -0.41331095 -0.3433952 -0.05316269 0.09135094 -0.18943207 -0.34065
-0.24276571 -0.22827888 0.21097957 -0.04479972 0.44717824 0.08395967 -0.4129206 0.31536376

embed_layer2.1.running_var f4 [16]
00000000: 6b28 843e b7de fa3d 9f40 003e f600 3a3e
00000010: 1804 063e f3f0 2e3e c642 d73d 28d5 e83d
00000020: 4730 683e 2e42 cb3d c3f7 523e 7046 e43d
00000030: c902 a03e 2639 1a3e 0d73 3e3e 46ae 3d3e
0.25812086 0.12249511 0.12524651 0.18164429 0.13087499 0.17084102 0.10510783 0.11368781
0.22674666 0.09924732 0.20602326 0.111462474 0.31252125 0.15060863 0.18598576 0.18523511

Fix_Position.pe f4 [1, 161, 16]
00000000: 0000 0000 0000 803f 0000 0000 0000 803f
00000010: 0000 0000 0000 803f 0000 0000 0000 803f
00000020: 0000 0000 0000 803f 0000 0000 0000 803f
00000030: 0000 0000 0000 803f 0000 0000 0000 803f
00000040: 6f31 cb3d a5bc 7e3f 81b3 003d a4df 7f3f
00000050: d6d1 223c c4fc 7f3f 99f4 4d3b adff 7f3f
00000060: 0442 823a f8ff 7f3f bdc3 a439 ffff 7f3f
00000070: a169 d038 0000 803f cecf 0338 0000 803f
00000080: c830 4a3e c5f5 7a3f 3da3 803d 987e 7f3f
00000090: c7cf a23c 0ef3 7f3f 56f4 cd3b b5fe 7f3f
000000a0: ff41 023b dfff 7f3f bcc3 243a fdff 7f3f
000000b0: a169 5039 0000 803f cecf 8338 0000 803f
000000c0: 0865 963e e9b4 743f 33cc c03d f5dc 7e3f
000000d0: 8632 f43c e0e2 7f3f ed76 1a3c 16fd 7f3f
000000e0: f462 433b b6ff 7f3f 9925 773a f9ff 7f3f
000000f0: 394f 9c39 ffff 7f3f b6b7 c538 0000 803f
00000100: bf35 c63e df09 6c3f 3662 003e e3fa 7d3f
00000110: 8cc7 223d 3acc 7f3f 4cf3 4d3c d2fa 7f3f
00000120: ef41 823b 7cff 7f3f bac3 a43a f3ff 7f3f
00000130: a169 d039 ffff 7f3f cecf 0339 0000 803f
00000140: bd11 f43e 8d0a 613f de3d 203e 9cd8 7c3f
00000150: b771 4b3d 1caf 7f3f 92b7 803c e9f7 7f3f
00000160: 5ad2 a23b 31ff 7f3f a6f4 cd3a ebff 7f3f
00000170: 0542 023a feff 7f3f c1c3 2439 0000 803f
00000180: 94c2 0f3f b9d2 533f 02f1 3f3e 6976 7b3f
00000190: be16 743d 888b 7f3f 2b75 9a3c 5af4 7f3f
000001a0: bb62 c33b d6fe 7f3f 9125 f73a e2ff 7f3f
000001b0: 384f 1c3a fdff 7f3f b6b7 4539 0000 803f
000001c0: 1f11 243f c983 443f a273 5f3e a3d4 793f
000001d0: cc5a 8e3d 7d61 7f3f 6132 b43c 25f0 7f3f
000001e0: 11f3 e33b 6afe 7f3f 3d2b 103b d7ff 7f3f
000001f0: 6b5c 363a fcff 7f3f a9ab 6639 0000 803f
00000200: 31c1 363f 6944 333f c3bd 7e3e b5f3 773f
00000210: a0a6 a23d fe30 7f3f 21ef cd3c 4aeb 7f3f
00000220: ab41 023c eefd 7f3f b2c3 243b cbff 7f3f
00000230: a069 503a fbff 7f3f cecf 8339 0000 803f
00000240: 96a3 473f 2a40 203f bee3 8e3e 17d4 753f
00000250: 58ee b63d 0afa 7e3f 5dab e73c cae5 7f3f
00000260: c589 123c 61fd 7f3f 245c 393b bdff 7f3f
00000270: d376 6a3a f9ff 7f3f c849 9439 ffff 7f3f
00000280: a68d 563f 17a7 0b3f 7d44 9e3e 5376 733f
00000290: 6e31 cb3d a5bc 7e3f 80b3 003d a4df 7f3f
000002a0: d6d1 223c c4fc 7f3f 96f4 4d3b adff 7f3f
000002b0: 0442 823a f8ff 7f3f c1c3 a439 ffff 7f3f
000002c0: b459 633f 725a eb3e 377d ad3e 04db 703f
000002d0: 636f df3d cf78 7e3f 0191 0d3d d8d8 7f3f
000002e0: dd19 333c 16fc 7f3f 058d 623b 9cff 7f3f
000002f0: 9c48 8f3a f6ff 7f3f bb3d b539 ffff 7f3f
00000300: 6be7 6d3f 2b14 bd3e 148a bc3e d002 6e3f
00000310: b1a7 f33d 892e 7e3f 246e 1a3d 67d1 7f3f
00000320: d761 433c 57fb 7f3f 7525 773b 89ff 7f3f
00000330: 374f 9c3a f4ff 7f3f b6b7 c539 ffff 7f3f
00000340: 241c 763f 3cf0 8c3e 4a67 cb3e 6fee 6a3f
00000350: ebec 033e d7dd 7d3f e44a 273d 51c9 7f3f
00000360: c6a9 533c 88fa 7f3f f1de 853b 74ff 7f3f
00000370: d055 a93a f2ff 7f3f af31 d639 ffff 7f3f
00000380: 22e3 7b3f 7ed0 363e 1311 da3e ab9e 673f
00000390: a702 0e3e b986 7d3f 3827 343d 94c0 7f3f
000003a0: a7f1 633c a8f9 7f3f 272b 903b 5eff 7f3f
000003b0: 685c b63a f0ff 7f3f a9ab e639 feff 7f3f
000003c0: ce2d 7f3f 60e5 a33d b983 e83e 5814 643f
000003d0: cc14 183e 3329 7d3f 1603 413d 33b7 7f3f
000003e0: 7839 743c b8f8 7f3f 5c77 9a3b 46ff 7f3f
000003f0: 0263 c33a edff 7f3f a125 f739 feff 7f3f
0.0 1.0 0.0 1.0 0.0 1.0 0.0 1.0
0.0 1.0 0.0 1.0 0.0 1.0 0.0 1.0
0.09921538 0.995066 0.03142119 0.99950624 0.009937724 0.99995065 0.003142631 0.99999505
0.0009937887 0.9999995 0.00031426354 0.99999994 9.937888e-05 1.0 3.1426367e-05 1.0
0.19745171 0.98031265 0.06281135 0.9980254 0.019874467 0.9998025 0.0062852306 0.9999803
0.0019875763 0.99999803 0.000628527 0.9999998 0.00019875776 1.0 6.2852734e-05 1.0
0.29373956 0.95588547 0.09413948 0.99555904 0.029809248 0.9995556 0.009427768 0.99995553
0.002981362 0.9999956 0.0009427905 0.9999996 0.00029813664 0.99999994 9.427911e-05 1.0
0.3871288 0.9220256 0.12537464 0.9921095 0.039741084 0.99921 0.0125702135 0.99992096
0.003975145 0.99999213 0.0012570538 0.9999992 0.0003975155 0.99999994 0.00012570547 1.0
0.47669783 0.87906724 0.156486 0.9876802 0.049668994 0.9987657 0.015712533 0.99987656
0.0049689235 0.99998766 0.001571317 0.99999875 0.0004968944 0.9999999 0.00015713183 1.0
0.5615628 0.8274341 0.18744281 0.98227555 0.059592 0.9982228 0.018854698 0.99982226
0.0059626973 0.99998224 0.00188558 0.9999982 0.0005962732 0.9999998 0.00018855822 1.0
0.64088625 0.7676359 0.21821454 0.9759008 0.06950912 0.9975813 0.021996679 0.99975806
0.006956466 0.9999758 0.0021998428 0.99999756 0.00069565204 0.99999976 0.00021998458 1.0
0.71388537 0.7002626 0.24877076 0.9685624 0.079419374 0.9968413 0.02513844 0.999684
0.007950227 0.9999684 0.0025141058 0.99999684 0.00079503097 0.9999997 0.00025141094 1.0
0.7798399 0.62597907 0.27908128 0.9602675 0.08932179 0.9960028 0.028279955 0.99960005
0.00894398 0.99996 0.002828368 0.999996 0.0008944098 0.9999996 0.0002828373 0.99999994
0.8380989 0.54551834 0.30911627 0.95102423 0.09921537 0.995066 0.031421185 0.99950624
0.009937724 0.99995065 0.0031426302 0.99999505 0.0009937887 0.9999995 0.00031426366 0.99999994
0.8880875 0.45967442 0.33884594 0.9408419 0.10909917 0.9940309 0.034562115 0.9994025
0.010931459 0.9999403 0.0034568917 0.99999404 0.0010931673 0.9999994 0.00034569003 0.99999994
0.9293124 0.3692945 0.36824095 0.9297304 0.11897219 0.99289757 0.037702695 0.999289
0.011925182 0.9999289 0.0037711535 0.9999929 0.0011925463 0.9999993 0.00037711643 0.99999994
0.9613669 0.27527034 0.3972724 0.9177007 0.12883346 0.99166626 0.040842906 0.9991656
0.012918895 0.99991655 0.0040854146 0.99999166 0.0012919251 0.99999917 0.00040854278 0.99999994
0.9839345 0.17852971 0.42591152 0.90476483 0.138682 0.99033695 0.043982714 0.99903226
0.013912595 0.9999032 0.0043996754 0.99999034 0.0013913037 0.99999905 0.00043996915 0.9999999
0.9967927 0.08002734 0.45412996 0.8909354 0.14851683 0.9889099 0.047122084 0.99888915
0.01490628 0.9998889 0.004713936 0.9999889 0.0014906826 0.99999887 0.00047139547 0.9999999

attention_layer.relative_bias_table f4 [321, 8]
00000000: 10aa 51bb a112 ad39 d897 d6b9 46f8 7e3a
00000010: 02fc 23bb 3407 81bb 554a b9bb 215b adba
00000020: 7e24 58bb 3a7e 3b3a 20f0 a0ba 72b6 72ba
00000030: 0b36 43bb e9d1 7ebb 43b1 b9bb 824f 9dba
00000040: 2459 7abb 0e2f 8f3a 67ce a5ba 8f16 acba
00000050: acc2 2abb 04f3 89bb 45e5 a9bb 9e97 c5ba
00000060: dc60 8ebb 8eff b73a a921 a1ba 9473 b8ba
00000070: 7d8f 16bb 05a9 82bb b27a a4bb 1008 08bb
00000080: 8416 9bbb 8a2f b03a 2c8f 9bba 8555 9dba
00000090: a5bd 22bb 51fa 7abb 422e a6bb d889 06bb
000000a0: 7050 a4bb 472f b73a 07f6 9aba 312c 8cba
000000b0: 0009 2fbb ceca 6cbb 0394 a7bb 04bf 09bb
000000c0: 8884 abbb de86 c03a 31f1 95ba 613f 80ba
000000d0: 1431 40bb 9950 62bb 027a acbb b74d 0ebb
000000e0: d46f b0bb 0f25 c43a 2001 8eba ee78 3fba
000000f0: 60ae 50bb fb52 57bb fedc b1bb 1fe6 0fbb
00000100: 0889 b7bb d5fd c93a ee5e 83ba 41d8 bab9
00000110: a636 66bb 8b72 4ebb a27d b4bb e019 17bb
00000120: 6a8c bcbb 4b6a cc3a f33b 7cba 245e b4b8
00000130: 21ed 7abb 1da9 45bb 58b3 b3bb a16a 1fbb
00000140: 45b5 c0bb ed5a d33a 064c 6fba eef8 6239
00000150: 2ec0 88bb 2f8d 3abb 9cf3 b2bb 52ba 24bb
00000160: 3d01 c6bb 404e e23a 0291 67ba d5a0 e439
00000170: 7a9d 93bb 8b23 30bb 40c2 afbb a10f 2cbb
00000180: 4f91 c7bb e9dd ef3a 5a0d 63ba 972a 383a
00000190: ccba 9bbb 9a8f 23bb c6ca acbb 9346 34bb
000001a0: 6c4f cbbb ae05 003b 60a7 58ba 3c64 883a
000001b0: d85a a5bb 03e9 18bb a8bf a9bb bb2c 3bbb
000001c0: 73a6 cdbb 7ee2 0a3b 5f1f 4fba 03ec ad3a
000001d0: bcc3 afbb 53b2 0fbb 7444 a8bb 654a 45bb
000001e0: 8bad cfbb 0d8e 143b 8c7d 3fba 5861 d53a
000001f0: 90a3 b9bb f965 06bb 0500 a4bb bb11 4ebb
00000200: bf5b d1bb c979 1c3b 8832 30ba 639b f93a
00000210: 0269 c3bb 5f00 00bb f405 a0bb 834d 58bb
00000220: b87a d2bb 875b 243b 5551 27ba 569f 0c3b
00000230: ef82 cbbb 20c6 f0ba b1c3 9abb bffe 60bb
00000240: eb15 d4bb 642e 2b3b 5f1f 1fba afcf 1e3b
00000250: 97e1 d2bb 0304 ebba 069d 96bb 4fe6 69bb
00000260: dd65 d6bb c117 313b 4f13 15ba 64b1 313b
00000270: 5862 d9bb b670 e4ba 6639 91bb 54cb 71bb
00000280: 7fc8 d7bb c6b7 373b abd8 10ba 7618 423b
00000290: c5f9 dfbb 783c dcba b08c 8dbb 550f 79bb
000002a0: bcee d8bb d224 3b3b c0d8 0eba 565c 513b
000002b0: 3220 e6bb 9886 d3ba b3f0 89bb e584 80bb
000002c0: b616 dabb f5c0 3d3b 14ee 09ba c18b 5e3b
000002d0: 9c46 ebbb bd37 caba 3881 85bb e7d8 83bb
000002e0: f33b dabb 63d3 403b 010e 02ba f998 6c3b
000002f0: 0a60 efbb 9e48 bfba c0e9 80bb f9f9 86bb
00000300: 92b8 dabb 39f4 443b d46d fab9 25de 783b
00000310: 8d06 f7bb dfec b9ba 78d0 78bb 7020 89bb
00000320: 9449 dbbb 166f 483b a165 e3b9 0bdb 823b
00000330: 17c3 fcbb 37c7 b6ba f728 72bb fcf4 8abb
00000340: dccc dabb 9524 4a3b 2254 dab9 1635 893b
00000350: 2644 01bc d800 b4ba 7f68 6bbb 835b 8dbb
00000360: ec43 dabb 140c 4c3b c6f0 d3b9 f239 8d3b
00000370: ce5e 04bc 938e aeba 078e 67bb 7183 8fbb
00000380: fe38 d9bb 36b2 4e3b dca1 c4b9 9148 913b
00000390: 7e20 07bc 5ded afba 0f41 62bb 1693 91bb
000003a0: d7a3 d7bb 3bde 503b 4fcd b1b9 4889 953b
000003b0: b70c 09bc 23d3 b8ba acc7 5bbb d40f 94bb
000003c0: bb26 d6bb 0c3e 533b 8335 a3b9 0154 983b
000003d0: dba8 0abc a7f4 b8ba aeaa 56bb 79d4 95bb
000003e0: 823b d3bb 27f2 553b 4857 94b9 7ba9 9a3b
000003f0: 130a 0cbc b388 b9ba 0471 52bb 4073 97bb
-0.0031992234 0.0003301101 -0.00040930393 0.00097263267 -0.0025022035 -0.0039376263 -0.005654613 -0.0013226011
-0.0032980735 0.0007152293 -0.0012278594 -0.0009258754 -0.002978685 -0.003888244 -0.005666883 -0.0012001845
-0.0038200105 0.0010924058 -0.0012650014 -0.0013129282 -0.0026055975 -0.004209878 -0.0051848018 -0.0015075093
-0.0043450426 0.0014037953 -0.0012293357 -0.0014072531 -0.002297371 -0.003987434 -0.0050195092 -0.0020756759
-0.0047329087 0.0013441902 -0.001186823 -0.0012003636 -0.0024832275 -0.0038296173 -0.0050714323 -0.0020528939
-0.0050144717 0.0013975882 -0.001182259 -0.0010694322 -0.0026708245 -0.0036131623 -0.00511408 -0.0021018395
-0.005234305 0.0014688631 -0.0011439678 -0.0009784513 -0.0029326128 -0.0034532903 -0.005263568 -0.0021713802
-0.0053844247 0.0014964658 -0.0010834076 -0.00073040917 -0.0031842217 -0.0032855857 -0.0054279556 -0.0021957231
-0.005601052 0.0015410731 -0.0010022798 -0.00035637806 -0.0035127788 -0.0031501378 -0.0055081407 -0.0023056194
-0.0057540433 0.0015595643 -0.000962197 -8.600604e-05 -0.0038288312 -0.0030160614 -0.005484026 -0.002432503
-0.005880984 0.001612512 -0.0009128455 0.00021645773 -0.0041733 -0.00284655 -0.0054611694 -0.002513547
-0.006042628 0.0017265752 -0.00088335585 0.00043607378 -0.0045048567 -0.0026876654 -0.0053637326 -0.0026254433
-0.00609032 0.0018300387 -0.00086613523 0.00070253894 -0.0047524925 -0.002495742 -0.005273196 -0.0027507886
-0.006204536 0.0019534635 -0.0008264687 0.0010405849 -0.00504623 -0.0023332245 -0.005180318 -0.0028560597
-0.006275946 0.0021192129 -0.0007901098 0.001326919 -0.0053639095 -0.0021926358 -0.0051351134 -0.0030104157
-0.0063378266 0.0022667677 -0.000730478 0.0016279621 -0.00566525 -0.0020507558 -0.005004885 -0.0031443674
-0.006389111 0.00238763 -0.0006721397 0.0019043501 -0.0059634456 -0.0019531471 -0.004883522 -0.0033005185
-0.0064233206 0.0025078969 -0.0006382664 0.0021457276 -0.006210677 -0.0018369593 -0.0047230353 -0.0034331528
-0.0064723394 0.002612018 -0.00060700433 0.0024232676 -0.006435584 -0.0017930273 -0.0045963554 -0.0035690253
-0.006542905 0.0027022215 -0.0005686776 0.002711379 -0.006634038 -0.001742861 -0.0044318913 -0.0036894875
-0.0065851803 0.0028033121 -0.000552545 0.002961663 -0.006835195 -0.0016802689 -0.00431975 -0.0038003523
-0.006620256 0.0028555882 -0.00054491684 0.0031945906 -0.007022881 -0.0016138135 -0.004209602 -0.0039220923
-0.0066555394 0.0028954123 -0.00052616117 0.0033957812 -0.007180048 -0.0015427988 -0.004074242 -0.0040236595
-0.0066599785 0.0029422871 -0.0004961193 0.003610192 -0.00730515 -0.0014593785 -0.003934115 -0.0041191545
-0.0066748345 0.0030052795 -0.00047765544 0.0037974205 -0.0075386227 -0.0014184973 -0.0037966054 -0.004184775
-0.006692121 0.003058379 -0.00043372533 0.003993397 -0.007713686 -0.0013944869 -0.0036950686 -0.00424063
-0.006677253 0.0030844558 -0.00041642884 0.0041872365 -0.007889783 -0.0013733162 -0.0035920439 -0.0043138876
-0.006660929 0.0031135129 -0.00040424446 0.004309886 -0.008079244 -0.0013317637 -0.0035332458 -0.0043796827
-0.0066291085 0.0031539327 -0.00037504628 0.0044336994 -0.008247493 -0.001342218 -0.0034523641 -0.004442583
-0.0065808105 0.003187074 -0.00033913038 0.0045634843 -0.008364848 -0.001410101 -0.0033535762 -0.0045184884
-0.0065353788 0.0032233028 -0.00031129652 0.004648686 -0.00846311 -0.0014110998 -0.0032755542 -0.004572448
-0.006446303 0.0032645555 -0.0002829379 0.0047199107 -0.008547324 -0.001415512 -0.003211082 -0.004621893

attention_layer.key.weight f4 [16, 16]
00000000: 3ffc 03bd 0b3f b93d ef3e 373e e9f8 603e
00000010: 8b4b 583e 51f3 52be 3e36 f6bd 7a5a 48be
00000020: 24ac 38be 93ff 243e d368 523e 478c 68bd
00000030: 9480 80bd 012b 8bbd 67f8 40bc 05ac 8b3d
00000040: 3f27 25be 92b9 e8bd 9690 a3bd 24c1 663e
00000050: 13b2 f9bd 2804 023e ada7 733e 9bee 5ebe
00000060: c18e c5bc 4fa8 51be 334f 73bc a619 a2bd
00000070: cacc 27be 5945 c53c bfef 8bbd cd43 543e
00000080: 3c0c 793e bf22 75bd 120d 0dbe b194 c0bd
00000090: cf77 2c3e ba42 f1bd cc20 e23d 2569 a2bd
000000a0: dce2 bb3d d6d1 07be 6e49 16bd 34cb c43d
000000b0: 15f0 51be c05c 7dbd 779b bc3c 0306 c8bc
000000c0: 08fc 3a3e 86a1 6dbe ba7c 42be 42e5 223e
000000d0: 173e 2dbc 4e17 313e 0c59 6a3e cee8 793e
000000e0: 5110 fdbc 239c 23be 6f1e 213a fe92 793e
000000f0: e2f8 773e d634 d0bc 59a3 a4bd c7a3 a83d
00000100: 0d6f d63d 9028 d0bd 23ff 463e 67bb 5b3e
00000110: cf23 56be 6a82 83bc 6b1a 223e 1edb 4bbe
00000120: b256 10be 1b07 1a3d af65 f73d 1cfc 2a3e
00000130: 68b5 cbbc a2f9 9b3d b140 933d a408 1a3d
00000140: 84dc 2e3e 0efd 2bbe 832f 84be d973 4cbe
00000150: 1fcc 5c3e 8388 29be 8c7b 09be cfa5 3abe
00000160: 8596 aa3d f567 243e deb1 1f3e 67ab 1cbe
00000170: 19ef 05be 5ca8 a4bc 6196 9b3c 9a40 753e
00000180: ee7b 083e 2131 393e ceb0 9f3d 5058 9f3d
00000190: bdb5 373e 8384 313e 585e 5dbe 932c ca3d
000001a0: f772 8d3d fb8e 623e d4d9 863b 8458 fe3d
000001b0: 11f8 003e 78de 5cbe 9748 5c3e 568b 96bd
000001c0: 582a 303e 3bd3 32be 0579 023e 768c 8f3d
000001d0: 0553 ef3c b6f6 263e 2f5e 643e ffd6 1abd
000001e0: 3f22 79be 7244 33be c682 52bd 4c30 cf3d
000001f0: 27be 15be f6f6 00bd f5b6 1f3e 669e 66be
00000200: 7e16 6c3e 5954 c03d 5979 3f3d 80bb 813d
00000210: b381 753e 86dd 36bc f1f8 7e3e c256 4bbe
00000220: b39f 803d 2d26 a43b 9304 35bd a94c 3e3d
00000230: 38fe 593d 8b0a 5fbe 8ef2 5dbe 262c 0bbe
00000240: 0357 443d a820 4ebe 4dd8 263e a8e5 35bd
00000250: d7a8 30be d06c 5e3e b210 a93c 08cb 8dbd
00000260: ea55 253e 73ee 763e 090e 3d3e 16e6 ca3d
00000270: 521d d0bd fc31 d6bd b2f1 c03b 9124 6ebe
00000280: ff0f 13be 4170 70be a350 e83d 6c82 f4bd
00000290: a486 82bc 0c72 2ebd 20f8 293e 8e82 2dbe
000002a0: b085 bf3d ee4c 0f3e 0f49 40be 45dc 20be
000002b0: c5c0 6a3e 1cd8 8bbc 50d8 70bd a58e 4cbe
000002c0: d4bc 173b 19ba d4bd 95a6 923d 1bbb bebd
000002d0: b20e 6cbd 76e7 d5bd 7c55 d0bd 0fb7 90bc
000002e0: f581 99bc a635 33be 79dd 77be 4014 7ebe
000002f0: 97e6 4dbe 46fc c2bd fb2b 07be eb7d 2c3e
00000300: 728c 61be a157 543c a2bf 9b3d 4bc8 a1bd
00000310: a320 e2bd e6f6 17be b744 063d d301 f9bb
00000320: 7c5e 653e 5e05 eb3d 095a 993b ff19 4a3e
00000330: fba5 373e 8e55 7b3e ec83 8abc d7a8 693e
00000340: 033f 043e a46d 7abe fc7a 09be d3ae 2abe
00000350: e084 1e3e 7a41 1dbe 52eb ba3d 2dd2 673e
00000360: 27a0 1abe b7a3 f1bd 60ac 183e 6183 30bd
00000370: e699 79be 2fff b93d 6157 4cbe 7026 7cbe
00000380: acb5 f03d 7cc2 69be 0dd9 b1bd 4e6a ce3d
00000390: c651 513e 59df 4bbe 46b9 62bd e3da 383d
000003a0: 3fba c13d 372a acbd da75 943d c66b f63a
000003b0: a38a dabd b188 14bd 91c9 c73d 81a2 7c3e
000003c0: e04d 98bd 1aac 5e3e c52f 41bd e40f ce3d
000003d0: ff6e 6fbd 841e c8bd abbe 81bc 1a1d 563e
000003e0: 883b 723e 48ba 4a3e de19 07bd 7af9 6dbe
000003f0: 9706 8dbd 89ee 0abe 50fc 4ebe 69a9 083e
-0.032222982 0.090452276 0.17895101 0.21969952 0.21122567 -0.2060063 -0.120220646 -0.19565764
-0.18034416 0.16113119 0.205478 -0.056774404 -0.06274524 -0.06795312 -0.011777974 0.068199195
-0.16128252 -0.1136352 -0.07986562 0.22534615 -0.12192168 0.12696898 0.23794432 -0.21770708
-0.024115922 -0.20474361 -0.0148504255 -0.07915048 -0.16386715 0.02408092 -0.06832837 0.20728989
0.24321073 -0.05984759 -0.13774517 -0.09403361 0.16842578 -0.11780305 0.11041412 -0.07930211
0.09174129 -0.1326364 -0.03669112 0.096090704 -0.2050174 -0.06185603 0.02302335 -0.02441693
0.18260205 -0.23206148 -0.18992892 0.15907767 -0.010573885 0.17294046 0.22885531 0.24405214
-0.03089157 -0.1597753 0.00061461976 0.2437248 0.24216035 -0.02541582 -0.080389686 0.08234363
0.104704 -0.10163987 0.19433264 0.21458207 -0.20912097 -0.016053397 0.1583039 -0.19907805
-0.14095572 0.037604433 0.120799415 0.16697735 -0.024866775 0.07615973 0.07190073 0.037605897
0.17076308 -0.16795751 -0.258175 -0.19966067 0.21562241 -0.16555981 -0.13426036 -0.18227313
0.083294906 0.16055281 0.15595195 -0.1529976 -0.1307949 -0.020099811 0.018992605 0.23950425
0.13328525 0.18085147 0.07797395 0.07780516 0.17940421 0.17335705 -0.2161802 0.09871783
0.069066934 0.22124855 0.0041153226 0.12419227 0.1259463 -0.2156924 0.21512066 -0.07350795
0.17203653 -0.1746339 0.12741478 0.07009213 0.029214391 0.1630505 0.22301553 -0.037802693
-0.2432947 -0.17506579 -0.051394247 0.10116634 -0.14623319 -0.03148552 0.15597136 -0.22521362
0.23055455 0.09391088 0.046746586 0.06334591 0.23975258 -0.011161214 0.24899651 -0.19857314
0.0628046 0.0050094337 -0.044193815 0.046459828 0.053220958 -0.21781366 -0.21674559 -0.1359106
0.047934543 -0.20129645 0.1629345 -0.04440847 -0.17251907 0.21721196 0.020637844 -0.06923491
0.16146055 0.24114399 0.18462385 0.09907167 -0.101618424 -0.104587525 0.0058881873 -0.23256136
-0.14361571 -0.23480321 0.11343505 -0.119389385 -0.015933342 -0.042589232 0.16598558 -0.16944334
0.09351671 0.1399419 -0.1877787 -0.15709026 0.22925098 -0.017070822 -0.05880004 -0.1997629
0.0023153322 -0.10387058 0.07160679 -0.09313031 -0.057631202 -0.10444538 -0.10172555 -0.017665414
-0.018738726 -0.17500934 -0.24205579 -0.24812412 -0.20107494 -0.095207736 -0.13200371 0.16844909
-0.22026232 0.0129603455 0.076049104 -0.07899531 -0.11041381 -0.14840278 0.032780375 -0.0075990944
0.22399324 0.11475633 0.0046799225 0.19736479 0.1793441 0.24544355 -0.016908608 0.22818314
0.12914662 -0.24455887 -0.13425821 -0.16668253 0.15480375 -0.15357009 0.09126915 0.2263877
-0.15100156 -0.11798804 0.14909506 -0.043094043 -0.24375114 0.090818755 -0.19955207 -0.24624038
0.11753401 -0.22828096 -0.08683977 0.1007887 0.2044135 -0.19909419 -0.05535247 0.04513062
0.09459352 -0.08406489 0.07249041 0.001880043 -0.10670974 -0.03626317 0.097552426 0.24671365
-0.074367285 0.21745339 -0.047164697 0.10061625 -0.058455463 -0.097714454 -0.015837988 0.20909539
0.23655522 0.19797623 -0.032983653 -0.23239699 -0.068860225 -0.13567556 -0.20213437 0.13345875

attention_layer.value.weight f4 [16, 16]
00000000: 6582 50bd 199e c8bd b6e0 7f3d 3f91 09be
00000010: 454c 393e 313a 8abd 6507 c0bd dd86 22be
00000020: 3640 74be 3f43 4d3d 30c0 f03c bedc f83d
00000030: 736e b9bc 991d 52be 1e68 b33d 2f41 a73d
00000040: 7435 4abe 3a62 e6bd 5963 7fbd ba5f e13d
00000050: 5ced 083d 8d3d 523e d94c 0bbe 9de6 2dbe
00000060: c6fb 1cbe 6b42 243e b519 713e 7856 583d
00000070: f52e e43c 4c9a 3f3e 302f 3abc b1a8 993c
00000080: fa4d 813e 4060 78be e8e6 3a3e 90e1 8c3d
00000090: cdc7 47bd 05c2 2fbe b975 c23d ba47 5bbd
000000a0: c990 7a3e 4e58 78bd 532c 133e d288 a03d
000000b0: fa7b 21bd cc8d 6e3d ef43 bebd f961 76be
000000c0: 426a 5a3e 3797 03be dbe4 80be 931b 2e3d
000000d0: 23dc 323d 2903 7abe d350 f53c 33cf 6c3e
000000e0: ec65 593e bb7a 5abc 9708 21be fb58 52be
000000f0: 8844 293e fc62 80bb 47b5 c53d e5df 3abd
00000100: caf0 e7bd 6a1d 833e 6462 5bbb f30b 593e
00000110: 46a6 2abe fadc 18be fb54 3f3e 43dd 1a3e
00000120: b843 5f3e bdba 55be 0ab8 373e 02e0 47be
00000130: 0b03 3fbe b966 08bd 16fe 673e c73d 79be
00000140: 05ea 21be 0fe0 c73d a149 80be fa52 2d3d
00000150: 15d1 433e b0d6 80bd f2af 19be 3ecd e83d
00000160: 5233 d9bd 8266 cc3d 7677 3cbe 275c e0bd
00000170: 1857 49be 65b9 acbd 5a46 7e3e ba17 0d3c
00000180: fa7d 21be ce28 223e e9a5 e03c 094f e33d
00000190: b5a3 50be 4c87 c73d 8d35 f43d b249 f63d
000001a0: 1d44 04be 884f d23d fb0c 5e3e 7a1b 4dbe
000001b0: 595f e83c 54e9 1cbe 23b6 eebd 3b28 073e
000001c0: 59c2 c3bd 559c 193e 3861 24be 6717 093e
000001d0: fdf3 78be b01e 34be 6583 7d3e 1e1a 083e
000001e0: ff14 da3c d12b 5e3d 435e 483d 6332 d4bd
000001f0: f76e 37be 71a7 9ebc 06fa 50be ae66 233d
00000200: 6498 e93d 471e 77be 0cf8 d0bc 15bd 83bd
00000210: ed2c e9bd 85a3 bb3d 82ab 2e3e 30fd 48bd
00000220: c76f 80be ecad 5f3e b1d0 023e 7483 dabc
00000230: 72b2 5bbe c776 bb3d 256c 473e 708b bbbd
00000240: 9238 353e ca3f 21be 6f38 3cbe 717e 733d
00000250: 5232 c03d 9fa4 3d3e 2a09 363e a795 223e
00000260: 2e4f 0fbe 4973 e3bd 98c3 4e3d 9799 a8bd
00000270: c9d3 3b3d f2f0 2dbe 64fd 21be 9c3c 7bbe
00000280: 9e85 a53d 3d4c 47be d925 ff3d c37a 203e
00000290: 56cd 50be 7720 283e 78e4 50be 33d0 333e
000002a0: 0035 063e 2ec7 2a3e 1d66 5d3e aeb6 713e
000002b0: 5865 663e 3cff d5bc 9350 71be e4ec 5e3d
000002c0: 2e60 3e3c c662 373e 09b9 1dbe 1ea7 123d
000002d0: 71ad 72bd 091e 213d d917 fcbd 53f2 8cbd
000002e0: a477 e9bd 6c2e 59be 6444 293d da4e aebb
000002f0: 005b 753d 033c 62bd 5dc0 69be 8317 4f3e
00000300: 3414 53be a743 32be e649 c63d 7bab 0b3e
00000310: 5721 343e ab3f debd 730b 273e b270 bfbd
00000320: cbd4 f63d fda3 433d a314 82be afd0 363e
00000330: d7de 78bc 104b 133c ee10 66be 6ce7 c4bc
00000340: 07b7 27be f73d 73be 795a b3bd 4d76 b03d
00000350: 5763 723e 7169 273e c28a 733e f863 693e
00000360: a137 81be 09d4 febd c446 a53b 392d 263e
00000370: cfc6 1dbe 9e96 f0bd 4416 c2bd bb28 4e3c
00000380: 0fa3 243e e632 cc3a c0b2 133e 9b27 c9bd
00000390: bffe 0f3e cbfe e23d d9f3 e83d 2414 77be
000003a0: 51a8 18bd bdbe 5ebd f854 523d b3fe 40bd
000003b0: 36e6 93bc 75ab 13be d442 543e f591 67be
000003c0: 9921 563e b7ed f13d c9fc 033e 588e 063d
000003d0: 8753 033d 03f7 683e b8fe 69be 1e96 e9bd
000003e0: e596 a43d 2bd9 3ebe 2809 613e 57c5 e83d
000003f0: 4177 d4bd b2bf 6ebe 69bc 88bc 560c 87bc
-0.050905604 -0.0979578 0.06247016 -0.13434313 0.18095501 -0.067493804 -0.093764104 -0.15871759
-0.2385262 0.05011296 0.029388517 0.12151478 -0.022635674 -0.20519103 0.08760093 0.0816673
-0.19746953 -0.11249204 -0.062350605 0.110045865 0.03342949 0.20531292 -0.13603534 -0.16982503
-0.15330419 0.16040961 0.23544963 0.052816838 0.027854422 0.18711203 -0.011363789 0.018757196
0.25254804 -0.24255466 0.18252146 0.0687896 -0.04877453 -0.17163856 0.0949511 -0.0535352
0.24469294 -0.06063109 0.14372377 0.078385964 -0.039424874 0.058240697 -0.09290301 -0.24060811
0.21329597 -0.12850653 -0.25174603 0.042506766 0.04366697 -0.24415268 0.029945767 0.23125915
0.21230286 -0.013334925 -0.15725933 -0.20541756 0.16530049 -0.00391805 0.096537165 -0.04562368
-0.11325224 0.2560838 -0.0033475393 0.21195965 -0.16664991 -0.14928046 0.18684761 0.15123467
0.21803176 -0.20872016 0.17941299 -0.19519046 -0.18653505 -0.03330109 0.2265552 -0.24339972
-0.15811928 0.09759533 -0.25056174 0.04231546 0.19122727 -0.062909484 -0.15008524 0.11367272
-0.10605492 0.09980489 -0.18404946 -0.10955077 -0.1966213 -0.08433799 0.24831524 0.008611614
-0.15770712 0.15835878 0.027422862 0.11099059 -0.2037495 0.09742603 0.119242765 0.12025775
-0.12916608 0.10269076 0.21684639 -0.20030013 0.028365778 -0.15323383 -0.116558336 0.1319894
-0.09558553 0.15001042 -0.16052711 0.13387834 -0.24311824 -0.17589831 0.24757154 0.13291213
0.02662134 0.054241005 0.04891802 -0.10361173 -0.17913423 -0.019366952 -0.20407876 0.039892845
0.11406019 -0.24132644 -0.025508903 -0.06432549 -0.11385522 0.09162048 0.17057613 -0.049069583
-0.2508528 0.2184369 0.12774922 -0.02667401 -0.2145479 0.09153514 0.19474848 -0.09157455
0.17697361 -0.1574699 -0.18380903 0.059446756 0.09384598 0.18519829 0.17776933 0.158774
-0.13995048 -0.11105973 0.0504795 -0.0823242 0.04585627 -0.16986445 -0.15819317 -0.2453484
0.08082126 -0.19462676 0.12458391 0.1567183 -0.2039083 0.16418634 -0.20399654 0.1755989
0.13106155 0.16677544 0.21620984 0.23604843 0.22499597 -0.026122682 -0.23565893 0.054425135
0.011619611 0.17908773 -0.15402617 0.035803907 -0.059247438 0.039335284 -0.12309236 -0.06882157
-0.11399773 -0.21209115 0.041324988 -0.0053194584 0.059901237 -0.055233013 -0.22827287 0.20223813
-0.20613176 -0.1740862 0.09682064 0.13639633 0.17590843 -0.108519875 0.16312961 -0.09347667
0.12052306 0.047763813 -0.2540637 0.17853044 -0.015189848 0.008990064 -0.22467396 -0.024036132
-0.16378413 -0.23754106 -0.08757491 0.08616314 0.23670708 0.16348816 0.237834 0.22792041
-0.25237754 -0.12442786 0.0050438363 0.16228189 -0.1540787 -0.11747478 -0.09476903 0.012582953
0.16077827 0.0015579134 0.14423656 -0.09822007 0.14062022 0.11083754 0.11374635 -0.24128777
-0.037269894 -0.05438112 0.051350564 -0.0471179 -0.018054109 -0.14420874 0.20728618 -0.22614272
0.20911254 0.11812919 0.12889399 0.032850593 0.03206208 0.22750477 -0.22851074 -0.11405586
0.08036593 -0.1863753 0.21976149 0.113657646 -0.103743084 -0.23315313 -0.016691403 -0.016485374
