models/ConvTran/Results/Dataset/UEA/Dataset/UEA/2024-11-26_10-38/checkpoints/IMU_Rowing_0.pth (torch, 950026 bytes, 77 tensors)

embed_layer.0.weight f4 [64, 1, 1, 8]
0	0xbeb29e30	-0.34886312
1	0x3e24b891	0.16086031
2	0xbeb3d34b	-0.3512214
3	0x3d9be97a	0.076128915
4	0x3e3d8e65	0.1851135
5	0x3ea370a6	0.3192188
6	0xbd2d64cb	-0.04233245
7	0x3cff4e5a	0.03116529
8	0xbe419a85	-0.18906601
9	0xbd794af5	-0.0608625
10	0x3e7f361e	0.24922988
11	0xbeb20d70	-0.34775877
12	0xbe8f83be	-0.280302
13	0xbd1d06cb	-0.038336556
14	0x3d85ed63	0.065394185
15	0x3e7df644	0.24800974
16	0xbd0a60f1	-0.033783857
17	0xbe71d548	-0.23616517
18	0xbe6131cd	-0.21991654
19	0xbe419bf0	-0.18907142
20	0xbd8adbd1	-0.06780208
21	0x3d4c8ab7	0.049936976
22	0xbe00f3fd	-0.12593074
23	0x3da10a98	0.07863349
24	0x3e3d9a7c	0.18515962
25	0xbe94c931	-0.29059747
26	0x3e23454b	0.15944402
27	0xbe94b0bb	-0.29041085
28	0x3e3c1b8f	0.18369888
29	0x3df53922	0.11973788
30	0x3e90ef8a	0.28307754
31	0x3e94bae1	0.29048827
32	0x3ea6ef25	0.32604328
33	0xbe64f866	-0.22360381
34	0x3e14fc92	0.14549473
35	0x3d0f1bfe	0.034938805
36	0x3e26ce5d	0.16289659
37	0x3e41df29	0.18932785
38	0x3e9d8735	0.30767217
39	0xbe3dacf0	-0.18523002
40	0xbe98bda4	-0.29832184
41	0x3d8968d3	0.06709447
42	0x3dfbb501	0.12290383
43	0x3d7ef4f2	0.062245317
44	0xbd675a8b	-0.056482833
45	0x3e9bce7b	0.3043097
46	0x3e8cb30e	0.27480358
47	0x3e85a588	0.26102853
48	0xbe2938a8	-0.16525519
49	0x3ccdfa49	0.02514376
50	0x3d9ba738	0.07600254
51	0xbe542b40	-0.20719624
52	0x3eaaf06e	0.33386558
53	0xbe43d2ce	-0.19123384
54	0x3c788ba6	0.0151700135
55	0xbe92a829	-0.2864392
56	0xbe6c70ba	-0.23089877
57	0xbe7f4594	-0.24928886
58	0xbe84d1e6	-0.2594139
59	0x3e238e05	0.15972145
60	0x3e5c65dd	0.21523233
61	0xbbf0adf2	-0.0073449546
62	0xbe40fecf	-0.18847202
63	0xbea6b900	-0.3256302
64	0x3e8fce6c	0.28087175
65	0x3e7a6fc6	0.244567
66	0xbdd6cdaf	-0.1048845
67	0x3d41f07c	0.047348484
68	0xbeab75d4	-0.33488333
69	0xbdf4d782	-0.11955167
70	0x3d32cf0b	0.043654483
71	0xbd97eb54	-0.07417932
72	0xbe9b9c4c	-0.30392683
73	0x3eb298c7	0.34882185
74	0xbe53025a	-0.20606366
75	0x3ea6f14e	0.32605976
76	0x3e060309	0.13087095
77	0x3e93c509	0.28861263
78	0x3e2f9314	0.1714595
79	0x3e956392	0.2917753
80	0xbe60fde0	-0.21971846
81	0xbea45cbf	-0.3210201
82	0xbe9516c3	-0.29118928
83	0xbe588c21	-0.21147205
84	0x3ea6058d	0.3242611
85	0x3eab9428	0.33511472
86	0xbdc3a467	-0.09552842
87	0xbd842bda	-0.064536765
88	0x3e4b0505	0.19826134
89	0x3daff33f	0.085913174
90	0x3e5236df	0.20528744
91	0x3d87b63a	0.06626554
92	0xbe690714	-0.22756606
93	0x3dd43bb6	0.103629515
94	0x3d9f8b58	0.077902496
95	0x3e1ef906	0.15524682
96	0xbe1af221	-0.15131427
97	0xbe297865	-0.16549833
98	0xbded172d	-0.11576686
99	0x39f20eba	0.0004616881
100	0xbe83ade0	-0.25718594
101	0xbeaa95fa	-0.33317548
102	0x3bba5566	0.00568645
103	0xbc6b955a	-0.01437887
104	0x3d0137b7	0.031547274
105	0x3e598a0a	0.21244064
106	0xbd9489e5	-0.07252864
107	0xbc0be954	-0.0085395165
108	0x3dfc54f5	0.12320892
109	0xbd8fe68d	-0.07026396
110	0xbe556f2b	-0.20843188
111	0xbe2a12cb	-0.16608731
112	0xbea54c56	-0.32284802
113	0xbda59b1f	-0.080862276
114	0x3c410a0f	0.011782183
115	0xbeb13427	-0.34610102
116	0xbd844b58	-0.06459683
117	0x3eae1738	0.3400209
118	0xbeac4feb	-0.33654723
119	0x3e7b8440	0.24562168
120	0xbe1ceda2	-0.15325025
121	0xbea26261	-0.31715682
122	0x3e1e96cf	0.15487216
123	0xbe8003f1	-0.25003007
124	0xbc8abdfa	-0.016936291
125	0x3dad0cf5	0.08449737
126	0x3e27d8c0	0.16391277
127	0x3c8c61a0	0.017136395
128	0xbe4b95e2	-0.19881395
129	0x3e9d84f3	0.30765495
130	0x3e72359b	0.23653261
131	0xbd8d9e37	-0.06914943
132	0x3dbdfcde	0.09276746
133	0x3e97e755	0.2966868
134	0xbe1a5a6c	-0.15073556
135	0x3caa5f67	0.020797445
136	0xbe8a9e0f	-0.27073714
137	0x3d4571e8	0.048204333
138	0x3cce6b6a	0.025197703
139	0xbcab0ca0	-0.020880044
140	0x3e2f3db0	0.17113376
141	0xbda23497	-0.07920187
142	0xbdc4b927	-0.096056275
143	0x3e8d7094	0.27624953
144	0xbd39ece1	-0.04539192
145	0xbe9f26e4	-0.3108436
146	0x3ea09ed5	0.3137118
147	0xbe491376	-0.1963633
148	0x3d7af911	0.061272684
149	0xbe17d8c6	-0.14828786
150	0x3d57ff29	0.052733574
151	0xbea21ade	-0.31661123
152	0x3c49b0f2	0.012310253
153	0x3d720ecf	0.059096154
154	0x3e80b4e6	0.25138015
155	0xbe6e29d2	-0.2325814
156	0xbbb2cf21	-0.0054568206
157	0xbdf2c244	-0.118534595
158	0xbe1000ab	-0.14062755
159	0x3d9697b0	0.07353151
160	0xbcbdd792	-0.023174081
161	0x3d94d886	0.07267861
162	0xbe9fabd1	-0.31185773
163	0xbbf2256a	-0.007389714
164	0xbdbe7b06	-0.093008086
165	0x3dd1549e	0.102212176
166	0x3e8e328d	0.27772942
167	0xbe928e11	-0.28624013
168	0xbe9bcbec	-0.30429018
169	0xbe3c7985	-0.18405731
170	0x3e486513	0.19569807
171	0xbdf165ac	-0.117869705
172	0xbea174e7	-0.31534502
173	0x3dc89327	0.09793692
174	0xbe4cb724	-0.19991738
175	0xbe2fd19b	-0.17169802
176	0x3e611558	0.21980798
177	0x3d4ad746	0.049521707
178	0xbe87ce0e	-0.26524395
179	0xbeaf53f0	-0.34243727
180	0x3ce802ad	0.028321588
181	0xbd1daf52	-0.038497277
182	0x3c4a9ada	0.012366021
183	0x3bbd1715	0.005770574
184	0x3e831a39	0.25605944
185	0x3dbfcbec	0.09365067
186	0xbe896e3f	-0.26841924
187	0x3ea15f1a	0.3151787
188	0xbeaa7422	-0.33291727
189	0xbdd8cf6a	-0.10586436
190	0x3e97392b	0.29535803
191	0xbe83fd46	-0.2577917
192	0xbea0c67a	-0.31401426
193	0xbe261391	-0.16218401
194	0xbeaed92c	-0.34150064
195	0xbe88e39e	-0.26736158
196	0xbe4afbe0	-0.19822645
197	0x3e609857	0.21933113
198	0x3d648156	0.055787407
199	0x3dfd61ac	0.12372145
200	0xbc45ec72	-0.012080299
201	0x3d2591d8	0.04042229
202	0xbb08e8c6	-0.0020890697
203	0x3e1b8021	0.15185596
204	0xbd8fa7fd	-0.07014463
205	0xbe7de37d	-0.24793811
206	0x3aefc668	0.0018293383
207	0xbe465ced	-0.19371386
208	0x3e5e4597	0.21706234
209	0x3e8500f2	0.25977284
210	0x3e09c036	0.13452229
211	0x3ea6495e	0.3247785
212	0xbdb0fa1e	-0.08641456
213	0xbd8c4fb1	-0.068511374
214	0x3e8a9add	0.27071276
215	0x3ce22ff6	0.02761076
216	0xbe88ce39	-0.26719835
217	0xbe870167	-0.26368257
218	0xbe089eeb	-0.13341872
219	0xbe92c2a1	-0.28664115
220	0x3ad69df1	0.0016373975
221	0xbea215c5	-0.31657234
222	0x3d2a2747	0.041541364
223	0x3cb09f37	0.021560295
224	0x3dfe0ef9	0.124051996
225	0xbe806f8d	-0.25085106
226	0x3e0bd112	0.13653973
227	0xbe8c64da	-0.27420694
228	0xbd961589	-0.07328326
229	0x3c46f72b	0.01214389
230	0x3d489ed3	0.04897959
231	0xbbe2ac52	-0.006917515
232	0x3e14d571	0.14534546
233	0xbe66d618	-0.22542608
234	0xbe9522ec	-0.29128206
235	0xbe50527c	-0.20343965
236	0xbeb5eed5	-0.35533777
237	0x3cac3ad5	0.021024147
238	0x3e3c642e	0.1839759
239	0xbe7d892b	-0.24759357
240	0x3ea959ae	0.33076233
241	0x3e4cd60b	0.20003526
242	0xbe0f014e	-0.13965341
243	0xbd9d7e2f	-0.07690083
244	0x3e91e39a	0.2849396
245	0xbe9e3f0a	-0.3090747
246	0xbe98e0b1	-0.29858926
247	0x3e4205b8	0.18947494
248	0x3e008943	0.12552361
249	0xbe1b668f	-0.15175842
250	0x3e396045	0.1810313
251	0xbea35a77	-0.31904957
252	0xbd49e9bc	-0.049295172
253	0xbe3c59ab	-0.1839358
254	0x3e6e1c2c	0.23252934
255	0x3d367d48	0.04455307

embed_layer.0.bias f4 [64]
0	0x3e3c8670	0.18410659
1	0xbe8f693c	-0.28009975
2	0x3d74eb4b	0.059794705
3	0x3d056026	0.032562397
4	0x3ead3634	0.33830416
5	0xbdf91894	-0.12162891
6	0xbd45df21	-0.048308495
7	0xbe40f548	-0.18843567
8	0x3e749664	0.23885494
9	0xbe0653c2	-0.13117889
10	0xbe712dbc	-0.23552603
11	0x3d447525	0.04796328
12	0xbdbe4ee0	-0.09292388
13	0x3d962ad8	0.073323905
14	0x3d9b6dbc	0.075892895
15	0x3e2e3b24	0.17014748
16	0x3ea0fcb4	0.31442797
17	0xbca212a1	-0.019784274
18	0x3e96f7b0	0.29485846
19	0x3c839616	0.016062777
20	0xbd093557	-0.033498134
21	0x3e50fcff	0.2040901
22	0x3eb0d40b	0.34536776
23	0xbe27ef2f	-0.16399835
24	0x3e5c0b05	0.21488579
25	0x3eaabb44	0.33345997
26	0x3da729ea	0.08162291
27	0x3bb37ab8	0.0054772757
28	0x3ce52a62	0.027974311
29	0x3dc2954e	0.09501134
30	0x3dbc41e3	0.091922544
31	0x3d42e0b2	0.047577567
32	0x3e28cdf7	0.1648482
33	0xbd1417df	-0.036155578
34	0xbe86cc62	-0.26327807
35	0x3e80d596	0.25162953
36	0xbad3e8f3	-0.0016167447
37	0xbced5324	-0.028970309
38	0x3d13221b	0.035921197
39	0x3eb2835e	0.3486585
40	0x3d89a531	0.06720961
41	0xbe6dded6	-0.23229536
42	0xbdab0fbb	-0.0835261
43	0x3d515d38	0.05111429
44	0xbc11e4a6	-0.008904612
45	0xbe37e3a1	-0.17957927
46	0x3eb40d81	0.35166553
47	0xbe9b8caf	-0.3038077
48	0xbdbd8f87	-0.09255891
49	0x3eaa48c4	0.3325864
50	0xbe3a5fe8	-0.18200648
51	0xbe8f3bf2	-0.27975422
52	0x3d919362	0.07108189
53	0x3e93eced	0.28891698
54	0xbe2e9100	-0.170475
55	0xbe530d8e	-0.2061064
56	0x3dd82b3f	0.105551235
57	0xbe053f5e	-0.13012454
58	0x3dc1c24b	0.094608866
59	0x3d1dce7e	0.038527004
60	0x3ea840e0	0.32861996
61	0x3e97f9ac	0.29682672
62	0xbd477ec7	-0.04870489
63	0xbc97ad78	-0.018515334

embed_layer.1.weight f4 [64]
0	0x3f80820d	1.0039688
1	0x3f7e776d	0.9940098
2	0x3f808c83	1.0042881
3	0x3f8043d8	1.0020704
4	0x3f7fbbd4	0.9989598
5	0x3f80eb20	1.0071754
6	0x3f7f268a	0.9966818
7	0x3f804a0b	1.0022596
8	0x3f818a03	1.0120243
9	0x3f7fca22	0.99917805
10	0x3f7ffc33	0.999942
11	0x3f80b059	1.0053817
12	0x3f7f5a3f	0.9974708
13	0x3f7f44aa	0.9971415
14	0x3f8017e9	1.0007297
15	0x3f7f4dbb	0.9972798
16	0x3f7f906f	0.99829763
17	0x3f7e7065	0.9939025
18	0x3f80081f	1.0002478
19	0x3f7f8007	0.9980473
20	0x3f7f5d18	0.99751425
21	0x3f808617	1.0040921
22	0x3f7f084a	0.99622023
23	0x3f7dd431	0.99151903
24	0x3f7f26e6	0.9966873
25	0x3f7f766e	0.99790084
26	0x3f801377	1.000594
27	0x3f801539	1.0006477
28	0x3f7f21d5	0.99661
29	0x3f807915	1.0036951
30	0x3f7f1849	0.9964643
31	0x3f8032e2	1.0015528
32	0x3f80006b	1.0000128
33	0x3f810d4d	1.0082184
34	0x3f801668	1.0006838
35	0x3f7f4c6a	0.99725974
36	0x3f7e3b22	0.9930898
37	0x3f803654	1.001658
38	0x3f80757c	1.0035853
39	0x3f7f833e	0.99809635
40	0x3f802675	1.0011736
41	0x3f80bb08	1.0057077
42	0x3f8039fd	1.0017697
43	0x3f800f47	1.0004662
44	0x3f800846	1.0002525
45	0x3f805731	1.0026609
46	0x3f7f372e	0.9969357
47	0x3f800891	1.0002614
48	0x3f80a38d	1.0049912
49	0x3f809c9c	1.0047793
50	0x3f8047ec	1.0021949
51	0x3f804fe8	1.0024385
52	0x3f80b8c4	1.0056386
53	0x3f803989	1.0017558
54	0x3f7f4407	0.99713176
55	0x3f804c03	1.0023197
56	0x3f8019eb	1.000791
57	0x3f7fad28	0.9987359
58	0x3f80e18b	1.006883
59	0x3f805a90	1.0027637
60	0x3f801e96	1.0009334
61	0x3f7f5bd0	0.9974947
62	0x3f7f4c2e	0.99725616
63	0x3f7faa53	0.9986927

embed_layer.1.bias f4 [64]
0	0xbbd67c8d	-0.0065456093
1	0x3ac683b9	0.0015145458
2	0x3ac6ae07	0.0015158065
3	0x3b84752a	0.0040422874
4	0xbb92eb0c	-0.004483586
5	0x3b9d4abf	0.00480017
6	0xbbb18d10	-0.0054184273
7	0xba2d46b4	-0.0006609962
8	0xbbda0490	-0.006653376
9	0xb9d25615	-0.00040118457
10	0x3b6c34be	0.003604218
11	0xb9f0856a	-0.00045875768
12	0xbac05df5	-0.0014676439
13	0x3a75614c	0.00093605067
14	0xba111227	-0.0005534016
15	0xbaa9cd13	-0.0012954794
16	0xbb3ac32e	-0.0028497684
17	0xbbdbc553	-0.0067068725
18	0xba234c69	-0.00062293425
19	0xbb9a19c9	-0.004702781
20	0xbb9d3731	-0.004797839
21	0x3b1e1903	0.0024123795
22	0x3b00b663	0.001963996
23	0xbbcf379c	-0.006323768
24	0xbb855488	-0.004068915
25	0x3ac8d59d	0.0015322451
26	0x3b8f209b	0.0043679005
27	0xba2b7276	-0.00065401883
28	0xbb2ed320	-0.0026676133
29	0x3b48501e	0.0030565332
30	0xbbe94bd4	-0.007119635
31	0xbaec04bd	-0.0018006783
32	0xbb029da5	-0.001993039
33	0xbbfc2da6	-0.0076958714
34	0xbbb4209d	-0.005497052
35	0xbba36a2b	-0.0049870214
36	0xb98fb6aa	-0.0002741118
37	0x3ba45293	0.0050147264
38	0x3b47f097	0.0030508393
39	0xbb84e412	-0.0040555084
40	0xbba4912a	-0.0050221877
41	0xbbde9248	-0.0067923404
42	0x3b963338	0.0045837425
43	0xbb969f76	-0.004596646
44	0x3b69d6ae	0.0035680938
45	0xbb13fac4	-0.0022579888
46	0xba10d910	-0.0005525509
47	0xbb3533c4	-0.0027649263
48	0x3b365295	0.0027820219
49	0x3b602777	0.003420321
50	0x3ba1d7a5	0.004939037
51	0x3abe14c1	0.0014502035
52	0x3b69163f	0.0035566238
53	0x3aeb53bb	0.0017954031
54	0xbac6657b	-0.0015136445
55	0xbba59423	-0.0050530597
56	0xbab8253b	-0.0014049181
57	0x3b0c6b3a	0.0021426217
58	0xbc06402b	-0.00819401
59	0xb9220e24	-0.00015454792
60	0x3b01b443	0.0019791282
61	0xbbb3b89a	-0.0054846527
62	0x3b26cc67	0.0025451423
63	0x391ee291	0.00015152457

embed_layer.1.running_mean f4 [64]
0	0x3e3ca3d5	0.18421872
1	0xbe8f7fc4	-0.28027165
2	0x3d76d08e	0.060257487
3	0x3cfebe4d	0.031096602
4	0x3eacd57c	0.33756626
5	0xbdfb3626	-0.12266187
6	0xbd427eed	-0.047484327
7	0xbe3f2b91	-0.18668963
8	0x3e745a5a	0.23862591
9	0xbe077c66	-0.13231048
10	0xbe708cd0	-0.23491216
11	0x3d403b41	0.04693151
12	0xbdbc2b23	-0.09187915
13	0x3d972810	0.07380688
14	0x3d9c0e51	0.07619918
15	0x3e2e5026	0.17022762
16	0x3ea0cd0f	0.31406447
17	0xbca30446	-0.019899499
18	0x3e978534	0.29593813
19	0x3c83a8e1	0.016071739
20	0xbd080930	-0.033211887
21	0x3e527c75	0.20555289
22	0x3eb0b3b7	0.34512112
23	0xbe282ecc	-0.16424102
24	0x3e5c7494	0.21528846
25	0x3eab259e	0.33427137
26	0x3da4cab4	0.08046475
27	0x3bd5f7ea	0.006529798
28	0x3ce468b6	0.027881961
29	0x3dc3d0b6	0.09561293
30	0x3dbb500a	0.091461256
31	0x3d40c97d	0.047067154
32	0x3e2880e9	0.16455425
33	0xbd13ef0b	-0.03611664
34	0xbe868d10	-0.26279497
35	0x3e813c20	0.25241184
36	0xbac4fd57	-0.0015029114
37	0xbcf4dc03	-0.029890066
38	0x3d1964a3	0.03744949
39	0x3eb25ad3	0.34834918
40	0x3d8892c9	0.06668622
41	0xbe6d0e58	-0.23150003
42	0xbdac1859	-0.084030814
43	0x3d4e965c	0.050436363
44	0xbc09e38e	-0.00841607
45	0xbe383469	-0.17988743
46	0x3eb3f675	0.3514897
47	0xbe9c5084	-0.3053018
48	0xbdbb7379	-0.09152884
49	0x3eaa82d5	0.33302942
50	0xbe39ddad	-0.18150969
51	0xbe8fca12	-0.28083855
52	0x3d8f0a25	0.06984357
53	0x3e94631e	0.2898187
54	0xbe3049ae	-0.17215607
55	0xbe52faf2	-0.2060354
56	0x3dd4686f	0.103714816
57	0xbe03d6f2	-0.12874964
58	0x3dc04d30	0.09389722
59	0x3d16bba7	0.036800053
60	0x3ea8168d	0.32829705
61	0x3e983da9	0.29734543
62	0xbd498f5c	-0.049208984
63	0xbc9a6a6c	-0.018849574

embed_layer.1.running_var f4 [64]
0	0x3dbbf2c4	0.09177163
1	0x3e3a1916	0.18173632
2	0x3f00a67a	0.50254023
3	0x3ed21dc2	0.41038328
4	0x3efc4b3c	0.4927615
5	0x3f0fcc4e	0.5617112
6	0x3e0dfb66	0.13865432
7	0x3f2a78d6	0.6659063
8	0x3dc573bb	0.096412145
9	0x3f80e692	1.0070364
10	0x3ecb4d07	0.39707205
11	0x3ebd04b2	0.36917645
12	0x3f66cd7b	0.9015729
13	0x3d894e12	0.06704344
14	0x3ea2ea35	0.3181931
15	0x3e0f7ac5	0.14011677
16	0x3e8bc566	0.2729904
17	0x3d12a86a	0.035805143
18	0x3e913be2	0.28366
19	0x3d146210	0.036226332
20	0x3dac15e4	0.08402613
21	0x3f4df1e6	0.8044723
22	0x3e1f81b0	0.15576816
23	0x3d22dc48	0.039760858
24	0x3f519d78	0.81880903
25	0x3deefaea	0.11668952
26	0x3f7cf573	0.98812026
27	0x3f9f77e7	1.2458466
28	0x3da8fa33	0.08250847
29	0x3f58461c	0.8448198
30	0x3ddf23b2	0.1089548
31	0x3d3ae112	0.0456248
32	0x3e074525	0.1320997
33	0x3e050233	0.1298912
34	0x3d5470f8	0.051865548
35	0x3f91dd31	1.1395627
36	0x3e475136	0.19464573
37	0x3e39b8f3	0.18136959
38	0x3e8e290b	0.27765688
39	0x3d6fdf25	0.058562417
40	0x3d8bcc37	0.0682606
41	0x3d5591dd	0.05214106
42	0x3e76e6a7	0.24111424
43	0x3e7b4bee	0.24540684
44	0x3e06b01a	0.13153115
45	0x3e1fc792	0.15603474
46	0x3e627bee	0.22117588
47	0x3f19e6fb	0.60118073
48	0x3ec63dad	0.3871893
49	0x3eac5875	0.33661237
50	0x3e5bc874	0.21463186
51	0x3eb44f33	0.35216674
52	0x3f1b4081	0.606453
53	0x3e3dd1a8	0.18537009
54	0x3f6d8a78	0.9278941
55	0x3d3be9d9	0.04587731
56	0x3f959cc1	1.1688462
57	0x3ebbffe7	0.36718675
58	0x3d8f9401	0.070106514
59	0x3f23c5e6	0.63973844
60	0x3e2e6ca4	0.1703363
61	0x3de14979	0.11000342
62	0x3ee6b857	0.45062515
63	0x3ef49596	0.47770375

embed_layer2.0.weight f4 [16, 64, 45, 1]
0	0x3b933456	0.004492323
1	0xbb90f68d	-0.0044239224
2	0x3c2061f6	0.009788981
3	0x3bf09492	0.0073419297
4	0xbc89102f	-0.01673135
5	0xbc3c7d27	-0.011504448
6	0x3c010075	0.007873644
7	0x3c975c63	0.01847667
8	0xbb887292	-0.0041640485
9	0x3be2a2c3	0.0069163754
10	0xbc2986a1	-0.010347039
11	0xb98bb3db	-0.0002664615
12	0xbc09dfeb	-0.008415203
13	0x3b509830	0.0031828992
14	0x3bf1d962	0.0073806504
15	0xbbb71448	-0.0055871345
16	0xbc17aceb	-0.009257535
17	0xbc2bcf6f	-0.010486468
18	0xbc1d0bad	-0.009585303
19	0x3b9f8376	0.0048679663
20	0x3bf8da7c	0.0075944047
21	0xbb5a008e	-0.003326449
22	0x3ca5eafa	0.020253647
23	0xbc884dba	-0.016638625
24	0x3c0681aa	0.008209625
25	0x3c206c28	0.009791411
26	0x3b8f9d57	0.00438277
27	0xbae7d9e5	-0.0017688839
28	0xbc9b12a7	-0.018929793
29	0x3b21af4e	0.002467114
30	0x372d3478	1.032382e-05
31	0xbc72310c	-0.0147822015
32	0x3c66169a	0.014043475
33	0xbb884cd2	-0.0041595483
34	0xbb9fc5d1	-0.0048758765
35	0x3c94e47b	0.018175354
36	0x3c067f9c	0.008209135
37	0x3bd684b9	0.0065465835
38	0xbc0df57e	-0.008664487
39	0xbc2dbbec	-0.010603886
40	0xbc5da75c	-0.013528671
41	0x3bb99aeb	0.0056642196
42	0xbbf7b76c	-0.0075597074
43	0xba0a1729	-0.00052677334
44	0x3ab07872	0.001346363
45	0xbb8aa3e1	-0.0042309617
46	0xbb42dd1e	-0.0029733847
47	0xbaada942	-0.0013249295
48	0xbb0f5633	-0.0021871447
49	0xbba61764	-0.0050687063
50	0xbc3fd489	-0.011708387
51	0xbc6ca2c6	-0.014443105
52	0x3b86501c	0.0040989053
53	0xbb0cb7f7	-0.0021471956
54	0x3c59c158	0.013290726
55	0x3c298041	0.0103455195
56	0x3add18f7	0.0016868402
57	0x3c295df1	0.010337339
58	0x3a511a3b	0.0007976626
59	0xbc7b9c69	-0.015357115
60	0x3c13510d	0.008991492
61	0xbc7f9405	-0.015599255
62	0x3c05b32a	0.008160392
63	0x3c9a40f7	0.018829806
64	0xbb5577f8	-0.0032572728
65	0xbc8970ad	-0.01677736
66	0x3b7b3a00	0.0038334131
67	0xbc57b52e	-0.013165755
68	0x3c5b1aca	0.013373086
69	0x3c91f51d	0.017817074
70	0x3c42c16c	0.011886936
71	0x3c2a5020	0.01039508
72	0x38bf378b	9.1179354e-05
73	0x3c099b59	0.008398854
74	0xb961522e	-0.00021488286
75	0x3c6729de	0.014109103
76	0x3c2f32d5	0.010693272
77	0xbb7f4b03	-0.0038954623
78	0x3c674224	0.01411489
79	0xbc27eb52	-0.010248976
80	0xbc03cd52	-0.008044558
81	0x3c14e981	0.009088875
82	0xbbcac04c	-0.0061874744
83	0x3c8d9524	0.01728303
84	0x3c60c5d8	0.013719045
85	0x3b14e76d	0.0022720948
86	0xb9c33bf9	-0.0003723798
87	0xbb88eeb0	-0.0041788444
88	0x3bb197e5	0.0054197186
89	0x3c4927a2	0.012277516
90	0xbb96bd16	-0.0046001775
91	0xbc2007c3	-0.009767476
92	0x3c2087cf	0.009798004
93	0xbc85c1d7	-0.016327782
94	0xbc3ad999	-0.011404418
95	0xbb6cfaaa	-0.003616015
96	0x3ca8b53c	0.020594232
97	0x3c2a8d12	0.01040961
98	0xbade2689	-0.001694874
99	0xbc225540	-0.0099080205
100	0x398e62dd	0.0002715801
101	0x3c3db285	0.011578207
102	0xba3eb718	-0.0007275208
103	0xbc171f84	-0.0092238225
104	0x3b5769f4	0.003286955
105	0xbc0568fc	-0.008142706
106	0x3bac17d0	0.005251862
107	0x3b77f5de	0.0037835757
108	0xbc84bf0a	-0.016204376
109	0xbc157059	-0.009121024
110	0xbc8edcd7	-0.017439289
111	0xbc27e9c7	-0.010248608
112	0xbc852ad6	-0.016255777
113	0x3bdf7fcc	0.0068206545
114	0xbca6cf28	-0.020362452
115	0x3c6f7c01	0.014616967
116	0xbbd687ec	-0.006546965
117	0x3c507588	0.012723334
118	0xbc547a96	-0.01296868
119	0xbc8293a3	-0.01593954
120	0xbc94e175	-0.018173913
121	0xbb80eed4	-0.0039347205
122	0x3c734ef1	0.014850364
123	0x3c6813a3	0.014164838
124	0xbc486adc	-0.0122325085
125	0x3c033670	0.008008584
126	0xbc2ccdbe	-0.0105471
127	0xbc205968	-0.009786941
128	0xbb55d098	-0.0032625552
129	0x3c392795	0.011300941
130	0x3c8d4653	0.017245447
131	0xbb8692e0	-0.0041068643
132	0xbc2a5abe	-0.010397611
133	0x3c116da3	0.008876237
134	0x3a811d6b	0.0009850686
135	0xbb9b7137	-0.004743721
136	0xbc8074f3	-0.015680766
137	0x3b54e3c9	0.0032484403
138	0xbc704c9c	-0.014666703
139	0xbc543d38	-0.012954049
140	0x3c615d47	0.013755149
141	0xbc67d2dd	-0.014149395
142	0xbc24f3f7	-0.010067931
143	0xbc1d2a28	-0.00959257
144	0xbc9405ad	-0.018069113
145	0x3b933399	0.004492235
146	0xbae38aa5	-0.0017360045
147	0xbba0d800	-0.0049085617
148	0x3c921f35	0.017837146
149	0x3c0653aa	0.008198658
150	0x3c3a173e	0.01135808
151	0xba26589d	-0.0006345602
152	0x3a8d4ac5	0.0010779729
153	0x3c188eeb	0.009311418
154	0xbbf9bd2d	-0.0076214285
155	0xbb5b04e9	-0.0033419675
156	0x3a5620b1	0.00081683235
157	0x3c3234f2	0.010876881
158	0xbb877c99	-0.0041347262
159	0xbbaf008e	-0.0053406423
160	0xbbe539b3	-0.0069954037
161	0xbca1b1fd	-0.019738192
162	0xbaba9139	-0.0014233954
163	0xbc55aead	-0.013042134
164	0x3bf9b254	0.0076201353
165	0x3c20468f	0.0097824475
166	0x3c397c69	0.011321166
167	0xbac31c0d	-0.0014885679
168	0x3bae1e8c	0.0053137
169	0x3bcef13d	0.006315379
170	0xbc8e74d5	-0.017389694
171	0x3c87c5bd	0.016573781
172	0xbc2a30d5	-0.010387619
173	0x3c018970	0.007906303
174	0x3b646761	0.0034851658
175	0x3c39af6c	0.011333328
176	0xbc8bf393	-0.017083919
177	0xbc9f5ee9	-0.019454436
178	0xbc33f48e	-0.010983599
179	0x3bb6ab0a	0.0055745887
180	0x3c115a8a	0.008871684
181	0x3b2bc98d	0.0026212663
182	0xbc08f9cd	-0.008360338
183	0x397e619d	0.00024259691
184	0xbc0451cd	-0.008076143
185	0x3bb69fa7	0.0055732313
186	0xbc5d3f6c	-0.0135038905
187	0x3c8f3bde	0.017484602
188	0x3b9cc6c5	0.0047844374
189	0x3bedd20d	0.007257706
190	0xbc6c7985	-0.014433269
191	0x3c83c4a2	0.016084973
192	0xbc5f9709	-0.013646849
193	0x3c27dad3	0.010245043
194	0xbbbf7a2c	-0.0058434214
195	0x38df6a7b	0.00010653302
196	0x3c826c96	0.015920918
197	0xbc3fdc72	-0.011710273
198	0xbc498c1a	-0.012301469
199	0xbc8fd421	-0.017557206
200	0x3babc1d6	0.005241613
201	0x3b75a5ee	0.0037482935
202	0xbaa7313f	-0.0012755765
203	0xbc13da3e	-0.009024201
204	0xbc5a9ad3	-0.013342577
205	0xbc7aa183	-0.015297296
206	0x3c38ad38	0.011271767
207	0x3c69dcdf	0.014273851
208	0x3c194543	0.009354892
209	0x3c60a131	0.013710306
210	0x3aab2fbb	0.001306049
211	0x3c3bf19b	0.011471177
212	0xbb88d5c9	-0.004175876
213	0xbc724f22	-0.014789375
214	0x3c9d4c64	0.019201465
215	0xbb875de0	-0.004131064
216	0x3c03205e	0.008003322
217	0x3bedd549	0.0072580916
218	0x3c57782e	0.013151212
219	0xbb9b4e85	-0.004739585
220	0x3c1c230c	0.00952984
221	0xbc525a59	-0.012838923
222	0xbca0980c	-0.019603752
223	0xbc138e3a	-0.009006077
224	0xbb49447c	-0.0030710986
225	0x3c1fb256	0.009747108
226	0xbcad2535	-0.021135906
227	0xbc26c7b9	-0.0101794535
228	0x3c0ec119	0.00871303
229	0xbc7ab2e4	-0.01530144
230	0xbc88ff30	-0.016723245
231	0x3c39a460	0.011330694
232	0xbc882c4c	-0.016622685
233	0xbc8075a6	-0.0156811
234	0xbc8b10f0	-0.01697585
235	0x3a5df2cd	0.0008466661
236	0x3c1f847c	0.009736177
237	0x3a0c8954	0.00053610397
238	0xbb12ab1d	-0.0022379823
239	0xbc1004c2	-0.008790197
240	0xbbd401ad	-0.0064699263
241	0xbbcf2679	-0.006321725
242	0x3c305102	0.010761501
243	0x3c03cfdb	0.008045162
244	0xbb26e3e5	-0.0025465426
245	0xba1babd6	-0.00059383863
246	0xbc46b417	-0.012127898
247	0xbbbed1de	-0.005823358
248	0x3c3c9467	0.011509991
249	0x3ab5c163	0.0013866838
250	0xbc0a88c3	-0.008455458
251	0x3bb40cea	0.0054947035
252	0xbb9ad4d2	-0.004725077
253	0xbc91621d	-0.01774698
254	0xba961556	-0.001145045
255	0xbbb7c3f9	-0.0056080786

embed_layer2.0.bias f4 [16]
0	0xb986a6fd	-0.00025682888
1	0x3bb0b876	0.005393083
2	0x3acb12d5	0.0015493283
3	0x3c84375e	0.016139682
4	0x3bfafd6d	0.0076596052
5	0xbc33bb0e	-0.01096989
6	0x3c7984da	0.015229428
7	0x3c8fa6a0	0.017535508
8	0xbabe5390	-0.0014520753
9	0xbbb3cce2	-0.0054870704
10	0x38897884	6.555117e-05
11	0xbc23d634	-0.0099998005
12	0x3c12a750	0.008951023
13	0xbc8d58cc	-0.017254256
14	0x3be6b21a	0.0070402743
15	0xbc251402	-0.010075571

embed_layer2.1.weight f4 [16]
0	0x3f8011a8	1.0005388
1	0x3f80e7f9	1.0070792
2	0x3f8050cc	1.0024657
3	0x3f80d532	1.0065062
4	0x3f801111	1.0005208
5	0x3f8107fb	1.008056
6	0x3f801e34	1.0009217
7	0x3f804e76	1.0023944
8	0x3f80d47e	1.0064847
9	0x3f801773	1.0007156
10	0x3f80403c	1.0019603
11	0x3f807faf	1.0038966
12	0x3f80e982	1.0071261
13	0x3f80377b	1.0016931
14	0x3f7fc843	0.9991495
15	0x3f80ec71	1.0072156

embed_layer2.1.bias f4 [16]
0	0xbb1b5eb8	-0.002370758
1	0x3b655fea	0.0034999796
2	0xb9d703f4	-0.0004101094
3	0xb9bb0180	-0.00035668537
4	0xbb8f720a	-0.004377608
5	0xbb3790fe	-0.0028010006
6	0xba9e4af5	-0.0012076782
7	0xbbcda2a8	-0.0062754937
8	0x3b2222bd	0.0024739944
9	0xbb8c5c37	-0.004283454
10	0xbaecdc94	-0.0018071108
11	0x3a8c609b	0.0010709943
12	0xbab5b7f4	-0.0013864026
13	0xbb37e90c	-0.002806249
14	0xbbf6d64c	-0.0075328704
15	0x3a846e5b	0.0010103689

embed_layer2.1.running_mean f4 [16]
0	0x3e115bf4	0.14195234
1	0x3cb0c500	0.021578312
2	0x3ee3d0f0	0.44495344
3	0xbe13d145	-0.14435299
4	0x3dcb9638	0.09940761
5	0x3e7ae2d5	0.24500592
6	0x3e47172e	0.19442436
7	0x3ec7762c	0.38957345
8	0x3d539a89	0.051661048
9	0xbe859d14	-0.26096404
10	0x3e8dc227	0.2768719
11	0xbe9969a4	-0.2996341
12	0x3bb76cf0	0.005597703
13	0x3d8bb192	0.06820978
14	0xbee83ee2	-0.45360476
15	0x3e54af2d	0.2076995

embed_layer2.1.running_var f4 [16]
0	0x3e8bfa3b	0.27339348
1	0x3e9f31af	0.31092593
2	0x3eac388c	0.33636892
3	0x3ef42311	0.47683004
4	0x3ef5e771	0.48028138
5	0x3ea6b651	0.3256097
6	0x3e80a757	0.2512767
7	0x3eacf599	0.33781126
8	0x3e079c45	0.13243206
9	0x3e45377d	0.19259448
10	0x3e37aebe	0.17937753
11	0x3e916db0	0.28403997
12	0x3e87d27b	0.2652777
13	0x3e1a62e7	0.15076791
14	0x3eac0a67	0.33601686
15	0x3e3d8422	0.18507436

Fix_Position.pe f4 [1, 161, 16]
0	0x00000000	0.0
1	0x3f800000	1.0
2	0x00000000	0.0
3	0x3f800000	1.0
4	0x00000000	0.0
5	0x3f800000	1.0
6	0x00000000	0.0
7	0x3f800000	1.0
8	0x00000000	0.0
9	0x3f800000	1.0
10	0x00000000	0.0
11	0x3f800000	1.0
12	0x00000000	0.0
13	0x3f800000	1.0
14	0x00000000	0.0
15	0x3f800000	1.0
16	0x3dcb316f	0.09921538
17	0x3f7ebca5	0.995066
18	0x3d00b381	0.03142119
19	0x3f7fdfa4	0.99950624
20	0x3c22d1d6	0.009937724
21	0x3f7ffcc4	0.99995065
22	0x3b4df499	0.003142631
23	0x3f7fffad	0.99999505
24	0x3a824204	0.0009937887
25	0x3f7ffff8	0.9999995
26	0x39a4c3bd	0.00031426354
27	0x3f7fffff	0.99999994
28	0x38d069a1	9.937888e-05
29	0x3f800000	1.0
30	0x3803cfce	3.1426367e-05
31	0x3f800000	1.0
32	0x3e4a30c8	0.19745171
33	0x3f7af5c5	0.98031265
34	0x3d80a33d	0.06281135
35	0x3f7f7e98	0.9980254
36	0x3ca2cfc7	0.019874467
37	0x3f7ff30e	0.9998025
38	0x3bcdf456	0.0062852306
39	0x3f7ffeb5	0.9999803
40	0x3b0241ff	0.0019875763
41	0x3f7fffdf	0.99999803
42	0x3a24c3bc	0.000628527
43	0x3f7ffffd	0.9999998
44	0x395069a1	0.00019875776
45	0x3f800000	1.0
46	0x3883cfce	6.2852734e-05
47	0x3f800000	1.0
48	0x3e966508	0.29373956
49	0x3f74b4e9	0.95588547
50	0x3dc0cc33	0.09413948
51	0x3f7edcf5	0.99555904
52	0x3cf43286	0.029809248
53	0x3f7fe2e0	0.9995556
54	0x3c1a76ed	0.009427768
55	0x3f7ffd16	0.99995553
56	0x3b4362f4	0.002981362
57	0x3f7fffb6	0.9999956
58	0x3a772599	0.0009427905
59	0x3f7ffff9	0.9999996
60	0x399c4f39	0.00029813664
61	0x3f7fffff	0.99999994
62	0x38c5b7b6	9.427911e-05
63	0x3f800000	1.0
64	0x3ec635bf	0.3871288
65	0x3f6c09df	0.9220256
66	0x3e006236	0.12537464
67	0x3f7dfae3	0.9921095
68	0x3d22c78c	0.039741084
69	0x3f7fcc3a	0.99921
70	0x3c4df34c	0.0125702135
71	0x3f7ffad2	0.99992096
72	0x3b8241ef	0.003975145
73	0x3f7fff7c	0.99999213
74	0x3aa4c3ba	0.0012570538
75	0x3f7ffff3	0.9999992
76	0x39d069a1	0.0003975155
77	0x3f7fffff	0.99999994
78	0x3903cfce	0.00012570547
79	0x3f800000	1.0
80	0x3ef411bd	0.47669783
81	0x3f610a8d	0.87906724
82	0x3e203dde	0.156486
83	0x3f7cd89c	0.9876802
84	0x3d4b71b7	0.049668994
85	0x3f7faf1c	0.9987657
86	0x3c80b792	0.015712533
87	0x3f7ff7e9	0.99987656
88	0x3ba2d25a	0.0049689235
89	0x3f7fff31	0.99998766
90	0x3acdf4a6	0.001571317
91	0x3f7fffeb	0.99999875
92	0x3a024205	0.0004968944
93	0x3f7ffffe	0.9999999
94	0x3924c3c1	0.00015713183
95	0x3f800000	1.0
96	0x3f0fc294	0.5615628
97	0x3f53d2b9	0.8274341
98	0x3e3ff102	0.18744281
99	0x3f7b7669	0.98227555
100	0x3d7416be	0.059592
101	0x3f7f8b88	0.9982228
102	0x3c9a752b	0.018854698
103	0x3f7ff45a	0.99982226
104	0x3bc362bb	0.0059626973
105	0x3f7ffed6	0.99998224
106	0x3af72591	0.00188558
107	0x3f7fffe2	0.9999982
108	0x3a1c4f38	0.0005962732
109	0x3f7ffffd	0.9999998
110	0x3945b7b6	0.00018855822
111	0x3f800000	1.0
112	0x3f24111f	0.64088625
113	0x3f4483c9	0.7676359
114	0x3e5f73a2	0.21821454
115	0x3f79d4a3	0.9759008
116	0x3d8e5acc	0.06950912
117	0x3f7f617d	0.9975813
118	0x3cb43261	0.021996679
119	0x3f7ff025	0.99975806
120	0x3be3f311	0.006956466
121	0x3f7ffe6a	0.9999758
122	0x3b102b3d	0.0021998428
123	0x3f7fffd7	0.99999756
124	0x3a365c6b	0.00069565204
125	0x3f7ffffc	0.99999976
126	0x3966aba9	0.00021998458
127	0x3f800000	1.0
128	0x3f36c131	0.71388537
129	0x3f334469	0.7002626
130	0x3e7ebdc3	0.24877076
131	0x3f77f3b5	0.9685624
132	0x3da2a6a0	0.079419374
133	0x3f7f30fe	0.9968413
134	0x3ccdef21	0.02513844
135	0x3f7feb4a	0.999684
136	0x3c0241ab	0.007950227
137	0x3f7ffdee	0.9999684
138	0x3b24c3b2	0.0025141058
139	0x3f7fffcb	0.99999684
140	0x3a5069a0	0.00079503097
141	0x3f7ffffb	0.9999997
142	0x3983cfce	0.00025141094
143	0x3f800000	1.0
144	0x3f47a396	0.7798399
145	0x3f20402a	0.62597907
146	0x3e8ee3be	0.27908128
147	0x3f75d417	0.9602675
148	0x3db6ee58	0.08932179
149	0x3f7efa0a	0.9960028
150	0x3ce7ab5d	0.028279955
151	0x3f7fe5ca	0.99960005
152	0x3c1289c5	0.00894398
153	0x3f7ffd61	0.99996
154	0x3b395c24	0.002828368
155	0x3f7fffbd	0.999996
156	0x3a6a76d3	0.0008944098
157	0x3f7ffff9	0.9999996
158	0x399449c8	0.0002828373
159	0x3f7fffff	0.99999994
160	0x3f568da6	0.8380989
161	0x3f0ba717	0.54551834
162	0x3e9e447d	0.30911627
163	0x3f737653	0.95102423
164	0x3dcb316e	0.09921537
165	0x3f7ebca5	0.995066
166	0x3d00b380	0.031421185
167	0x3f7fdfa4	0.99950624
168	0x3c22d1d6	0.009937724
169	0x3f7ffcc4	0.99995065
170	0x3b4df496	0.0031426302
171	0x3f7fffad	0.99999505
172	0x3a824204	0.0009937887
173	0x3f7ffff8	0.9999995
174	0x39a4c3c1	0.00031426366
175	0x3f7fffff	0.99999994
176	0x3f6359b4	0.8880875
177	0x3eeb5a72	0.45967442
178	0x3ead7d37	0.33884594
179	0x3f70db04	0.9408419
180	0x3ddf6f63	0.10909917
181	0x3f7e78cf	0.9940309
182	0x3d0d9101	0.034562115
183	0x3f7fd8d8	0.9994025
184	0x3c3319dd	0.010931459
185	0x3f7ffc16	0.9999403
186	0x3b628d05	0.0034568917
187	0x3f7fff9c	0.99999404
188	0x3a8f489c	0.0010931673
189	0x3f7ffff6	0.9999994
190	0x39b53dbb	0.00034569003
191	0x3f7fffff	0.99999994
192	0x3f6de76b	0.9293124
193	0x3ebd142b	0.3692945
194	0x3ebc8a14	0.36824095
195	0x3f6e02d0	0.9297304
196	0x3df3a7b1	0.11897219
197	0x3f7e2e89	0.99289757
198	0x3d1a6e24	0.037702695
199	0x3f7fd167	0.999289
200	0x3c4361d7	0.011925182
201	0x3f7ffb57	0.9999289
202	0x3b772575	0.0037711535
203	0x3f7fff89	0.9999929
204	0x3a9c4f37	0.0011925463
205	0x3f7ffff4	0.9999993
206	0x39c5b7b6	0.00037711643
207	0x3f7fffff	0.99999994
208	0x3f761c24	0.9613669
209	0x3e8cf03c	0.27527034
210	0x3ecb674a	0.3972724
211	0x3f6aee6f	0.9177007
212	0x3e03eceb	0.12883346
213	0x3f7dddd7	0.99166626
214	0x3d274ae4	0.040842906
215	0x3f7fc951	0.9991656
216	0x3c53a9c6	0.012918895
217	0x3f7ffa88	0.99991655
218	0x3b85def1	0.0040854146
219	0x3f7fff74	0.99999166
220	0x3aa955d0	0.0012919251
221	0x3f7ffff2	0.99999917
222	0x39d631af	0.00040854278
223	0x3f7fffff	0.99999994
224	0x3f7be322	0.9839345
225	0x3e36d07e	0.17852971
226	0x3eda1113	0.42591152
227	0x3f679eab	0.90476483
228	0x3e0e02a7	0.138682
229	0x3f7d86b9	0.99033695
230	0x3d342738	0.043982714
231	0x3f7fc094	0.99903226
232	0x3c63f1a7	0.013912595
233	0x3f7ff9a8	0.9999032
234	0x3b902b27	0.0043996754
235	0x3f7fff5e	0.99999034
236	0x3ab65c68	0.0013913037
237	0x3f7ffff0	0.99999905
238	0x39e6aba9	0.00043996915
239	0x3f7ffffe	0.9999999
240	0x3f7f2dce	0.9967927
241	0x3da3e560	0.08002734
242	0x3ee883b9	0.45412996
243	0x3f641458	0.8909354
244	0x3e1814cc	0.14851683
245	0x3f7d2933	0.9889099
246	0x3d410316	0.047122084
247	0x3f7fb733	0.99888915
248	0x3c743978	0.01490628
249	0x3f7ff8b8	0.9998889
250	0x3b9a775c	0.004713936
251	0x3f7fff46	0.9999889
252	0x3ac36302	0.0014906826
253	0x3f7fffed	0.99999887
254	0x39f725a1	0.00047139547
255	0x3f7ffffe	0.9999999

attention_layer.relative_bias_table f4 [321, 8]
0	0xbbdcb9b9	-0.006736007
1	0x3b248e81	0.0025109353
2	0xbbbcd8db	-0.005763156
3	0xbb22f024	-0.0024862373
4	0x3b881213	0.0041525452
5	0xba730c25	-0.0009271524
6	0xbb9a561c	-0.004709972
7	0xba1118bd	-0.00055349973
8	0xbba634e5	-0.0050722235
9	0x3b361425	0.0027783003
10	0xbbbe4a25	-0.0058071786
11	0xbb575af4	-0.0032860609
12	0x3b700ff6	0.0036630607
13	0xba4beb6f	-0.0007778918
14	0xbbaff1f0	-0.0053694174
15	0xba26cc09	-0.0006362801
16	0xbb9a78c7	-0.004714105
17	0x3b0e0b9c	0.00216744
18	0xbb9cea94	-0.004788706
19	0xbb394fd6	-0.0028276346
20	0x3b139920	0.002252169
21	0xba0e62f9	-0.0005431618
22	0xbbaba72e	-0.005238435
23	0x3a1789ab	0.0005780707
24	0xbba2979a	-0.00496192
25	0x3b09e0d6	0.0021038554
26	0xbb77bf22	-0.0037803133
27	0xbb23cff6	-0.002499578
28	0x3af0f960	0.0018384866
29	0x39eccda6	0.00045166648
30	0xbba8ee3f	-0.0051553543
31	0x3afc28d6	0.0019238244
32	0xbb96e477	-0.004604872
33	0x3b050dc4	0.0020302394
34	0xbb63c7be	-0.0034756507
35	0xbb185282	-0.0023242538
36	0x3aab8789	0.0013086657
37	0x3ae56625	0.0017501755
38	0xbba8a3b6	-0.005146469
39	0x3ad4d72f	0.0016238446
40	0xbb95930d	-0.004564649
41	0x3b0260ec	0.0019894196
42	0xbb4fce01	-0.0031708481
43	0xbb118a9a	-0.0022207857
44	0x3a907afe	0.0011022983
45	0x3b3584c7	0.002769755
46	0xbba8e08f	-0.0051537226
47	0x3a922caa	0.0011152227
48	0xbb92389c	-0.004462315
49	0x3b02cc70	0.001995828
50	0xbb42b27a	-0.002970843
51	0xbb0e7fa1	-0.0021743553
52	0x3a4c4eb0	0.0007793708
53	0x3b568c2e	0.0032737362
54	0xbbac7761	-0.0052632545
55	0x3a321cb6	0.00067944394
56	0xbb8efb52	-0.004363456
57	0x3b09a364	0.002100193
58	0xbb42f5ab	-0.002974848
59	0xbb0df133	-0.0021658659
60	0x3a29ef29	0.0006482476
61	0x3b6b2564	0.003588044
62	0xbbb100ec	-0.005401721
63	0x39b4950c	0.00034443324
64	0xbb8eb2be	-0.004354804
65	0x3b0d5c77	0.0021570006
66	0xbb404802	-0.0029339795
67	0xbb122e0f	-0.0022305285
68	0x3a20132d	0.0006106373
69	0x3b813a20	0.0039436966
70	0xbbb306a1	-0.0054634367
71	0x39a22173	0.0003092397
72	0xbb8f4531	-0.004372262
73	0x3b0ee0b7	0.002180142
74	0xbb371b66	-0.0027939915
75	0xbb17762a	-0.0023111203
76	0x3a0daf79	0.00054048706
77	0x3b8cd7ef	0.004298202
78	0xbbb47e6f	-0.005508236
79	0x39026ad6	0.00012437566
80	0xbb91254c	-0.004429495
81	0x3b0e3046	0.0021696254
82	0xbb30bb6e	-0.0026967186
83	0xbb1e2357	-0.002412995
84	0x39f73339	0.00047149675
85	0x3b97c9b4	0.004632199
86	0xbbb67560	-0.0055681914
87	0xb82a574d	-4.0612464e-05
88	0xbb91144d	-0.004427469
89	0x3b0d8a55	0.0021597345
90	0xbb28ce20	-0.0025757626
91	0xbb1bdff4	-0.002378461
92	0x39ef38d1	0.00045627964
93	0x3ba19949	0.004931603
94	0xbbb9fbc5	-0.005675765
95	0xb754afdd	-1.2677131e-05
96	0xbb91fec0	-0.0044554174
97	0x3b0dbc35	0.0021627073
98	0xbb22e221	-0.0024854022
99	0xbb165ba2	-0.00229428
100	0x3a00a130	0.00049068313
101	0x3bab9f9d	0.0052375332
102	0xbbbb401a	-0.0057144286
103	0xb953a27c	-0.00020183058
104	0xbb93bff9	-0.004508969
105	0x3b0d7203	0.002158285
106	0xbb1e95f9	-0.0024198277
107	0xbb129676	-0.0022367514
108	0x3a083706	0.00051961874
109	0x3bb004d7	0.0053716707
110	0xbbbcd043	-0.0057621314
111	0xb9b3b31e	-0.00034274993
112	0xbb95cd1d	-0.0045715705
113	0x3b11de92	0.0022257906
114	0xbb195ec8	-0.0023402441
115	0xbb1109fb	-0.0022131193
116	0x3a257030	0.0006310968
117	0x3baebcf6	0.0053325845
118	0xbbbe3e53	-0.0058057695
119	0xb9c72321	-0.0003798241
120	0xbb97e137	-0.004635002
121	0x3b1888fc	0.0023275008
122	0xbb0dcf0c	-0.0021638302
123	0xbb0f0e3a	-0.0021828548
124	0x3a3b7ee3	0.00071523915
125	0x3bad21f6	0.0052835895
126	0xbbbfecaf	-0.0058570723
127	0xba21bf0d	-0.00061701314
128	0xbb9bfdbc	-0.004760472
129	0x3b1c251d	0.0023825832
130	0xbb0698df	-0.0020537896
131	0xbb0f804f	-0.0021896546
132	0x3a4b79be	0.00077619764
133	0x3baf159a	0.0053431513
134	0xbbbfa79c	-0.005848838
135	0xba566f14	-0.0008180004
136	0xbb9f8573	-0.0048682033
137	0x3b21de11	0.0024699012
138	0xbb031bed	-0.0020005659
139	0xbb1018b4	-0.002198738
140	0x3a6bee3b	0.00090000377
141	0x3babab76	0.0052389456
142	0xbbbed041	-0.0058231656
143	0xba488c7a	-0.0007650327
144	0xbba3295c	-0.0049792957
145	0x3b25b15d	0.0025282719
146	0xbb020b70	-0.0019843243
147	0xbb0df6fa	-0.0021662102
148	0x3a84981c	0.0010116133
149	0x3ba92dba	0.0051629217
150	0xbbbf93a8	-0.0058464594
151	0xba606ad9	-0.00085608434
152	0xbba7453d	-0.0051046894
153	0x3b28a777	0.0025734582
154	0xbb012979	-0.0019708558
155	0xbb0c1439	-0.0021374358
156	0x3a8d1761	0.0010764414
157	0x3ba64740	0.0050744116
158	0xbbc1118d	-0.005891985
159	0xba5a3a7a	-0.0008324754
160	0xbbaa608d	-0.005199498
161	0x3b2be2be	0.0026227678
162	0xbb018e29	-0.0019768572
163	0xbb0e7b01	-0.0021740797
164	0x3a91519a	0.0011086941
165	0x3ba603f8	0.005066391
166	0xbbc22d32	-0.005925798
167	0xba3d8dde	-0.00072309177
168	0xbbad6ff4	-0.005292887
169	0x3b2ba96b	0.002619351
170	0xbb004965	-0.0019574997
171	0xbb0b86a8	-0.0021289978
172	0x3a96be6a	0.001150084
173	0x3ba212df	0.0049460973
174	0xbbc1e9cd	-0.005917764
175	0xba2ae4ec	-0.00065190974
176	0xbbb0379e	-0.005377724
177	0x3b2a6f6d	0.0026006356
178	0xbafae484	-0.0019141589
179	0xbb058f0d	-0.0020379454
180	0x3a987286	0.001163081
181	0x3b9e3e76	0.0048292233
182	0xbbc18243	-0.005905421
183	0xba256079	-0.0006308626
184	0xbbb31476	-0.0054650856
185	0x3b2aad4b	0.0026043232
186	0xbaf7db9f	-0.0018910057
187	0xbb00e163	-0.001966559
188	0x3aa8e4c3	0.0012885559
189	0x3b98f836	0.004668261
190	0xbbc0d5ca	-0.0058848606
191	0xba00fdc9	-0.00049206294
192	0xbbb5bbac	-0.005546054
193	0x3b2b3590	0.0026124455
194	0xbaef25ae	-0.0018245482
195	0xbafc9c47	-0.0019272648
196	0x3ab862cd	0.0014067531
197	0x3b962242	0.0045817206
198	0xbbc03aa6	-0.0058663664
199	0xb9bb1dd7	-0.00035689652
200	0xbbb7769b	-0.0055988557
201	0x3b27e135	0.0025616412
202	0xbadface9	-0.0017065081
203	0xbaeb5dce	-0.0017957033
204	0x3ac2a08b	0.0014848871
205	0x3b94296c	0.0045215394
206	0xbbbfd0dc	-0.0058537554
207	0xb9997431	-0.00029269003
208	0xbbb9458b	-0.005654042
209	0x3b24a5a9	0.0025123155
210	0xbad3b003	-0.0016150478
211	0xbadec6a6	-0.0016996458
212	0x3ad1077e	0.0015947667
213	0x3b91667d	0.0044372664
214	0xbbbec03b	-0.0058212555
215	0xb8c1c879	-9.240298e-05
216	0xbbba5e4c	-0.0056875106
217	0x3b20bf76	0.0024528182
218	0xbac9187a	-0.0015342378
219	0xbad40113	-0.0016174637
220	0x3ae0c96b	0.0017149871
221	0x3b8c9335	0.0042900094
222	0xbbbc39b3	-0.005744183
223	0x39377547	0.00017495929
224	0xbbbc56b8	-0.0057476424
225	0x3b1e6841	0.0024171027
226	0xbac3158a	-0.0014883738
227	0xbac781ce	-0.001522118
228	0x3af4660e	0.0018646137
229	0x3b877160	0.0041333884
230	0xbbb852b4	-0.0056250934
231	0x39ad99cc	0.0003311172
232	0xbbbe5b8a	-0.005809252
233	0x3b190a3b	0.0023352045
234	0xbabd8628	-0.0014459537
235	0xbabd632a	-0.0014449109
236	0x3b03953c	0.0020077964
237	0x3b7f5de8	0.0038965885
238	0xbbb4d3c0	-0.0055184066
239	0x39c920eb	0.00038362233
240	0xbbbf7028	-0.0058422275
241	0x3b1010e4	0.0021982724
242	0xbab6bfcc	-0.0013942658
243	0xbab6063f	-0.001388736
244	0x3b0c2777	0.0021385828
245	0x3b710dba	0.0036781863
246	0xbbb0f4f2	-0.0054002935
247	0x3a1fb115	0.0006091756
248	0xbbc185e2	-0.0059058527
249	0x3b0639a2	0.002048113
250	0xbab30f37	-0.0013661151
251	0xbaae83af	-0.0013314391
252	0x3b1013a6	0.0021984368
253	0x3b633e37	0.0034674534
254	0xbbacbc5b	-0.005271477
255	0x3a43a387	0.0007463027

attention_layer.key.weight f4 [16, 16]
0	0x3d9bce53	0.076077126
1	0xbe673e8b	-0.22582452
2	0x3e460b1d	0.19340177
3	0xbe1e2bcc	-0.15446395
4	0x3d7b3449	0.06132916
5	0xbe284564	-0.1643272
6	0xbe76e6e9	-0.24111523
7	0x3cbe34bb	0.023218503
8	0xbe2ec6ad	-0.17067976
9	0xbe3bf2c7	-0.18354331
10	0x3de2b566	0.11069755
11	0x3d95c020	0.073120356
12	0xbe1e3c0a	-0.1545259
13	0xbe4e76ed	-0.20162554
14	0x3e33853e	0.17531297
15	0x3dfcfa7a	0.12352462
16	0x3d626f38	0.055281848
17	0xbd6e36e4	-0.058157817
18	0xbdd74a37	-0.10512202
19	0xbe260fa1	-0.162169
20	0xbe08498c	-0.13309306
21	0x3e458f34	0.19292909
22	0x3e2850c4	0.1643706
23	0x3d265ab1	0.040613834
24	0x3c2e325c	0.010632124
25	0xbe5d239a	-0.21595612
26	0xbd9244cc	-0.07142028
27	0x3d60d3c3	0.05488945
28	0xbd9eb578	-0.07749456
29	0xbdd1194d	-0.10209904
30	0xbe54166a	-0.20711675
31	0xbd5aca16	-0.05341538
32	0x3e14d053	0.14532594
33	0xbe76cfac	-0.24102658
34	0xbd99a923	-0.075029634
35	0x3e6454fe	0.22298047
36	0x3d1c3f2b	0.03814618
37	0x3db4806a	0.088135555
38	0xbccafc89	-0.024778621
39	0x3e029bae	0.127547
40	0x3e7f0ec6	0.2490798
41	0x3e0a1a13	0.13486509
42	0xbe34d461	-0.17659141
43	0x3d01e3d6	0.031711422
44	0x3cffc279	0.031220661
45	0x3e55a082	0.2086201
46	0xbda20d90	-0.07912743
47	0xbcfdbaae	-0.030972805
48	0xbe2c68a2	-0.16836789
49	0xbda3b37e	-0.0799322
50	0x3e6a2479	0.22865476
51	0x3d65401b	0.05596934
52	0xbdbfec8f	-0.09371292
53	0x3e60260b	0.21889512
54	0x3e0b9c02	0.13633731
55	0xbdba081e	-0.090835795
56	0x3de86ecb	0.11349257
57	0xbc921853	-0.017833864
58	0x3d4a1430	0.04933566
59	0xbe2586f0	-0.16164756
60	0x3e5cbdb4	0.21556741
61	0x3e2a425b	0.16626875
62	0x3da356cf	0.07975542
63	0xbd978d1c	-0.07399961
64	0xbe61e2c7	-0.22059165
65	0xbe2c6b03	-0.16837697
66	0xbdb45c16	-0.088066265
67	0x3e15f803	0.1464539
68	0xbd80ca57	-0.06288593
69	0x3e02c5a5	0.12770708
70	0x3e35df82	0.17761043
71	0x3a8585f0	0.0010187011
72	0xbe2db1f2	-0.16962412
73	0x3da8c546	0.08240752
74	0x3e3d0c01	0.1846161
75	0x3a0f619e	0.0005469563
76	0x3be3b394	0.0069488976
77	0xbe30bf98	-0.17260587
78	0x3e062fb9	0.13104142
79	0xbdbd98d7	-0.092576675
80	0xbdfa3872	-0.12217797
81	0xbe2b8ae5	-0.16752203
82	0x3d89697f	0.06709575
83	0x3e073d3d	0.13206954
84	0xbdefb73a	-0.117048696
85	0xbe5f06d4	-0.21779948
86	0xbe3ff9ab	-0.18747585
87	0x3d12596d	0.035729814
88	0xbd642165	-0.05569591
89	0x3e0df658	0.13863504
90	0x3d394224	0.045229092
91	0x3e77924c	0.24176902
92	0x3e6589ab	0.22415797
93	0xbdf3ba14	-0.11900726
94	0x3c8bd8b7	0.017071111
95	0x3e2c3870	0.16818404
96	0x3de97f9b	0.11401292
97	0xbe364207	-0.17798625
98	0x3e07aa7d	0.1324863
99	0xbe11f91e	-0.14255187
100	0x3c4b8693	0.012422222
101	0x3e2cbe9f	0.16869591
102	0x3e5fc2a4	0.21851593
103	0x3d007f3b	0.031371336
104	0x3e594138	0.21216285
105	0xbe0ef05c	-0.13958877
106	0x3d17d846	0.03707149
107	0xbe5ef9fd	-0.2177505
108	0x3dbb8166	0.0915554
109	0xbe07db5d	-0.13267274
110	0x3e48986f	0.19589399
111	0xbdc78082	-0.09741308
112	0x3e6d5b69	0.23179401
113	0xbdcd1226	-0.10013227
114	0xbd82a7fd	-0.063796975
115	0xbe75275f	-0.239408
116	0x3e6de7a0	0.23232889
117	0x3d39d819	0.045372102
118	0xbc9531fe	-0.018212315
119	0xbdea7e44	-0.114498645
120	0xbdab413d	-0.083620526
121	0xbcd8dc26	-0.026472162
122	0x3e2e2586	0.17006502
123	0x3dc549a4	0.096331865
124	0x3e0c72fb	0.13715737
125	0xbe345aa4	-0.17612702
126	0x3e522c82	0.20524791
127	0x3c9074cc	0.017633818
128	0x3e730876	0.23733696
129	0x3e766fd6	0.240661
130	0x3c0c85e7	0.008576847
131	0x3d598b3f	0.05311131
132	0xbe24318f	-0.1603453
133	0x3dceca97	0.10097235
134	0xbe36d726	-0.1785551
135	0x3c021ba7	0.007941163
136	0x3e51949d	0.20466848
137	0xbdc2c129	-0.095094986
138	0xbce048c1	-0.027378442
139	0xbc9062a5	-0.017625162
140	0xbc9a73e5	-0.018854091
141	0xbcba34c4	-0.022730239
142	0x3e78be39	0.24291314
143	0x3e60d661	0.21956779
144	0x3cdb9f33	0.02680931
145	0x3dd9eaba	0.10640474
146	0xbe0fa557	-0.14027916
147	0xbe0206cb	-0.12697904
148	0xbe276871	-0.16348435
149	0xbdb08763	-0.08619573
150	0x3df691cb	0.120395266
151	0x3cad7cbb	0.02117764
152	0xbdd95439	-0.10611767
153	0xbd8e59d2	-0.069507256
154	0x3d1bbc9d	0.038021673
155	0xbe102397	-0.14076076
156	0x3e808023	0.2509776
157	0x3df9ff33	0.122068785
158	0x3db5fbc6	0.088859126
159	0x3df1d6f2	0.11808576
160	0x3dae8f6f	0.085234515
161	0xbe71c402	-0.23609927
162	0xbbae503f	-0.0053196247
163	0x3d12cfd3	0.035842728
164	0xbd8c3196	-0.06845395
165	0xbe20f4cd	-0.15718384
166	0xbe579c60	-0.21055746
167	0xbe62ac28	-0.22135985
168	0x3e5a0475	0.21290763
169	0x3deabb8d	0.11461554
170	0x3d9b599a	0.075854495
171	0xbdb3ec2c	-0.087852806
172	0x3e452319	0.1925167
173	0xbe819cdd	-0.2531499
174	0xbe213c72	-0.15745714
175	0x3e29f74c	0.16598243
176	0x3e035370	0.12824798
177	0x3e5f5d49	0.21812929
178	0xbdf5f640	-0.12009859
179	0x3e17bfdd	0.14819284
180	0xbdfd6735	-0.12373201
181	0x3e34b026	0.1764532
182	0xbce165f3	-0.027514433
183	0x3e2db649	0.16964068
184	0xbe2c4af2	-0.16825464
185	0x3e44e996	0.19229731
186	0xbe50d30e	-0.20393011
187	0x3d905e3c	0.07049224
188	0x3e1e8b7f	0.15482901
189	0x3c8c85f5	0.01715372
190	0xbd9921ed	-0.07477174
191	0x3d22be99	0.03973255
192	0x3e623b14	0.22092849
193	0x3df1ea0f	0.11812221
194	0xbe1c039b	-0.1523575
195	0x3e5cdb47	0.21568023
196	0x3dfc25e3	0.12311914
197	0xbdc37906	-0.09544568
198	0x3e6ad84b	0.22934072
199	0x3daa3e4f	0.08312666
200	0x3da04486	0.0782557
201	0x3e09553f	0.13411425
202	0xbe35be00	-0.1774826
203	0x3d9f874e	0.07789479
204	0xbdaa0a51	-0.08302749
205	0xbe6efda9	-0.23338951
206	0x3d0fc677	0.03510138
207	0xbdda7cdc	-0.10668346
208	0x3da944dc	0.08265087
209	0x3dc521fd	0.096256234
210	0xbdc0954a	-0.09403475
211	0x3dfb50e2	0.122712865
212	0xbd60dc27	-0.054897454
213	0x3dc87971	0.09788788
214	0x3d94d5f0	0.07267368
215	0xbe00036a	-0.12501302
216	0x3c10ed6a	0.008845666
217	0x3e2cadd2	0.16863182
218	0x3c8af9c7	0.016964806
219	0xbe47c312	-0.19508007
220	0xbe6782e6	-0.22608528
221	0x3e758384	0.2397595
222	0x3e304afd	0.17216106
223	0xbdceb002	-0.100921646
224	0x3e78959c	0.24275821
225	0xbc60253e	-0.013680754
226	0x3d9db37c	0.077002496
227	0xbca86098	-0.020553872
228	0x3e58ed8b	0.21184365
229	0xbd8a1d83	-0.0674391
230	0xbba1852c	-0.0049292054
231	0xbc920173	-0.017822957
232	0x3dc525d3	0.09626355
233	0xbe2790ec	-0.16363877
234	0xbe2a3ed4	-0.1662553
235	0x3d870c89	0.06594188
236	0xbe03f3f5	-0.12886031
237	0xbb3177a1	-0.002707936
238	0xbda6e426	-0.081489846
239	0x3e31a4ff	0.17348097
240	0xbe28c8f6	-0.1648291
241	0xbdac1ff1	-0.0840453
242	0xbd58cd22	-0.052930005
243	0x3e433a5b	0.1906523
244	0x3d4d660a	0.05014614
245	0xbe4d6edc	-0.20061821
246	0xbe3b7971	-0.18308045
247	0xbdd5e9d2	-0.10444988
248	0xbdac21d9	-0.084048934
249	0x3ccf0442	0.025270585
250	0xbe6d7ae6	-0.23191413
251	0xbc1b1331	-0.009465025
252	0xbceba849	-0.028766768
253	0x3e1ecc75	0.15507682
254	0xbe29fd93	-0.16600637
255	0xbd1e19ea	-0.038598932
