models/ConvTran/Results/Dataset/UEA/Dataset/UEA/2024-11-26_10-38/checkpoints/Video_MP_0.pth (torch, 593314 bytes, 77 tensors)

embed_layer.0.weight f4 [64, 1, 1, 8]
000000 99 e3 b3 3e 6d 5a 3d bd 88 7d 4c bd 28 84 bb bd
       0.3513458 -0.046228815 -0.049924403 -0.09156066
000010 55 f6 d1 bd 3d 53 1f be 9b ec e3 bd ee b4 90 be
       -0.10252062 -0.15559097 -0.11129113 -0.28263038
000020 12 df 37 bc 23 e2 15 be 0b 4d 4f 3e 78 cb b6 bd
       -0.011222618 -0.14637046 0.20244233 -0.08925527
000030 f5 2b 8c 3e 50 06 65 be 4d 89 4b 3e bf c5 e3 bc
       0.27377287 -0.2236569 0.19876595 -0.027804254
000040 87 b9 f4 bd 15 c9 25 3d 40 21 ac be d2 0f 47 3e
       -0.11949449 0.04047497 -0.33619118 0.19439629
000050 57 00 63 3e 6c b4 a9 bd d8 fe 6d 3d e9 e0 89 bc
       0.22168098 -0.08286366 0.058104366 -0.016830878
000060 4c 04 c6 3d 55 6d 02 be 62 ce df 3d fa 05 69 bc
       0.09668788 -0.1273702 0.10928036 -0.014222616
000070 44 b1 38 be 04 fa 86 be c7 1c 23 3a 68 87 b4 be
       -0.18036371 -0.26362622 0.00062222447 -0.35259557
000080 44 b9 ab be 0b 91 56 3d 9a d9 1b bd 28 3e 85 3d
       -0.33539784 0.052384418 -0.038049318 0.06505996
000090 36 a8 a7 3e 70 94 5c 3e 17 03 81 be a6 8d 3f bd
       0.32745522 0.21541 -0.2519767 -0.046765946
0000a0 f2 18 a3 3e fc cc 82 3e f5 16 75 3e 98 54 a8 3e
       0.3185497 0.25547016 0.23934539 0.3287704
0000b0 8b 9e 3d 3e 0d 47 b1 3d 4c 3c c4 3d 2f ff bc 3d
       0.1851751 0.0865613 0.09581813 0.0922836
0000c0 de ec 50 be 75 51 22 3e 17 ae 75 3d ea c5 b1 be
       -0.20402858 0.15851386 0.05998048 -0.3472131
0000d0 5a 62 b5 be ec eb 9c 3e 4f 3f 96 3e 53 12 b0 3e
       -0.354266 0.30648744 0.29345176 0.3438898
0000e0 e8 f0 96 3e 6d 94 89 bc 43 8f d8 bd 5b 8e 0d 3e
       0.29480672 -0.016794408 -0.105742 0.13823836
0000f0 50 06 4b be a5 b0 06 3e 65 43 a4 be 6b 0a b4 3e
       -0.19826627 0.13153322 -0.32082668 0.35164198
000100 a6 c5 8d be d3 0f 77 be fd c0 1e 3d 57 8c 54 3e
       -0.27689856 -0.2412713 0.038758267 0.2075666
000110 a6 98 5e be 30 8a 56 be ba 13 01 be 25 b5 69 3d
       -0.21737918 -0.20951152 -0.12605181 0.05705752
000120 bc ed 95 3e 51 a3 a2 3e 3f 12 b6 be 14 4f 2b be
       0.2928294 0.31765226 -0.35560796 -0.16729385
000130 bb 10 6f be 9d 86 0c be d8 fe 5e be 39 7e 6f be
       -0.23346226 -0.13723226 -0.21776903 -0.23387994
000140 d9 f0 17 be 47 19 86 be 77 07 85 3e 72 13 2f be
       -0.1483797 -0.2619116 0.25982258 -0.17097262
000150 9e 3e 66 3e 78 d1 b1 3e 1f 30 d3 3d b9 8b 9d 3e
       0.22484824 0.34730124 0.10311913 0.30770662
000160 f0 ea 28 be ca 0f 52 3c e4 3a 6a be 34 0a 25 3e
       -0.16495872 0.012821147 -0.22874027 0.16117173
000170 be c0 63 be 27 b2 5c 3e d6 1d fa bd 4c 17 41 3e
       -0.22241494 0.21552335 -0.12212722 0.18856543
000180 39 3b 80 be 59 b8 73 be 2c f5 9e bd 91 22 94 3e
       -0.25045183 -0.23800792 -0.077616066 0.28932622
000190 41 0e a3 3e 4f 0c 57 be c6 5f ad 3d 38 0e 8b be
       0.31846812 -0.21000789 0.08465533 -0.27159286
0001a0 01 b4 5a 3b 6f 46 0b 3d 69 79 4f 3d 2c 68 85 3e
       0.003337145 0.034002718 0.050652895 0.2605604
0001b0 6a 5b 8a 3e 82 c0 53 3e 77 ad 41 3d b8 75 b2 3e
       0.27022868 0.20678905 0.04728457 0.34855437
0001c0 49 22 f2 bd eb 7a 52 be 6f b2 5a be 63 0f 9d 3e
       -0.118229456 -0.20554702 -0.2135713 0.30675802
0001d0 30 b7 75 bd a8 87 59 3c 09 b1 32 be bf 5a 44 3e
       -0.059989154 0.013276972 -0.17450346 0.19175242
0001e0 47 2c fa bd 96 f7 a7 3d bb f6 a6 be 52 1b 27 bd
       -0.122154765 0.0820152 -0.32610115 -0.04079754
0001f0 4d dd 39 bd c3 ef 9f be 92 a2 ac 3e 07 d8 8f bc
       -0.045377064 -0.3123761 0.3371778 -0.017559065
000200 a1 b1 a0 3d 27 80 7d 3c d7 2d fd 3d fa aa 9e be
       0.0784638 0.015472448 0.12362259 -0.3098982
000210 0d b8 b9 3c a8 0b 32 be 96 eb 91 3e 98 f5 08 be
       0.02267077 -0.17387259 0.2850005 -0.13374937
000220 63 e7 37 3e 32 fd c8 bd 33 47 05 3e d6 45 37 3e
       0.17959361 -0.09813918 0.13015442 0.17897734
000230 4c fb 95 3e 0d 1a a4 be 2b bd 84 be 09 8c f7 bd
       0.29293287 -0.32051125 -0.25925574 -0.120872565
000240 c1 28 4f be 96 24 42 be 3b 6e 87 3d ae 76 96 bc
       -0.2023039 -0.18959269 0.06612822 -0.018367138
000250 fe 38 42 3e 82 1c 59 be d9 9f a3 be 76 73 e9 bc
       0.18967053 -0.21202281 -0.31957892 -0.028497439
000260 07 1b bb 3d 9f ed 87 3e b4 33 75 3e 88 e3 82 be
       0.091360144 0.26548478 0.23945504 -0.25564218
000270 f4 3b 1e 3e 48 52 6c 3e 09 00 87 be 21 cc ad 3e
       0.15452558 0.23078263 -0.26367214 0.339448
000280 81 79 7c be 58 81 f5 bd 70 51 9e 3d 50 2f 82 3c
       -0.24655725 -0.11987561 0.07730377 0.015891701
000290 7c 0c 82 3e 3b c4 cb bd 22 72 6b 3d a1 bd c4 3d
       0.2540015 -0.09949537 0.057481892 0.09606481
0002a0 46 24 40 bd 95 f3 9a be cf c0 a9 3e f3 72 94 3e
       -0.046909593 -0.30263963 0.33154914 0.2899395
0002b0 d9 3f 3c be f0 5d 8b be a4 e1 92 be 6a ed c8 bd
       -0.18383731 -0.27220106 -0.28687775 -0.09810908
0002c0 27 38 09 3e f6 85 fa bd 60 61 14 3e 3a 7c 23 be
       0.13400327 -0.12232582 0.1449027 -0.15965357
0002d0 e0 a3 89 bd 71 c8 58 3e 38 6b a8 be dc d3 ae bd
       -0.0672071 0.21170212 -0.328943 -0.08536503
0002e0 cf a3 9f bb cb 5f 05 3e 4b ff 1f be 4d 41 ee 3d
       -0.0048718224 0.13024823 -0.1562473 0.11633549
0002f0 81 24 7a 3e 12 10 7d bd 85 06 58 b8 5e 87 9e 3e
       0.24427988 -0.061782904 -5.1504485e-05 0.30962652
000300 48 57 7e be d3 18 8a be b2 75 98 3e d4 cb ee bb
       -0.24837983 -0.26972064 0.29777294 -0.007287482
000310 7a 67 3d 3e 14 d8 63 be 4c d8 9f 3d 72 1f 9e be
       0.18496504 -0.22250396 0.07804927 -0.30883366
000320 c5 d9 e1 3d d2 7b ad 3d ec 52 c2 3c 51 48 88 bd
       0.11027864 0.084708825 0.02372118 -0.06654418
000330 45 20 14 be 18 41 14 3e 27 bb 62 bd b4 40 9f 3e
       -0.14465435 0.14477956 -0.055354264 0.31104052
000340 09 e5 6f bd f6 cf 87 be 6a 55 33 be a2 e9 a7 3e
       -0.058568034 -0.2652585 -0.17513052 0.32795435
000350 7e 61 3f 3e a6 06 31 3c 29 19 1a 3d 89 c4 74 3e
       0.18689534 0.010804808 0.03762165 0.23903097
000360 d3 e6 e3 3d cd a6 8e be 32 44 e6 3d f7 3c 99 be
       0.111280106 -0.27861634 0.11243476 -0.29929325
000370 94 1a 5b 3c a3 9e 8b be 62 bc 0c 3e 09 3d ee bd
       0.013373036 -0.27269468 0.13743737 -0.11632735
000380 69 a0 9f be ba 6f 18 be 5b 7f 79 3e ff a1 dd bd
       -0.3117707 -0.1488637 0.24364989 -0.10821914
000390 84 c2 07 be 02 81 0a 3d 7d 77 82 be 55 25 80 be
       -0.13257796 0.033814438 -0.25481787 -0.25028482
0003a0 8c 3d 8f be e8 59 99 3d d4 d7 af 3e a8 1c eb 3c
       -0.27976644 0.074878514 0.3434435 0.028700188
0003b0 96 75 26 bd 3a cc a6 3e 60 49 94 bd 85 7f 1a 3e
       -0.040639482 0.32577688 -0.07240558 0.15087707
0003c0 66 eb cf 3d 09 68 78 bd bd 31 b0 3d 7b 03 1c 3e
       0.101523206 -0.06064609 0.08603237 0.15235703
0003d0 c1 9c a4 3d 96 f0 4c be bb 75 85 be 84 9e ad bd
       0.08037711 -0.20013651 -0.26066384 -0.084775
0003e0 aa de 80 3e 2f dc 9e be a1 10 11 be fb 3d 95 3e
       0.2516988 -0.31027362 -0.141665 0.2914885
0003f0 10 b5 86 be 4a ed bc 3d 8e 2f 2d 3e 24 67 88 be
       -0.26310015 0.09224947 0.16912672 -0.2664119

embed_layer.0.bias f4 [64]
000000 6c 90 b9 bd 3e fe 0a 3e d0 0f 1e bd 94 02 8d 3e
       -0.090607494 0.13573548 -0.0385893 0.2754103
000010 88 cc 55 be 2d 3e 09 3e 58 c5 98 3e d9 47 b3 3e
       -0.20878804 0.13402624 0.2983806 0.35015753
000020 6b 2a af 3e 80 08 1d be f6 6e 12 be 20 fc 80 3e
       0.3421205 -0.15335274 -0.1430014 0.25192356
000030 75 22 9b 3e 67 20 2d be 1b d6 e2 bc 79 c6 71 3e
       0.30299726 -0.16906892 -0.027689984 0.23610868
000040 f4 14 c1 bc f3 f1 ad 3e 2b f5 a1 be e1 d7 70 be
       -0.023569562 0.33973655 -0.3163236 -0.23519851
000050 8e 4b 15 3e 2d 81 b3 be d5 98 86 be 9f e1 1c 3e
       0.14579603 -0.3505949 -0.26288477 0.15320443
000060 fd 67 de 3c e0 f4 b1 3d da 19 62 3e 45 71 61 3e
       0.027149195 0.08689284 0.22080174 0.22015865
000070 16 a2 ac bd 26 9d 97 3e 09 29 69 3d d7 81 90 bd
       -0.08429353 0.29612082 0.0569239 -0.07056015
000080 f1 5f 8c 3e 37 1a 84 be ba a7 71 3e f1 12 9f bc
       0.27416947 -0.2580125 0.23599139 -0.019418212
000090 c4 cd 47 3e 33 09 6d be e8 bc cb bb d9 fd 96 bd
       0.19512087 -0.2314804 -0.0062175877 -0.07372636
0000a0 dd b5 94 be 01 39 15 3e ad 56 26 bc 7e 94 8d be
       -0.29045 0.14572527 -0.010152501 -0.27652353
0000b0 30 d6 ed bd 13 b6 70 be 32 b0 92 be d9 fb 34 3c
       -0.11613119 -0.23506956 -0.2865005 0.011046373
0000c0 8e 28 54 bd 49 bd 04 3e 34 b4 b9 bc 16 e6 a6 3e
       -0.05179649 0.12962832 -0.022668935 0.32597417
0000d0 48 5d 96 be 36 f0 50 be a0 8a c0 3d 03 5f 89 3d
       -0.29368043 -0.20404133 0.094014406 0.06707575
0000e0 a3 e6 a3 3d 15 b4 56 be d3 34 f5 3d 1c c8 13 3e
       0.08002975 -0.20967133 0.11972966 0.14431804
0000f0 eb 19 44 3e b6 09 45 be fd 7c 67 3e 5d 42 8d 3c
       0.19150512 -0.19241986 0.22606273 0.017243559

embed_layer.1.weight f4 [64]
000000 1c c8 7f 3f 61 16 80 3f 1a 37 80 3f 21 45 80 3f
       0.9991472 1.000683 1.0016816 1.0021096
000010 ee 8a 7f 3f cd 4f 80 3f 21 5b 7f 3f 98 fc 7f 3f
       0.99821365 1.0024353 0.99748427 0.999948
000020 ca 2e 80 3f a8 29 80 3f 64 fd 7f 3f 97 3c 80 3f
       1.0014279 1.0012712 0.9999602 1.001849
000030 fa bb 7e 3f 57 b2 7f 3f 25 6f 80 3f ee 97 80 3f
       0.9950558 0.998815 1.0033919 1.0046365
000040 58 29 80 3f fe 5a 7f 3f 2c 18 80 3f ca b4 7f 3f
       1.0012617 0.9974822 1.0007377 0.9988524
000050 f9 a2 7f 3f ac 9a 7f 3f 8e 42 7f 3f fe 01 80 3f
       0.9985805 0.99845386 0.9971093 1.0000608
000060 c5 c4 80 3f 82 fa 7f 3f 04 f3 7f 3f bd 5d 80 3f
       1.0060049 0.9999162 0.9998019 1.0028607
000070 b5 ef 7f 3f bb 39 80 3f fa 81 7f 3f 09 f9 7f 3f
       0.9997514 1.0017618 0.99807703 0.9998937
000080 7d b0 7f 3f 25 e5 7f 3f 2e 3b 80 3f 65 bb 7f 3f
       0.99878675 0.9995902 1.001806 0.99895316
000090 9a 8f 80 3f 4c c6 7f 3f 10 4c 80 3f cd 77 7e 3f
       1.0043824 0.9991195 1.0023212 0.9940155
0000a0 72 0e 80 3f 42 4a 80 3f 1a 31 80 3f 43 0e 80 3f
       1.0004408 1.0022662 1.0014985 1.0004352
0000b0 7e 55 80 3f 9a d3 7f 3f 79 ca 7f 3f 8b 01 7f 3f
       1.002609 0.99932253 0.99918324 0.9961173
0000c0 ed c9 7f 3f 7e 1f 80 3f ac 96 7f 3f 3c e9 7f 3f
       0.9991749 1.0009611 0.9983928 0.9996526
0000d0 8f be 7f 3f 85 e3 7f 3f 8f 24 80 3f 38 02 80 3f
       0.99900144 0.9995654 1.0011157 1.0000677
0000e0 b9 8d 7f 3f 3a da 7f 3f d5 be 7f 3f cd b2 7f 3f
       0.99825627 0.9994236 0.9990056 0.99882203
0000f0 42 8a 7f 3f 71 0e 80 3f b2 e7 7f 3f f5 e2 7f 3f
       0.9982034 1.0004407 0.99962914 0.99955684

embed_layer.1.bias f4 [64]
000000 a8 f3 0c 3a 63 7a a7 ba b4 6a 08 ba 02 f2 03 38
       0.0005376884 -0.0012777563 -0.0005203888 3.145822e-05
000010 4c c1 66 bb cd 34 98 3a 55 72 bb ba dd 6b 9f b9
       -0.0035210429 0.0011612416 -0.0014301041 -0.00030407208
000020 78 6e ad 3a 43 ac 9f 3a f5 1f f8 39 98 10 90 3a
       0.0013231775 0.0012182075 0.00047326056 0.0010991273
000030 b0 98 90 bb 9a db 42 3a 9c c1 55 3b 93 57 9d 3b
       -0.004412733 0.0007433236 0.003261662 0.0048016994
000040 df cd 74 3b b3 4c 04 ba f6 72 b0 3a e4 21 ac 3b
       0.0037354154 -0.00050468295 0.0013461995 0.0052530635
000050 97 76 b8 ba d3 b2 0c b9 e7 79 b2 ba 1f 8f 07 bb
       -0.0014073428 -0.00013418058 -0.0013616652 -0.0020684672
000060 77 ab a3 3b e5 c7 31 3a 98 80 7e b9 c6 48 55 3b
       0.0049948054 0.0006781801 -0.00024271233 0.0032544597
000070 1c 0b 13 bb 85 2a 88 39 1d 71 44 bb a8 72 97 3a
       -0.0022437042 0.0002597162 -0.0029974647 0.0011554556
000080 a6 23 78 3b 55 70 97 3a c2 b0 12 ba 30 cc 62 bb
       0.0037863045 0.0011553863 -0.0005595797 -0.0034606569
000090 fa 25 0a 3b f2 71 45 ba 3f 01 7e 3a 19 36 93 bb
       0.0021079765 -0.0007531933 0.0009689517 -0.004492533
0000a0 fb 2a fe b9 3a 0d 1e 3b d7 59 fb 3a cf 5e 8e 3b
       -0.00048478678 0.002411677 0.0019176555 0.004344798
0000b0 ea 92 b1 b8 c7 28 64 3a a3 68 52 3a 27 07 21 bb
       -8.4673826e-05 0.0008703586 0.00080264563 -0.0024570914
0000c0 fb 4f 0b bb 57 33 a5 3a ea 35 5c ba bc 0b 22 3a
       -0.002125739 0.0012603801 -0.0008400368 0.0006181558
0000d0 1e c9 f7 3a 4e ca 35 3a 44 c6 b0 ba 8c 8c b4 b9
       0.0018904542 0.0006934748 -0.0013486822 -0.0003443699
0000e0 bc 70 95 3b d1 90 c5 bb 0a c5 13 ba 25 e7 82 39
       0.004560558 -0.0060292264 -0.0005636966 0.00024967748
0000f0 3e 27 4f bb f4 f0 b0 38 cf 24 4c bb 98 d5 cf b8
       -0.0031609084 8.437215e-05 -0.003114987 -9.910314e-05

embed_layer.1.running_mean f4 [64]
000000 85 61 b0 c2 ec 75 fa 41 34 12 e3 c0 0e 03 03 c3
       -88.19047 31.307579 -7.095972 -131.01193
000010 5c d7 70 bf bb b9 90 43 42 b2 31 42 80 c4 45 42
       -0.9407861 289.45102 44.42408 49.441895
000020 b4 65 09 c3 5b 3c 05 c3 ef 7d ec 42 1b 05 e6 c1
       -137.39728 -133.23576 118.245964 -28.752493
000030 ca c3 77 c2 e2 4b 5c 43 4b ea 3b c2 24 c5 a0 c2
       -61.9412 220.29642 -46.9788 -80.38504
000040 2d 64 88 c1 9a 6f d5 bf ba 7a 00 c3 09 f1 0f 43
       -17.048914 -1.6674683 -128.4794 143.94154
000050 8c a7 d8 40 0c f5 ca c2 02 97 47 c2 59 03 d0 42
       6.7704525 -101.47861 -49.89747 104.00654
000060 49 f4 ae c2 d4 0e 90 42 ec d8 5b 42 89 56 d6 c2
       -87.47712 72.02896 54.961838 -107.169014
000070 aa a1 26 c3 57 cc c0 42 0d e0 ff c1 4b 95 fa c1
       -166.6315 96.3991 -31.9844 -31.322897
000080 76 e4 d0 42 6b fe 04 c3 a4 48 e6 c2 73 5f 0b c3
       104.44621 -132.99382 -115.14188 -139.37285
000090 27 59 f1 c2 dc c4 e6 42 bc 29 cf c2 02 62 65 c3
       -120.674126 115.38449 -103.58151 -229.38284
0000a0 a2 71 0b c3 12 17 c4 42 2c 09 c6 41 88 7b 19 43
       -139.44388 98.04506 24.754478 153.48254
0000b0 a1 25 29 c1 cf 25 5e c2 f6 23 97 42 5b 5d 8a c2
       -10.571687 -55.536922 75.57024 -69.182335
0000c0 45 f9 97 c2 ab 1b 78 c2 7d 66 c2 c2 c1 7f cb 42
       -75.986855 -62.02702 -97.20017 101.74952
0000d0 8d 1d 41 42 0b e5 1c c2 a2 9e a0 42 3c 84 94 42
       48.27886 -39.223675 80.30983 74.25827
0000e0 87 11 e9 41 00 b7 9c 42 79 ac 8c c2 8e fa a6 c2
       29.133558 78.35742 -70.33686 -83.489365
0000f0 3a 71 7a 42 4e b8 95 42 d3 ef d5 41 92 0c 4b 42
       62.610573 74.85997 26.742102 50.762276

embed_layer.1.running_var f4 [64]
000000 ad 17 99 44 b7 01 0d 43 30 f3 82 42 a8 42 11 45
       1224.7399 141.0067 65.474976 2324.166
000010 04 3f ef 42 19 ee 1d 46 e1 13 2b 44 d4 93 b6 43
       119.62308 10107.524 684.3106 365.1549
000020 43 cb 17 45 bb 8d 1e 45 e8 10 06 45 d8 bc 34 43
       2428.7039 2536.8582 2145.0566 180.73767
000030 0c d6 27 44 f6 f7 bb 45 1e 75 b9 43 dc cc 4e 44
       671.3445 6014.995 370.91498 827.2009
000040 ba 69 77 42 38 c9 6a 43 0f 9f 04 45 7a 08 25 45
       61.85325 234.78601 2121.9412 2640.5298
000050 85 fa e0 42 66 b8 c0 44 d9 25 ba 43 f3 95 ac 44
       112.489296 1541.7625 372.2957 1380.6859
000060 cd 55 87 44 90 43 33 44 4f a4 0b 44 55 ed ad 44
       1082.6813 717.05566 558.5673 1391.4166
000070 64 78 5c 45 28 cb 95 44 36 b6 90 43 e5 94 32 43
       3527.5244 1198.3486 289.42352 178.58162
000080 33 03 a7 44 c0 b3 09 45 ae 8d d3 44 16 cd 14 45
       1336.1 2203.2344 1692.4275 2380.8179
000090 f1 6c dd 44 14 7d cd 44 27 54 b5 44 07 2f ca 45
       1771.4044 1643.9087 1450.6298 6469.8784
0000a0 de 02 1b 45 89 65 bd 44 3e 93 0b 43 a8 1d 37 45
       2480.1792 1515.173 139.57516 2929.8535
0000b0 7c a4 97 43 55 ed 0f 44 03 c2 41 44 13 7b 2e 44
       303.28503 575.7083 775.03143 697.92303
0000c0 fb 63 46 44 a4 2c 22 44 64 bb 9a 44 44 89 b6 44
       793.5622 648.6975 1237.856 1460.2896
0000d0 a2 fd d5 43 ff 3e 96 43 6d 68 4b 44 58 9d 49 44
       427.9815 300.49216 813.63165 806.4585
0000e0 3c ae 5d 43 ea 97 3e 44 ac 1b 58 44 14 82 55 44
       221.6806 762.37366 864.4324 854.0325
0000f0 65 75 18 44 28 aa 48 44 cb 76 15 43 83 fd a1 43
       609.8343 802.6587 149.46404 323.98056

embed_layer2.0.weight f4 [16, 64, 16, 1]
000000 40 68 f0 bc 20 52 c6 3b 0e e6 2a bc 15 83 c2 bc
       -0.029346585 0.0060522705 -0.010430826 -0.023744145
000010 e3 69 ae 3c 2e ba ce 3c 4e e9 3c 3b 97 a6 79 bc
       0.021290725 0.025235262 0.0028825584 -0.015237472
000020 18 f6 50 bc e3 77 06 3d 8a cf 36 3c 44 fb 60 3c
       -0.012753986 0.032829177 0.01115788 0.013731781
000030 9b 7a f7 3c 9f 0c 16 3c 8c 6c 03 bc 17 99 eb 3c
       0.03020983 0.009158283 -0.008021485 0.028759522
000040 b4 45 1d 3b d5 34 ef bc 8f dd ad bb de 0b 10 3c
       0.0023997845 -0.029199997 -0.005305953 0.008791892
000050 90 99 0e bb cf 4d ee 3c ca 23 8e 3b 0c 13 e0 3c
       -0.002175901 0.029089836 0.0043377625 0.027352832
000060 6f 36 be bc fe f7 ba 3c 79 c9 0c 3c 17 82 e5 3c
       -0.023219315 0.02282333 0.008592957 0.028016133
000070 31 0d 70 3c d7 33 6d bc d2 42 ed 3a 94 f2 84 3c
       0.014651583 -0.014477692 0.0018101579 0.016228952
000080 be 5d db 3c b2 94 55 3c 95 83 02 bc 2e a5 b9 3c
       0.026778098 0.01303594 -0.007965942 0.022661772
000090 b5 a5 c3 3c 0d a5 9e 3c 9f b7 cd 3b 90 19 b7 bc
       0.023882726 0.019365812 0.006277993 -0.022351056
0000a0 c3 96 a7 3c df 51 16 3a c7 2c 90 3b 1d d5 be bc
       0.020457631 0.00057342456 0.004399869 -0.02329498
0000b0 b3 5a 48 bc f1 d0 c5 bc d2 f6 b8 3c 2f d9 b2 bc
       -0.012228656 -0.024147483 0.02257863 -0.021832077
0000c0 cb 4b cf 3b 19 1e 7f 3b 61 fa e5 bb 54 22 ee bb
       0.006326174 0.0038927852 -0.007018373 -0.007267276
0000d0 44 40 00 3d d2 22 ec bc 05 93 c7 bc d2 1d e8 bb
       0.03131129 -0.028825197 -0.024362097 -0.007083633
0000e0 b5 1e 94 3c eb ef b2 3c ab a6 6f 3c 63 03 ce bc
       0.018081049 0.021842917 0.014627139 -0.0251481
0000f0 70 c9 e0 3c 97 d3 53 3c 37 ed 4b 39 ad 71 d0 3c
       0.027439803 0.012928865 0.00019447958 0.02544483
000100 4f eb f1 bc d5 1c a4 3c e3 04 f1 3c 3f 68 b9 3c
       -0.02953115 0.02003328 0.029421275 0.022632716
000110 e8 ed 56 bc 25 23 c0 3c 64 49 e3 3c a8 ad 01 bd
       -0.013118245 0.023454258 0.027744956 -0.031659752
000120 a7 fb c5 3c 71 4a b9 3c b3 73 b2 3b 25 70 c6 3a
       0.024167849 0.022618504 0.0054459213 0.0015139623
000130 29 e6 d9 3c b3 63 d6 3c 28 2a bc 3b 84 66 84 3c
       0.026599007 0.026170587 0.00574233 0.016162165
000140 e2 44 b7 bb 97 e7 49 3c a1 4a bc bb 92 70 bf 3c
       -0.0055929283 0.012323282 -0.005746201 0.023369107
000150 09 b5 8c 3c 52 8e fd 3c 6e 0a ef bc 1b 4b c2 3c
       0.017176168 0.030951653 -0.029179778 0.023717454
000160 e2 eb f1 bb e0 6a a9 bc 2f 0f 1c bb b7 43 ac bc
       -0.0073828558 -0.020680845 -0.002381276 -0.021028383
000170 85 b1 a2 bc 4a a9 7b bc 01 9b 92 3c 34 39 d0 bc
       -0.019860039 -0.015360186 0.017896177 -0.025417902
000180 a6 17 a3 3c 85 96 9b bb 38 f2 18 3b 20 6e 9a bc
       0.019908737 -0.004748168 0.0023337733 -0.01885134
000190 37 53 e8 3c 13 5a 0d 3c c7 06 0c bc b9 b8 64 3c
       0.028359992 0.008627432 -0.008546538 0.013960057
0001a0 c3 b0 a3 ba 4f 7b 7a 3c 73 96 40 bc 72 af 8b bb
       -0.0012488592 0.015288188 -0.01175462 -0.004262858
0001b0 3f ed 04 3d 7c bf 7e bb e2 1e a3 3a 88 5e 4d bc
       0.032452818 -0.0038871458 0.0012445117 -0.012534745
0001c0 09 9a c2 3c a3 77 72 3c cc 7f d4 3c 09 3e 06 3c
       0.02375509 0.014799031 0.025939845 0.008193501
0001d0 da 06 85 bc 43 bc b5 bc 4a 30 c5 3c 07 09 06 3c
       -0.016238619 -0.022184497 0.024070878 0.008180863
0001e0 e4 f4 e5 3c f6 79 82 bb 74 c3 81 bc 58 ef 9d bc
       0.028070875 -0.003981824 -0.01584027 -0.019279167
0001f0 00 28 cd 3c 59 3f b4 3c dd be 58 3c 94 91 9a ba
       0.025043488 0.022002863 0.013229099 -0.0011792653
000200 e8 06 e1 bc 0a 68 62 bb 91 7a 5e 3c be b4 f9 bc
       -0.027469113 -0.0034546875 0.013579027 -0.030481692
000210 3e 2d 52 bb 20 45 66 3c 7b 49 cb bc 58 16 4b 3b
       -0.0032070423 0.014054567 -0.024815312 0.003098866
000220 67 92 9f bc 8f 8d bb 3c 66 fa 05 bc 10 2b 96 3c
       -0.01947899 0.022894649 -0.008177375 0.01833108
000230 16 b5 eb 3b 23 46 9c bc c1 1b f5 bc 4f 3b 2f bb
       0.007193218 -0.019076413 -0.02992046 -0.0026738232
000240 f0 e7 ea 3c 8b dc 5c bb 6e 3b cf 3c 22 de e3 3c
       0.02867505 -0.003370079 0.025296893 0.027815882
000250 fb e5 52 3b b2 5e 93 bb d8 c5 cd ba 38 57 c9 bb
       0.0032180536 -0.0044973725 -0.0015699221 -0.0061444305
000260 da fa d2 3c 25 0c a4 bc e6 85 8d bc 6b 4c 16 3b
       0.025754381 -0.020025322 -0.017275762 0.0022933732
000270 66 e2 b0 3c 6b a7 de 3c 28 85 06 3c cf 60 f0 3c
       0.02159233 0.02717944 0.008210458 0.029343037
000280 da 65 99 3c a4 77 21 3c 89 08 40 3c f6 17 13 3c
       0.018725324 0.009855185 0.011720785 0.008977881
000290 ab c1 6b bc 14 ae 23 3b 78 0d 7b bc c3 61 3c bc
       -0.014389436 0.0024975585 -0.015323035 -0.011497918
0002a0 9f 61 e1 3b e8 ce a7 3c d7 01 e9 ba aa 78 f6 3c
       0.0068780924 0.020484403 -0.0017777038 0.030086834
0002b0 d0 97 70 bc 97 99 8e bc 94 80 ca bc 6c 12 e2 bc
       -0.014684632 -0.017407222 -0.024719514 -0.027596675
0002c0 55 95 16 bc e2 35 59 3a 9c bb b8 bc 46 fd 9a bc
       -0.009190877 0.0008285922 -0.022550397 -0.018919598
0002d0 45 8a 65 bc f8 5e d7 3c 36 c0 c0 bc 76 8a 09 3c
       -0.014010017 0.026290402 -0.023529153 0.008394828
0002e0 0e 59 b5 bc dc 28 c4 bb 9c 90 d3 bb ba 70 8c 3c
       -0.022137191 -0.005986316 -0.0064564478 0.017143596
0002f0 c0 1e 63 bb be 7e fc 3c 4b d6 07 bc fe fe d4 3c
       -0.003465578 0.030822154 -0.0082908375 0.026000496
000300 be e2 02 bd 3a 7c df 3c 38 75 89 3b ed b5 3b bc
       -0.03195452 0.027280916 0.0041948818 -0.011456949
000310 48 82 e5 3c bc 8d d6 3a fe e2 05 bc bf 58 c8 bc
       0.028016225 0.0016369144 -0.008171795 -0.02445638
000320 11 4b a4 3b 0b c3 d2 3c 31 ee 14 3c ff 97 7a bc
       0.0050138314 0.02572777 0.009089992 -0.015295028
000330 85 39 e8 bc d6 73 50 3c 36 9f 22 3c b6 96 99 3c
       -0.02834774 0.01272293 0.009925654 0.018748622
000340 30 ce 88 bc 74 bd 6c 3b 95 04 ce 3c e8 df 75 bc
       -0.01669988 0.0036123665 0.02514867 -0.015006997
000350 6a a3 44 3c 95 44 eb bb b8 f4 01 bc 09 51 b4 bb
       0.012001852 -0.0071798065 -0.007931881 -0.005502824
000360 21 c3 dc 3c 23 9d bf 3c 8d 6c d4 3c 26 98 7e 3c
       0.026948513 0.023390358 0.025930667 0.015539205
000370 8a 9b ca bc e7 b5 f1 3c 00 5b 50 bc 73 da 8f 3a
       -0.02473237 0.029505683 -0.012717009 0.0010975137
000380 91 4f 34 bb 07 df 07 bc ab 75 be bc e6 e1 33 bc
       -0.0027513246 -0.00829292 -0.023249468 -0.010979151
000390 c6 60 8b bc 3b 66 e8 bc 25 e3 99 3c c3 9d bb bc
       -0.017013919 -0.02836906 0.018785069 -0.022902375
0003a0 f0 ed a9 3b c0 69 79 bc 66 16 af bc bd 94 f9 3c
       0.005185835 -0.015222967 -0.021372985 0.030466432
0003b0 5b 4a 69 bc d4 2d e3 bc 61 a3 93 3c 01 ee a9 bc
       -0.014238919 -0.027731813 0.018022241 -0.020743372
0003c0 b8 35 2a 3c fc 93 d3 3c 79 3b 3f 3b 98 29 f3 3c
       0.010388784 0.0258274 0.0029179736 0.02968292
0003d0 d1 4c da 3c 42 94 f6 bc c4 99 e1 3c db 70 e5 bc
       0.026647957 -0.030099992 0.027539141 -0.028007915
0003e0 f2 13 4a 3c 27 e5 95 3c 66 8f 80 3c b7 91 bd 3c
       0.012333857 0.018297745 0.015693378 0.023140771
0003f0 d6 0d af bc 26 e3 e9 3c 1a 2a ec bc 6a d3 da ba
       -0.021368902 0.028550696 -0.02882867 -0.0016695086

embed_layer2.0.bias f4 [16]
000000 47 e4 23 bc 32 d8 2f bc 70 80 da 3b 97 bb 9a 3c
       -0.010003156 -0.010732697 0.006668143 0.018888278
000010 cf 82 db 39 b4 94 11 bc da 9f 68 bc f4 51 ae ba
       0.00041868395 -0.008885551 -0.014198268 -0.001329957
000020 1b fc 23 bc d6 0b b4 bc b9 1b ac bc eb b0 c7 3a
       -0.010008837 -0.0219783 -0.021009313 0.0015235221
000030 7d a7 8c ba ad b2 7d bc e6 52 f2 3b fa 0a c6 bb
       -0.0010731068 -0.015484494 0.007395136 -0.006043789

embed_layer2.1.weight f4 [16]
000000 5f 31 80 3f c6 b1 7f 3f 6c 14 80 3f 52 02 80 3f
       1.0015067 0.99880636 1.0006232 1.0000708
000010 24 e3 7f 3f 66 89 80 3f 0b 60 7f 3f 54 07 80 3f
       0.99955964 1.0041931 0.99755925 1.0002236
000020 fc 00 80 3f 28 a0 80 3f da d1 7f 3f 10 34 7f 3f
       1.00003 1.0048876 0.99929583 0.99688816
000030 e8 1c 80 3f 87 30 80 3f b1 2d 80 3f 48 06 80 3f
       1.0008821 1.0014809 1.0013944 1.0001917

embed_layer2.1.bias f4 [16]
000000 92 4e b5 3a 99 1e d8 ba df 8b b8 3a 61 e5 55 ba
       0.001383262 -0.0016488611 0.0014079771 -0.00081594853
000010 f0 90 ed 3a 2c b9 6f 3b 30 2f 80 bb 7e c1 d4 3a
       0.001812486 0.0036578877 -0.003911875 0.0016231982
000020 07 07 3b bb d8 5f 64 ba 53 f5 a6 b9 d5 a0 90 bb
       -0.0028538124 -0.00087117916 -0.00031844768 -0.004413704
000030 bf e2 c0 39 94 bf 3c 3b 92 8a d1 3a 7b 89 38 ba
       0.00036790033 0.0028800713 0.0015986732 -0.0007039529

embed_layer2.1.running_mean f4 [16]
000000 08 18 de 3e 4a 63 1f 3e 99 7b 90 bd b3 50 75 3e
       0.4337771 0.1556522 -0.070548244 0.23956566
000010 06 2f 82 bd b6 3b 16 bf a4 8b a3 3d 8f c0 70 3e
       -0.06356625 -0.5868486 0.07985619 0.23510955
000020 47 95 d8 bb 28 77 87 be 89 f7 12 be a6 d1 45 bc
       -0.006609592 -0.26458097 -0.1435224 -0.01207391
000030 d5 79 62 3e 55 48 48 3f 15 61 09 3e 4a cf e9 bd
       0.22116788 0.7823537 0.1341594 -0.114164904

embed_layer2.1.running_var f4 [16]
000000 11 0b 27 3e 48 48 c7 3d 7c 4d b3 3d ab ea 0e 3d
       0.16312815 0.097305834 0.08755013 0.034891766
000010 af d9 cd 3d b2 f7 83 3d 4c b1 02 3e 04 80 56 3e
       0.100512855 0.064437285 0.12762946 0.20947272
000020 04 27 42 3d 05 b0 06 3d 39 0f 6e 3e 01 aa 24 3e
       0.04740049 0.03288271 0.23247994 0.16080476
000030 73 a8 a9 3d 9c 80 60 3e e5 82 c5 3c cd ed 7c 3d
       0.08284082 0.2192406 0.024110267 0.061750222

Fix_Position.pe f4 [1, 161, 16]
000000 00 00 00 00 00 00 80 3f 00 00 00 00 00 00 80 3f
       0.0 1.0 0.0 1.0
000010 00 00 00 00 00 00 80 3f 00 00 00 00 00 00 80 3f
       0.0 1.0 0.0 1.0
000020 00 00 00 00 00 00 80 3f 00 00 00 00 00 00 80 3f
       0.0 1.0 0.0 1.0
000030 00 00 00 00 00 00 80 3f 00 00 00 00 00 00 80 3f
       0.0 1.0 0.0 1.0
000040 6f 31 cb 3d a5 bc 7e 3f 81 b3 00 3d a4 df 7f 3f
       0.09921538 0.995066 0.03142119 0.99950624
000050 d6 d1 22 3c c4 fc 7f 3f 99 f4 4d 3b ad ff 7f 3f
       0.009937724 0.99995065 0.003142631 0.99999505
000060 04 42 82 3a f8 ff 7f 3f bd c3 a4 39 ff ff 7f 3f
       0.0009937887 0.9999995 0.00031426354 0.99999994
000070 a1 69 d0 38 00 00 80 3f ce cf 03 38 00 00 80 3f
       9.937888e-05 1.0 3.1426367e-05 1.0
000080 c8 30 4a 3e c5 f5 7a 3f 3d a3 80 3d 98 7e 7f 3f
       0.19745171 0.98031265 0.06281135 0.9980254
000090 c7 cf a2 3c 0e f3 7f 3f 56 f4 cd 3b b5 fe 7f 3f
       0.019874467 0.9998025 0.0062852306 0.9999803
0000a0 ff 41 02 3b df ff 7f 3f bc c3 24 3a fd ff 7f 3f
       0.0019875763 0.99999803 0.000628527 0.9999998
0000b0 a1 69 50 39 00 00 80 3f ce cf 83 38 00 00 80 3f
       0.00019875776 1.0 6.2852734e-05 1.0
0000c0 08 65 96 3e e9 b4 74 3f 33 cc c0 3d f5 dc 7e 3f
       0.29373956 0.95588547 0.09413948 0.99555904
0000d0 86 32 f4 3c e0 e2 7f 3f ed 76 1a 3c 16 fd 7f 3f
       0.029809248 0.9995556 0.009427768 0.99995553
0000e0 f4 62 43 3b b6 ff 7f 3f 99 25 77 3a f9 ff 7f 3f
       0.002981362 0.9999956 0.0009427905 0.9999996
0000f0 39 4f 9c 39 ff ff 7f 3f b6 b7 c5 38 00 00 80 3f
       0.00029813664 0.99999994 9.427911e-05 1.0
000100 bf 35 c6 3e df 09 6c 3f 36 62 00 3e e3 fa 7d 3f
       0.3871288 0.9220256 0.12537464 0.9921095
000110 8c c7 22 3d 3a cc 7f 3f 4c f3 4d 3c d2 fa 7f 3f
       0.039741084 0.99921 0.0125702135 0.99992096
000120 ef 41 82 3b 7c ff 7f 3f ba c3 a4 3a f3 ff 7f 3f
       0.003975145 0.99999213 0.0012570538 0.9999992
000130 a1 69 d0 39 ff ff 7f 3f ce cf 03 39 00 00 80 3f
       0.0003975155 0.99999994 0.00012570547 1.0
000140 bd 11 f4 3e 8d 0a 61 3f de 3d 20 3e 9c d8 7c 3f
       0.47669783 0.87906724 0.156486 0.9876802
000150 b7 71 4b 3d 1c af 7f 3f 92 b7 80 3c e9 f7 7f 3f
       0.049668994 0.9987657 0.015712533 0.99987656
000160 5a d2 a2 3b 31 ff 7f 3f a6 f4 cd 3a eb ff 7f 3f
       0.0049689235 0.99998766 0.001571317 0.99999875
000170 05 42 02 3a fe ff 7f 3f c1 c3 24 39 00 00 80 3f
       0.0004968944 0.9999999 0.00015713183 1.0
000180 94 c2 0f 3f b9 d2 53 3f 02 f1 3f 3e 69 76 7b 3f
       0.5615628 0.8274341 0.18744281 0.98227555
000190 be 16 74 3d 88 8b 7f 3f 2b 75 9a 3c 5a f4 7f 3f
       0.059592 0.9982228 0.018854698 0.99982226
0001a0 bb 62 c3 3b d6 fe 7f 3f 91 25 f7 3a e2 ff 7f 3f
       0.0059626973 0.99998224 0.00188558 0.9999982
0001b0 38 4f 1c 3a fd ff 7f 3f b6 b7 45 39 00 00 80 3f
       0.0005962732 0.9999998 0.00018855822 1.0
0001c0 1f 11 24 3f c9 83 44 3f a2 73 5f 3e a3 d4 79 3f
       0.64088625 0.7676359 0.21821454 0.9759008
0001d0 cc 5a 8e 3d 7d 61 7f 3f 61 32 b4 3c 25 f0 7f 3f
       0.06950912 0.9975813 0.021996679 0.99975806
0001e0 11 f3 e3 3b 6a fe 7f 3f 3d 2b 10 3b d7 ff 7f 3f
       0.006956466 0.9999758 0.0021998428 0.99999756
0001f0 6b 5c 36 3a fc ff 7f 3f a9 ab 66 39 00 00 80 3f
       0.00069565204 0.99999976 0.00021998458 1.0
000200 31 c1 36 3f 69 44 33 3f c3 bd 7e 3e b5 f3 77 3f
       0.71388537 0.7002626 0.24877076 0.9685624
000210 a0 a6 a2 3d fe 30 7f 3f 21 ef cd 3c 4a eb 7f 3f
       0.079419374 0.9968413 0.02513844 0.999684
000220 ab 41 02 3c ee fd 7f 3f b2 c3 24 3b cb ff 7f 3f
       0.007950227 0.9999684 0.0025141058 0.99999684
000230 a0 69 50 3a fb ff 7f 3f ce cf 83 39 00 00 80 3f
       0.00079503097 0.9999997 0.00025141094 1.0
000240 96 a3 47 3f 2a 40 20 3f be e3 8e 3e 17 d4 75 3f
       0.7798399 0.62597907 0.27908128 0.9602675
000250 58 ee b6 3d 0a fa 7e 3f 5d ab e7 3c ca e5 7f 3f
       0.08932179 0.9960028 0.028279955 0.99960005
000260 c5 89 12 3c 61 fd 7f 3f 24 5c 39 3b bd ff 7f 3f
       0.00894398 0.99996 0.002828368 0.999996
000270 d3 76 6a 3a f9 ff 7f 3f c8 49 94 39 ff ff 7f 3f
       0.0008944098 0.9999996 0.0002828373 0.99999994
000280 a6 8d 56 3f 17 a7 0b 3f 7d 44 9e 3e 53 76 73 3f
       0.8380989 0.54551834 0.30911627 0.95102423
000290 6e 31 cb 3d a5 bc 7e 3f 80 b3 00 3d a4 df 7f 3f
       0.09921537 0.995066 0.031421185 0.99950624
0002a0 d6 d1 22 3c c4 fc 7f 3f 96 f4 4d 3b ad ff 7f 3f
       0.009937724 0.99995065 0.0031426302 0.99999505
0002b0 04 42 82 3a f8 ff 7f 3f c1 c3 a4 39 ff ff 7f 3f
       0.0009937887 0.9999995 0.00031426366 0.99999994
0002c0 b4 59 63 3f 72 5a eb 3e 37 7d ad 3e 04 db 70 3f
       0.8880875 0.45967442 0.33884594 0.9408419
0002d0 63 6f df 3d cf 78 7e 3f 01 91 0d 3d d8 d8 7f 3f
       0.10909917 0.9940309 0.034562115 0.9994025
0002e0 dd 19 33 3c 16 fc 7f 3f 05 8d 62 3b 9c ff 7f 3f
       0.010931459 0.9999403 0.0034568917 0.99999404
0002f0 9c 48 8f 3a f6 ff 7f 3f bb 3d b5 39 ff ff 7f 3f
       0.0010931673 0.9999994 0.00034569003 0.99999994
000300 6b e7 6d 3f 2b 14 bd 3e 14 8a bc 3e d0 02 6e 3f
       0.9293124 0.3692945 0.36824095 0.9297304
000310 b1 a7 f3 3d 89 2e 7e 3f 24 6e 1a 3d 67 d1 7f 3f
       0.11897219 0.99289757 0.037702695 0.999289
000320 d7 61 43 3c 57 fb 7f 3f 75 25 77 3b 89 ff 7f 3f
       0.011925182 0.9999289 0.0037711535 0.9999929
000330 37 4f 9c 3a f4 ff 7f 3f b6 b7 c5 39 ff ff 7f 3f
       0.0011925463 0.9999993 0.00037711643 0.99999994
000340 24 1c 76 3f 3c f0 8c 3e 4a 67 cb 3e 6f ee 6a 3f
       0.9613669 0.27527034 0.3972724 0.9177007
000350 eb ec 03 3e d7 dd 7d 3f e4 4a 27 3d 51 c9 7f 3f
       0.12883346 0.99166626 0.040842906 0.9991656
000360 c6 a9 53 3c 88 fa 7f 3f f1 de 85 3b 74 ff 7f 3f
       0.012918895 0.99991655 0.0040854146 0.99999166
000370 d0 55 a9 3a f2 ff 7f 3f af 31 d6 39 ff ff 7f 3f
       0.0012919251 0.99999917 0.00040854278 0.99999994
000380 22 e3 7b 3f 7e d0 36 3e 13 11 da 3e ab 9e 67 3f
       0.9839345 0.17852971 0.42591152 0.90476483
000390 a7 02 0e 3e b9 86 7d 3f 38 27 34 3d 94 c0 7f 3f
       0.138682 0.99033695 0.043982714 0.99903226
0003a0 a7 f1 63 3c a8 f9 7f 3f 27 2b 90 3b 5e ff 7f 3f
       0.013912595 0.9999032 0.0043996754 0.99999034
0003b0 68 5c b6 3a f0 ff 7f 3f a9 ab e6 39 fe ff 7f 3f
       0.0013913037 0.99999905 0.00043996915 0.9999999
0003c0 ce 2d 7f 3f 60 e5 a3 3d b9 83 e8 3e 58 14 64 3f
       0.9967927 0.08002734 0.45412996 0.8909354
0003d0 cc 14 18 3e 33 29 7d 3f 16 03 41 3d 33 b7 7f 3f
       0.14851683 0.9889099 0.047122084 0.99888915
0003e0 78 39 74 3c b8 f8 7f 3f 5c 77 9a 3b 46 ff 7f 3f
       0.01490628 0.9998889 0.004713936 0.9999889
0003f0 02 63 c3 3a ed ff 7f 3f a1 25 f7 39 fe ff 7f 3f
       0.0014906826 0.99999887 0.00047139547 0.9999999

attention_layer.relative_bias_table f4 [321, 8]
000000 48 62 16 bb 69 4a cd ba 62 e1 0a bb d9 43 68 3a
       -0.0022946764 -0.0015662435 -0.0021191468 0.0008860208
000010 9a 8c 75 bb 83 df d5 3a 2a eb a0 3a 93 a9 2c bb
       -0.0037467838 0.0016317222 0.0012277116 -0.0026346191
000020 5d de 24 bb 8c ec 58 ba 73 de 0b bb 07 ab 73 3a
       -0.0025156953 -0.00082749943 -0.0021342307 0.00092951994
000030 6f ce 01 bb c6 8f 97 3b a1 c3 e9 39 ae f7 00 bb
       -0.0019806882 0.0046252934 0.00044586978 -0.0019678879
000040 0c d3 16 bb 99 0d 4c ba 30 76 06 bb c3 40 61 39
       -0.0023013977 -0.00077840086 -0.0020517223 0.00021481798
000050 f1 6a 2c bb bb 78 97 3b 7f 22 1d 3a 86 a1 1f ba
       -0.002630886 0.0046225465 0.0005994215 -0.00060894375
000060 ad 76 23 bb 5c 34 82 ba a9 90 12 bb 00 d2 c0 b8
       -0.0024942562 -0.0009933817 -0.0022364056 -9.194389e-05
000070 d4 f7 48 bb 02 9b 9b 3b 92 25 fd b8 6c 7a 47 ba
       -0.0030665295 0.004748703 -0.00012070978 -0.000760949
000080 eb e1 27 bb ce f8 66 ba cf 1b 14 bb 39 b7 87 38
       -0.0025616835 -0.00088108785 -0.0022599583 6.4714295e-05
000090 82 9f 42 bb e4 5a 9e 3b 8b 0e f0 b9 67 37 23 ba
       -0.0029697125 0.0048326124 -0.00045787203 -0.0006226212
0000a0 6e f1 28 bb 3e 9a 70 ba 78 42 19 bb 9b ab 35 b8
       -0.002577867 -0.00091782573 -0.0023385566 -4.3313583e-05
0000b0 a4 0d 59 bb 27 f8 9e 3b 67 ec 91 b9 ad fb 25 ba
       -0.0033119703 0.0048513594 -0.0002783269 -0.0006331753
0000c0 08 6b 38 bb 3e bb c5 b9 55 27 1a bb 82 80 4d 39
       -0.0028139967 -0.00037714274 -0.002352198 0.00019598196
0000d0 ba fe 51 bb b4 0e 9c 3b 03 f7 1f b9 80 56 3f ba
       -0.0032042698 0.004762495 -0.0001525544 -0.0007298961
0000e0 fa 02 46 bb 8e 6d 86 39 f2 f6 22 bb f1 62 1e 3a
       -0.0030214177 0.00025640096 -0.002486643 0.0006041965
0000f0 f0 f8 49 bb ac b6 97 3b 1d 17 76 39 05 2a 52 ba
       -0.0030818544 0.0046299305 0.00023468999 -0.00080171257
000100 11 66 50 bb 77 20 56 3a 7a 9e 27 bb d7 ea 91 3a
       -0.0031799118 0.000816829 -0.0025576637 0.001113261
000110 1a a8 42 bb 85 27 94 3b b0 2e 09 3a da a2 62 ba
       -0.0029702247 0.0045213127 0.0005233092 -0.00086454826
000120 52 13 59 bb c8 5d ab 3a b7 ba 2c bb 7a 61 c0 3a
       -0.0033123088 0.0013074214 -0.0026356408 0.0014677488
000130 66 94 3c bb ae 86 8f 3b 95 6c 41 3a 6d e7 77 ba
       -0.0028774976 0.0043800687 0.00073785457 -0.00094567874
000140 ca 17 60 bb 23 19 e1 3a 12 5d 30 bb 39 c4 f4 3a
       -0.0034193867 0.0017173629 -0.0026910943 0.0018674202
000150 c0 14 36 bb 42 2d 88 3b 21 be 69 3a 3b d3 82 ba
       -0.0027783364 0.004155786 0.0008916576 -0.0009981164
000160 ca 0a 68 bb f0 6a 05 3b 43 63 30 bb 65 0c 0e 3b
       -0.0035406821 0.002035793 -0.0026914633 0.0021674868
000170 f6 76 30 bb 56 ea 82 3b fe 09 7d 3a 3a 61 86 ba
       -0.0026926375 0.00399522 0.0009652673 -0.0010252364
000180 1f 2e 6c bb cf ef 18 3b 67 d5 2c bb c9 28 24 3b
       -0.0036038233 0.0023336296 -0.0026372315 0.0025048724
000190 9a 7e 27 bb 98 7c 78 3b d4 53 86 3a d7 b9 8b ba
       -0.0025557638 0.003791606 0.0010248371 -0.0010660243
0001a0 c2 b2 72 bb 6b d4 28 3b 3b 75 2a bb 2a c8 33 3b
       -0.0037032817 0.0025761377 -0.0026009816 0.002743254
0001b0 55 f5 1f bb 38 55 69 3b bc 6f 90 3a a1 5d 8e ba
       -0.0024407704 0.0035603773 0.0011019628 -0.0010861644
0001c0 29 dc 77 bb eb ef 36 3b 9f e2 26 bb d2 41 3f 3b
       -0.0037820435 0.0027913998 -0.0025464667 0.002918352
0001d0 a2 e5 16 bb 28 fc 5a 3b 7a 18 95 3a e9 ec 90 ba
       -0.0023025055 0.0033414457 0.0011375092 -0.0011056933
0001e0 56 4d 7e bb af 6d 41 3b 05 61 24 bb 0b 75 46 3b
       -0.003880342 0.002951484 -0.0025082242 0.0030282165
0001f0 b5 fe 0e bb f3 c1 4e 3b a4 da 99 3a e5 a8 93 ba
       -0.0021819298 0.0031548708 0.0011738134 -0.0011265544
000200 68 23 81 bb 0d 1d 49 3b 5e c5 1e bb ba 54 4c 3b
       -0.0039409883 0.0030687482 -0.0024226527 0.003117843
000210 40 89 07 bb 92 7e 41 3b c5 9d 9d 3a e6 88 96 ba
       -0.0020681173 0.0029524905 0.0012025168 -0.0011484891
000220 51 0f 82 bb 2f 57 4e 3b ce d6 18 bb 35 2f 4f 3b
       -0.003969111 0.003148507 -0.0023321393 0.003161383
000230 62 1d 00 bb a1 f1 35 3b 5f 4f 9e 3a f5 48 99 ba
       -0.0019548764 0.002776243 0.0012078098 -0.0011694717
000240 4a e9 82 bb 88 ac 52 3b 04 7b 10 bb 71 b8 53 3b
       -0.0039950954 0.0032146294 -0.002204598 0.003230598
000250 17 56 f1 ba 90 38 2d 3b 25 de 9e 3a d7 dc 9c ba
       -0.0018412498 0.002643142 0.0012120648 -0.0011967671
000260 6e 52 83 bb 28 d3 55 3b 3c 84 08 bb 54 27 56 3b
       -0.004007629 0.003262708 -0.002083077 0.003267725
000270 55 eb e0 ba a0 d6 23 3b 31 b5 9f 3a ad 4a a0 ba
       -0.0017159978 0.0024999753 0.0012184737 -0.0012229286
000280 17 ac 83 bb be ae 58 3b 56 77 ff ba 8a 34 57 3b
       -0.0040183174 0.0033063139 -0.0019490521 0.0032837712
000290 cf d0 d1 ba d6 01 18 3b 47 95 9f 3a fe 31 a4 ba
       -0.0016007664 0.0023194454 0.0012175225 -0.0012527106
0002a0 0e b0 83 bb 3b 4b 5b 3b 37 e3 ea ba ba c1 57 3b
       -0.00401879 0.003346159 -0.0017920499 0.0032921867
0002b0 8f 37 c4 ba 2c 0b 0f 3b 19 f3 9f 3a 13 46 a6 ba
       -0.0014970171 0.0021826727 0.0012203186 -0.0012685679
0002c0 e4 04 84 bb 71 d2 5d 3b fb da d8 ba aa a0 56 3b
       -0.0040289033 0.0033847357 -0.0016544753 0.0032749572
0002d0 9e 48 b2 ba 6b d5 06 3b 73 38 9f 3a f3 e1 aa ba
       -0.0013601964 0.0020573984 0.001214756 -0.0013037309
0002e0 fb 29 84 bb 76 6f 5f 3b c6 63 c8 ba 04 38 54 3b
       -0.004033325 0.0034093536 -0.0015288524 0.003238202
0002f0 fb 7b a1 ba bf 68 f7 3a 5d 9f 9d 3a 8c b9 ad ba
       -0.0012320274 0.0018875821 0.0012025643 -0.001325415
000300 0e 52 84 bb c7 f7 5f 3b 17 c5 b5 ba 8c 43 4e 3b
       -0.004038102 0.0034174786 -0.0013867941 0.0031473367
000310 df f3 94 ba 93 23 e1 3a 4d b6 9b 3a 1b 4a b0 ba
       -0.0011364183 0.001717674 0.0011879891 -0.001344982
000320 72 aa 84 bb 93 ff 5f 3b d3 ed a0 ba aa 66 4a 3b
       -0.004048639 0.0034179434 -0.0012277908 0.0030883946
000330 f3 f7 87 ba 76 3d d8 3a c5 a4 98 3a 13 17 b6 ba
       -0.0010373577 0.0016497809 0.0011645785 -0.0013892375
000340 70 05 85 bb 57 8a 5f 3b b4 f3 8c ba aa 1f 4a 3b
       -0.004059486 0.0034109557 -0.0010753782 0.0030841627
000350 89 3e 73 ba 3d e9 c1 3a 9f e3 96 3a 7b 26 b9 ba
       -0.0009279033 0.0014794242 0.0011511928 -0.0014125848
000360 f0 ab 84 bb 5d 2e 5f 3b c3 aa 75 ba ea ab 46 3b
       -0.004048817 0.0034054734 -0.0009371454 0.003031487
000370 32 00 58 ba aa d6 b3 3a 8e e6 94 3a d8 89 bd ba
       -0.0008239775 0.0013720591 0.0011360215 -0.0014460636
000380 ca 21 84 bb 40 6f 5e 3b a1 7f 50 ba bb b1 43 3b
       -0.0040323483 0.0033940822 -0.00079535885 0.0029860574
000390 b1 0e 3f ba f2 91 a2 3a ff 19 94 3a 68 06 c2 ba
       -0.0007288261 0.0012403114 0.0011299251 -0.0014802935
0003a0 ac 53 84 bb f6 ce 5c 3b 14 59 2e ba 9b 51 40 3b
       -0.004038295 0.0033692694 -0.0006650847 0.0029345516
0003b0 91 09 27 ba 5a d9 8c 3a 3d 19 95 3a 82 7d c5 ba
       -0.000637197 0.0010745928 0.001137532 -0.0015067311
0003c0 b4 d5 83 bb 05 ee 5a 3b 8f ff 0e ba 9e 8d 3c 3b
       -0.004023278 0.003340603 -0.00054549513 0.0028770934
0003d0 de 23 0b ba 74 c4 76 3a 61 44 94 3a 3a 04 ca ba
       -0.0005307774 0.0009413429 0.0011311882 -0.0015412637
0003e0 76 0d 83 bb 67 9b 59 3b 6f a0 e0 b9 9d 41 39 3b
       -0.0039994074 0.00332042 -0.00042844142 0.0028267868
0003f0 4a 33 e8 b9 03 f7 55 3a eb 77 93 3a c7 3b cd ba
       -0.00044288702 0.0008162113 0.0011250948 -0.0015658074

attention_layer.key.weight f4 [16, 16]
000000 94 5b 1d be 5e 5e a1 bd ec 88 7f 3e 77 9f c8 3d
       -0.15366966 -0.07879327 0.24954575 0.097960405
000010 90 ea 8c bc b3 7b 98 bd 0d 9a bf bd d7 61 79 be
       -0.017201692 -0.07445469 -0.09355555 -0.24353729
000020 a4 79 37 3e b2 a8 89 bc 7b d7 33 be fd cc d9 3a
       0.17917496 -0.016804073 -0.17562668 0.0016616877
000030 b2 c7 7d be 1d 39 b3 bd 02 82 e3 bd 10 3f 74 be
       -0.24783209 -0.08751128 -0.111087814 -0.23852181
000040 2e 76 f9 bc 7b 3b 19 3e c8 4c 18 3e a6 3d 95 bc
       -0.03045186 0.14964096 0.1487304 -0.018217873
000050 5a 55 c2 3c 0b 3e 3d be 48 47 27 be 6e 36 2d ba
       0.02372234 -0.18480699 -0.16335785 -0.0006607537
000060 f6 ea 59 3e 04 fa ee 3d f3 19 0c 3d 29 ba 9d bb
       0.21281037 0.116687804 0.034204435 -0.004813452
000070 ac 10 59 be 2f 23 d8 bd b9 c8 4b 3e eb 2e 8e bd
       -0.21197766 -0.10553586 0.19900788 -0.06942543
000080 7a ea 72 bc f4 dc e5 3d 80 31 52 3e e8 fe 58 be
       -0.014826411 0.11223784 0.20526695 -0.21190989
000090 4c 7c e5 bd 80 df 29 be ce 45 10 3e b7 09 44 bd
       -0.11205348 -0.16589165 0.14089128 -0.047860827
0000a0 7e 63 e7 3a 94 43 50 bd b8 f4 35 3e 61 f7 e3 bd
       0.0017653552 -0.050845698 0.17769134 -0.11131168
0000b0 9d 0f 58 3e 2f 12 3d 3e 9d de 66 3d 73 03 42 be
       0.21099706 0.18463968 0.056364644 -0.18946628
0000c0 35 b1 c2 bb b4 ef 16 be 11 ce b6 3b 68 e0 45 3e
       -0.005941535 -0.14739877 0.0055787642 0.19323885
0000d0 22 19 1f 3d 8e 45 59 be f5 8f d8 bd 37 9f 08 3d
       0.038842328 -0.2121794 -0.105743326 0.033354964
0000e0 c5 92 3f 3e bd a8 26 3d 16 b4 ca bd ab c9 2e 3e
       0.18708332 0.040688265 -0.0989763 0.17069118
0000f0 d0 a7 84 bd 86 95 c9 3c 4f 90 04 bd 8d a0 06 bd
       -0.0647732 0.024607431 -0.032364186 -0.032867957
000100 84 0e 5d be 29 6f 0b bd 2b c2 4a be 7e c5 34 be
       -0.21587569 -0.034041557 -0.19800632 -0.17653462
000110 86 e9 83 3d 2f b1 01 3e b5 d1 0d be 53 f3 25 3d
       0.064410254 0.12665246 -0.13849528 0.040515255
000120 63 95 26 bd 7e a4 0b 3e b3 5e 47 3d 4b cb 68 3e
       -0.04066981 0.13636968 0.048674297 0.227338
000130 cb 49 6f 3e e7 be 41 be 92 95 3d 3e 54 f5 23 be
       0.23367994 -0.1892048 0.18514088 -0.16011554
000140 95 c0 14 be a1 b0 8e 3d 89 6e 3f 3e 36 24 3c 3e
       -0.14526589 0.06967283 0.1869451 0.18373188
000150 ef f0 88 bd 11 c3 6c 3e 8d e8 6b 3e 90 8e ae 3d
       -0.066865794 0.23121287 0.2303793 0.085232854
000160 f2 0c 6d bd 59 e8 12 be 3b 96 ba 3d c4 61 87 3d
       -0.057873674 -0.14346446 0.091106854 0.06610444
000170 f3 bd c2 3d 24 42 63 be b9 c5 a4 bb 6c 24 9e 3d
       0.09508886 -0.221932 -0.005028453 0.07721791
000180 88 2a a3 bd 4f 21 73 be 2f 78 71 3e 4d 92 c4 3b
       -0.079670966 -0.23743175 0.23581003 0.0059988857
000190 73 97 2d be f2 df b5 3d be c6 0f be ad 94 0a be
       -0.16952305 0.08880605 -0.14040658 -0.13533278
0001a0 c0 f6 e3 3c ed c6 98 3d a0 9f 1b 3e 0b ec d6 3d
       0.02782762 0.07459817 0.15197611 0.104942404
0001b0 ae a2 50 bd e2 e3 2b 3c 11 47 6c be 8f 0a 99 bd
       -0.050936393 0.010491343 -0.23073985 -0.07472717
0001c0 a8 c1 a0 bd b2 4b 88 bc 53 44 54 be 8d 0e 5f be
       -0.07849437 -0.016637657 -0.20729189 -0.21782894
0001d0 2b 45 c8 bd 1d 70 80 3e c6 9a a9 3c 5b 3b 22 3e
       -0.09778818 0.25085536 0.020703685 0.15842955
0001e0 ad 01 68 3e fa d8 08 3e 55 71 cb 3c d4 88 71 3e
       0.2265689 0.1336402 0.024834314 0.23587352
0001f0 14 b6 18 be ac e0 68 be 7c 50 4d 3e 01 3b 11 3e
       -0.14913207 -0.22741956 0.20050234 0.14182664
000200 6e 20 0a be 18 fb 4c bd 78 05 91 bd 6c 32 15 3d
       -0.13488933 -0.05004415 -0.07081121 0.03642504
000210 d0 34 16 3e 81 92 2d 3e 6c c3 0d bd cc f9 be 3d
       0.14668584 0.16950418 -0.034610197 0.09324989
000220 bc 2b 0c 3e 39 72 4b 3e 60 42 3b 3e 48 72 05 3e
       0.13688558 0.19867791 0.18287039 0.13031876
000230 0e 3e 5a be 82 92 44 3d 6f 58 1c 3e 63 14 f2 bd
       -0.21312734 0.047991283 0.1526811 -0.11820295
000240 a2 78 dd bc ee 69 7c 3e 8a c7 00 bd 0f 0a 11 be
       -0.027035061 0.24649784 -0.031440295 -0.14163993
000250 3e d9 b3 bc 54 51 48 be fb 19 5c 3e 8a de cb bd
       -0.021954175 -0.19562274 0.21494286 -0.09954555
000260 7d 3e a2 bc 2b 06 42 be 13 d6 5a 3d 16 b3 4e be
       -0.019805187 -0.18947665 0.053426813 -0.20185503
000270 7c ff 65 be 33 86 83 3c 83 d2 77 bd bd 37 1f be
       -0.22460741 0.016055202 -0.060503494 -0.15548606
000280 bf 4c 11 bd 31 de 22 3c 37 70 c2 3d 14 bd 68 3e
       -0.03547358 0.00994067 0.094940595 0.22728378
000290 17 0b d3 bd 04 29 43 be 8f 39 67 be 35 12 1a be
       -0.103048496 -0.19058615 -0.2258055 -0.15046008
0002a0 a5 00 11 be 67 16 9f 3c 0f 09 a5 bc 9f d2 54 be
       -0.14160402 0.019419862 -0.020145921 -0.2078347
0002b0 e2 33 48 3c 87 2e 7f bd a1 1d c8 bd 64 ba 47 be
       0.012219401 -0.06230023 -0.09771276 -0.19504696
0002c0 b5 25 f2 bd e4 3c 22 bc 3e 16 cc bd 1e aa e5 bd
       -0.11823598 -0.009902213 -0.0996518 -0.11214088
0002d0 98 b9 d2 3d 50 85 ea 3d 79 5d a3 3d d0 25 aa bd
       0.102893054 0.114512086 0.07976813 -0.083079934
0002e0 6a 56 1b 3d ee d3 31 be fc d5 a3 3d 51 ae 13 bd
       0.037924208 -0.17366001 0.07999799 -0.036054913
0002f0 6b 88 6c be b1 58 4a be 60 6e de 3d ec df 1a be
       -0.23098914 -0.19760396 0.10860896 -0.15124482
000300 1b 62 40 3e 91 7f 54 3e d6 4d 66 bb 88 6a bd bd
       0.18787424 0.20751788 -0.0035141609 -0.09248835
000310 8d 1a 3f be 0d 36 2e 3e 5e d6 16 3e 37 81 a2 bd
       -0.18662472 0.17012806 0.14730212 -0.07934802
000320 e6 b7 4c be 82 d6 64 be 95 4b 8d 3c 28 70 66 3d
       -0.19992027 -0.22347453 0.017247954 0.056259304
000330 b8 56 70 3e 3d 51 41 be aa 36 db bc 53 79 64 3d
       0.2347058 -0.18878646 -0.026759464 0.055779766
000340 b1 7a 6a 3e d1 d1 31 be 05 a6 01 be 69 d4 1a 3e
       0.22898366 -0.17365195 -0.12660988 0.1512009
000350 fb 21 6e 3e ac b0 64 be 77 d7 31 3e c7 71 76 be
       0.2325515 -0.2233302 0.1736735 -0.2406684
000360 cf bb e2 bd f5 7a 52 3e 91 3f 71 bc 66 2f 26 3e
       -0.11070978 0.20554717 -0.014724628 0.16229019
000370 11 fe 4f be 2d 92 32 be 17 63 5a 3e d6 0e 4f 3e
       -0.20311762 -0.17438574 0.21326862 0.20220503
000380 62 07 5d 3e 1a 17 0d be d5 4e 8f 3d a5 47 88 bb
       0.21584848 -0.13778344 0.06997458 -0.0041589313
000390 d7 cb 61 3e 17 02 66 3d c0 66 03 3e e1 8d 31 be
       0.22050415 0.056154337 0.12832165 -0.17339279
0003a0 e1 84 4d bd cf 84 28 be 38 2c 20 3e 1f ec 58 3e
       -0.05017555 -0.16456912 0.15641868 0.21183823
0003b0 c6 3a 02 3c 84 45 cb 3d 48 e1 6e 3e 0b fc 62 bd
       0.007948583 0.099253684 0.23328125 -0.05541615
0003c0 63 90 43 3e 4f 12 00 3e 35 cb c7 3d 41 2c 59 be
       0.19098048 0.12506984 0.097555555 -0.21208288
0003d0 b4 94 14 bd c9 e3 3c 3e 99 bd 19 bd 74 ee 70 3c
       -0.036274627 0.18446268 -0.03753433 0.014705289
0003e0 65 01 09 be b6 c8 3a be 80 b8 5a bd 69 e0 66 3e
       -0.13379438 -0.18240628 -0.05339861 0.22546543
0003f0 4c c8 f2 3d 15 ad 72 be 8d 45 a0 bb 03 d2 ff 3d
       0.1185461 -0.23698838 -0.0048911036 0.124912284
