models/ConvTran/Results/Dataset/UEA/Dataset/UEA/2024-11-26_10-38/checkpoints/Video_Rowing_0.pth (torch, 593842 bytes, 77 tensors)

embed_layer.0.weight f4 [64, 1, 1, 8]
00000000: 1785 09be 6e36 a43e 8117 a9be 3236 8dbe
00000010: 1ce3 c7bc 3399 1abe 570f 5b3e 9548 603e
00000020: 77c8 8c3e 7b1e 8bbd 71cb 80be e58e 3cbe
00000030: 4c26 86be 7b5d c9bc 8698 4fbe 4aa6 033e
00000040: 8768 b8bd aec9 b0be 885b 80be 755a b53d
00000050: 6463 92be b5ed 623e c307 66be 1083 a8bd
00000060: 37ed 62be 4849 d2bd 35f4 8cbd 2095 58be
00000070: 247b 4c3e 949f 0c3d 5852 ae3e f2d1 d8bd
00000080: 0128 04bd 84ee afbe 33de 6d3d 42b7 093e
00000090: 69ad 01bd f78e ae3d 295c dc3a 58ee 9a3c
000000a0: 30f9 c9bd f368 893e fd70 743d 6d47 a13e
000000b0: 8f86 5abe 4387 b5bd 9e24 6ebe 0778 543e
000000c0: 0864 3abd 40d1 d4bc df86 0c3b 1de3 8d3e
000000d0: 2669 8d3e ded5 1c3d 1608 65bc f854 143d
000000e0: efd2 e7bd 2e4e 8e3e 556b 24be 0066 f9bd
000000f0: 7db6 8fbe daaa 1d3d db03 78be 241f 99bc
00000100: ac9e 183e b98d 28be b08a 9ebe 2daa 2c3d
00000110: 9978 8b3e 9b43 04be 86da 6b3e ff4a 943e
00000120: 2c9b 713e b7e9 acbe c406 eebc a8f9 903d
00000130: fd95 4b3d 0450 ef3d c6f5 adbe 9176 a33e
00000140: fac0 d63c a2f5 ae3e 7733 c5bd 0cf8 133e
00000150: 387c 04be 6919 6f3e 2dc1 22be d5f7 01be
00000160: 80c8 cf3d e7b8 4c3d 6730 3ebe 91a9 993e
00000170: 3b08 0a3e 487a 843d 6b5d edbc b414 9b3e
00000180: 578d d63d 1b22 7abd 037c 61bc e277 46be
00000190: 3ce4 dbba 27ca 813d 9ff4 89be 2945 063e
000001a0: 9b17 53be 8d25 17bd bdd7 90be 3d49 a73e
000001b0: 0ebc 1b3e 7365 503e 6605 123e 06bd cb3d
000001c0: 5430 6cbe f02c 693e 53a9 97be edc2 17bd
000001d0: 036c b3bd 7c83 373e ff4d 983e b827 493e
000001e0: d003 8a3e de58 26be c6f5 933e 1b8b 51be
000001f0: 3932 96bd e713 5bbe 2a93 88be 53c4 8bbe
00000200: 0569 42be a108 9ebb e4ba a9be d243 99bd
00000210: 594b 2dbe 24c3 053e 1cdb b63d 3a41 a23e
00000220: 0395 85bd 2c03 5cbe 02a0 e9bd ce02 a93e
00000230: 26c9 663e 30ca f5bd b251 dd3d d8fa 903e
00000240: 7da7 87be 59f1 a7bd 00ca 80be 9a63 34bd
00000250: 88f8 abbe 41e7 79be 98ca 9cbc 7e20 8dbe
00000260: 935f 943e c1f4 323e f2c8 013e b50d 70be
00000270: 57b6 3f3d 8a50 033d 512f 8abe 19db dbbd
00000280: 95a8 02bc e07f 83be db37 813e 073a 97be
00000290: 27b5 17bc c35d febd 7191 a5bd 591f 40bd
000002a0: 4027 6fbe 3579 053e c5a2 afbd d811 1abe
000002b0: 8df1 053e 1556 863d 81fe dabb 351b 8ebe
000002c0: 2ad8 81be 0837 813e 88f9 b1be ba98 e4bd
000002d0: f59f 043e f6a6 ad3d bce9 63be 4e8f 323e
000002e0: 7767 53be 13a2 f93c 8c26 a4be 5f8f 9b3e
000002f0: 2471 813d c844 5b3e dbce 9fbe fc3a 7d3e
00000300: e55f f0bd a07e 37be 1488 22be 2ce7 5fbe
00000310: 443b 9c3e 9ebc a3be 39de 093d 0a81 ecbd
00000320: 5c20 55be a14f 403e 9055 6e3e d91b 8cbe
00000330: 0739 983b 33da 013d 73d7 693d eaf2 003e
00000340: ba32 92bd 8f10 4e3c ce3f 38be ee46 6c3e
00000350: 9943 073e 2bc0 1b3e 7be9 653e 8d38 a13e
00000360: 2cfe 993e a502 9a3e 2dcc b2be f9c0 89be
00000370: 22e1 11be 7b45 af3e e4c7 973e 36a5 b23e
00000380: 7bf2 983e 3917 b9bb 6ca8 9f3e f343 76be
00000390: c8ec 83be 1849 97be 2dff f63d d343 b7bd
000003a0: 351b 723e 0e34 1abe 5c12 af3e f50e 8d3e
000003b0: bd75 dc3d 7596 d73d c316 5c3d e94a 2a3e
000003c0: 2f49 813e 16d6 06be 0cf6 503d 03ce 4d3e
000003d0: 346c b03e 6ce1 6d3e 4a5f a23e f9e5 9dbe
000003e0: 17ec a3be ab12 edbc 6975 b23e 96ad fc3d
000003f0: 347e 843d 95b4 67be 899a 283e fd0d a53d
-0.13429676 0.32072777 -0.33025745 -0.2758041 -0.024400286 -0.15097503 0.2139257 0.21902688
0.27496693 -0.06792923 -0.25155213 -0.18413885 -0.26201093 -0.024580708 -0.20273027 0.12856403
-0.09004312 -0.3452887 -0.25069833 0.08855144 -0.28591454 0.2216099 -0.22463898 -0.08228123
-0.22160803 -0.102678835 -0.06882516 -0.21150637 0.1996885 0.034331873 0.34047198 -0.10586919
-0.032264713 -0.3436166 0.058073234 0.13448814 -0.031659517 0.08523362 0.0016812134 0.01891248
-0.09861982 0.26837882 0.059678067 0.31499806 -0.21340393 -0.0886369 -0.23256156 0.20748912
-0.045505553 -0.025978684 0.0021442694 0.27712336 0.27619284 0.038289897 -0.013978979 0.036213845
-0.11319529 0.2779402 -0.16056569 -0.12177658 -0.28068915 0.038493015 -0.2422022 -0.018691607
0.14904279 -0.16460313 -0.30965185 0.04215448 0.27240446 -0.12916414 0.23032579 0.28963467
0.2359435 -0.3377206 -0.02905596 0.07078868 0.049703587 0.11685184 -0.33976573 0.31926396
0.026215065 0.34171778 -0.09628957 0.14450091 -0.1293801 0.23349537 -0.15894003 -0.12692197
0.10145664 0.049981024 -0.18573152 0.3001218 0.13479702 0.06468636 -0.02897521 0.30289233
0.10476177 -0.06106768 -0.013762477 -0.19381669 -0.0016776393 0.063373856 -0.26944444 0.1311232
-0.20614474 -0.036901046 -0.28289595 0.32673064 0.15208456 0.203512 0.14259872 0.09948163
-0.2306531 0.22771049 -0.29621372 -0.03705113 -0.08760836 0.17921251 0.29747006 0.19644058
0.26956034 -0.16244838 0.28898448 -0.20463221 -0.07333798 -0.21394311 -0.26674777 -0.2729822
-0.18985374 -0.004822806 -0.331504 -0.07483639 -0.16923274 0.13062721 0.089285105 0.3169039
-0.06522562 -0.21485585 -0.11407472 0.33009952 0.2253767 -0.12001455 0.10806598 0.2831638
-0.2649497 -0.0820033 -0.25154114 -0.0440403 -0.33588052 -0.24404623 -0.019139573 -0.27563852
0.28979167 0.17476179 0.12674311 -0.23442729 0.046804752 0.03205923 -0.26989225 -0.10735149
-0.007974763 -0.25683498 0.25237927 -0.2953646 -0.009259499 -0.124202274 -0.08084381 -0.046904895
-0.23354816 0.13034518 -0.08575968 -0.1504587 0.13080426 0.065593876 -0.0066831713 -0.27755132
-0.25360233 0.25237298 -0.3476069 -0.11161943 0.12951644 0.08479111 -0.22257131 0.17437479
-0.20644937 0.03047279 -0.3206066 0.3038282 0.06320408 0.21412957 -0.31212506 0.24729532
-0.117370404 -0.17919397 -0.15872222 -0.21865529 0.30513966 -0.3197984 0.033659194 -0.1154805
-0.20813125 0.18780376 0.23274827 -0.27364996 0.00464547 0.03170223 0.057090234 0.12592664
-0.071385816 0.01257719 -0.1799309 0.23073933 0.1320938 0.15210025 0.22452347 0.31488457
0.3007673 0.30080143 -0.349214 -0.2690504 -0.14246038 0.34232697 0.29644692 0.3489167
0.29872498 -0.0056485203 0.31183183 -0.24049358 -0.25766587 -0.29547954 0.1206039 -0.08948483
0.23643191 -0.1505892 0.34193695 0.27550474 0.10764644 0.10526744 0.053732645 0.16630138
0.25251147 -0.13167605 0.0510159 0.20098118 0.34457552 0.23230523 0.31713325 -0.30839518
-0.3201606 -0.028939566 0.34855202 0.123377964 0.06469384 -0.2262748 0.164652 0.08059309

embed_layer.0.bias f4 [64]
00000000: 3ad4 383e 204d 843e 95e7 bf3d 0090 8e3d
00000010: e369 b33e 4640 37be 1c8a ea3d 5b64 2c3d
00000020: a80f 9b3e e545 62be 6b90 c8bd 4cc9 43be
00000030: 0e41 76bd cbbc 90be c4da 97be 754b da3d
00000040: ccd1 aa3e b742 af3e 171c b23d 3119 cabd
00000050: e070 6e3e 70bc 1b3e 68d8 033c b404 98be
00000060: 13cf 2ebe 86f7 e63d 73e3 fdbd 4ec3 833e
00000070: 8f17 473e 9920 113d 5557 51bd 9ab3 433d
00000080: b986 bf3d 5083 fbbc 753a a83d a68b a73e
00000090: 78de 083e cab6 9dbe ac04 143d e8b2 93be
000000a0: 094b 80be 7bcd 99bd b5e6 523d e5e3 093d
000000b0: ab71 26be 426e 783e 2994 5ebd 84e2 343e
000000c0: 58cf 8cbe 8d8c 25be cf21 e93c ec24 b03e
000000d0: d6bd 6a3e fbb5 64be 6535 d53d 031c 903e
000000e0: 0385 8c3e 6971 89be a880 813e dea6 e03b
000000f0: a6c4 ab3e a05d 033e 2d38 163e 1623 96bd
0.18049708 0.25840092 0.09370343 0.069610596 0.35041723 -0.17895612 0.114521235 0.042087894
0.30285382 -0.22096975 -0.097931705 -0.19119757 -0.060120635 -0.28269038 -0.29659092 0.106589235
0.33363187 0.34230587 0.08696764 -0.09868086 0.23285246 0.15208602 0.008047201 -0.29691088
-0.1707118 0.1127768 -0.12396898 0.25734943 0.1944258 0.03543148 -0.051108677 0.047778703
0.09351868 -0.030702263 0.08214275 0.3272373 0.13366115 -0.3080352 0.036137268 -0.28847432
-0.25057247 -0.075098954 0.05148955 0.033664603 -0.16254298 0.2426081 -0.054340515 0.17664534
-0.2750194 -0.16166897 0.028458504 0.3440317 0.22923979 -0.22335045 0.10410575 0.2814637
0.2744523 -0.26844338 0.2529347 0.0068558296 0.33548468 0.12828684 0.14669867 -0.07330911

embed_layer.1.weight f4 [64]
00000000: 6b02 803f 5dd9 7f3f 13dd 7e3f 498d 803f
00000010: 96a8 7f3f 77dc 7f3f ab8f 7f3f 525d 7f3f
00000020: 8406 803f fe9d 7f3f 5c72 7f3f 0510 803f
00000030: ce97 7f3f d301 803f d11a 803f f74d 7f3f
00000040: 7a73 7f3f 9bae 7f3f c30c 803f 5c9c 7f3f
00000050: 5b09 7f3f 9b7d 7f3f 793a 803f 1918 7f3f
00000060: 7377 803f 1ab7 7f3f ab4c 803f a1be 7f3f
00000070: 4ca8 7f3f e201 803f 7ff3 7f3f 5140 803f
00000080: 8010 803f 2630 803f 970a 803f 1c66 803f
00000090: fd71 7f3f d322 7f3f ac26 803f 6df6 7f3f
000000a0: 67b7 7f3f 0522 803f bb2e 803f 747d 803f
000000b0: 2c4a 7f3f b613 803f f1e5 7f3f 65b9 7f3f
000000c0: d0d3 7f3f 3fba 7f3f d626 803f 9a72 803f
000000d0: be05 7f3f c68b 7f3f 3955 803f 43e4 7f3f
000000e0: 51b7 803f 202d 7f3f 90d3 7f3f 2528 803f
000000f0: fbe9 7f3f 4055 813f a80f 803f 33d6 7f3f
1.0000738 0.99941045 0.9955608 1.0043117 0.99866617 0.9994578 0.99828595 0.9975177
1.0001988 0.9985045 0.99783874 1.0004889 0.9984101 1.0000557 1.0008184 0.9972834
0.9978558 0.998758 1.0003895 0.9984796 0.9962365 0.99801034 1.0017844 0.99646145
1.0036453 0.99888766 1.0023397 0.9990025 0.99866176 1.0000575 0.9998092 1.0019628
1.0005035 1.0014694 1.0003232 1.0031161 0.9978331 0.9966251 1.0011802 0.9998539
0.99889225 1.0010382 1.0014261 1.0038285 0.9972255 1.0006015 0.9996024 0.99892265
0.99932575 0.99893564 1.0011852 1.0034974 0.99618137 0.9982265 1.0026008 0.99957675
1.0055944 0.9967823 0.99932194 1.0012251 0.999664 1.0104141 1.0004778 0.9993622

embed_layer.1.bias f4 [64]
00000000: 7e2a 5e3a 7ce3 79bb 6936 60bb db53 983b
00000010: 427f e53a 3a8f 35ba 3491 63bb 76c6 ecba
00000020: b0c6 363b 7e0f 163b a8a9 113b e23e ec3b
00000030: 993c 393b 2048 dcba 2997 593b b7c9 68bb
00000040: b026 48bb cb81 a139 a19e 923a bb91 b539
00000050: 31ac 80bb 4287 513b 8dd3 3d3b e840 26bb
00000060: b83e 733b 6b30 15ba beaa 713b f880 2ebb
00000070: ffce f93a df44 ca3a e234 c23a a7b3 9c3a
00000080: 87a7 603b 6bfc 1c3b 2644 6abb 9c74 0d3b
00000090: 1d8e 573b 96b2 163a 9cdc e53b 1012 14ba
000000a0: 4b82 0b3b bad2 403a e654 b239 8495 7b3b
000000b0: 3a8c 5f38 59dc 843b 9c4d 50bb c483 d2ba
000000c0: 6d1c f33b 6580 47ba dfad 593b 396b c23b
000000d0: f7fc f6ba c1e9 0bba c597 0d3b a309 b93b
000000e0: 4685 b13b 1f05 443a ae3a b3ba 62d9 763b
000000f0: 01a0 d53b 4832 033c ebcd 40ba d1b9 82ba
0.000847496 -0.0038129976 -0.0034212118 0.004648668 0.0017509239 -0.00069259445 -0.0034724 -0.0018064517
0.0027889423 0.0022897418 0.0022226367 0.0072096447 0.0028264879 -0.0016806163 0.003320167 -0.0035520622
-0.0030540638 0.00030805016 0.0011186191 0.00034631588 -0.003926777 0.003197149 0.0028965205 -0.0025368277
0.003711624 -0.0005691114 0.0036875452 -0.0026627164 0.0019058882 0.0015431902 0.0014816786 0.0011955396
0.0034279542 0.0023954164 -0.0035746186 0.0021584397 0.0032891103 0.0005748657 0.007014824 -0.00056484435
0.0021287377 0.00073556195 0.0003401406 0.0038388679 5.329794e-05 0.004054588 -0.003178454 -0.0016060998
0.00741916 -0.000761038 0.0033215208 0.005933192 -0.00188437 -0.0005337261 0.0021605354 0.0056469007
0.0054174988 0.000747757 -0.0013674104 0.0037666191 0.006519318 0.008007593 -0.0007354903 -0.000997359

embed_layer.1.running_mean f4 [64]
00000000: 798e 13c2 7fa3 02c3 6cb0 53c3 3b6c eec1
00000010: e72d b8c1 a8ee 3c42 dbb7 f042 0250 08c3
00000020: 58fc a342 678c 8d41 7984 5142 38a6 2143
00000030: 1037 58c2 bd4c ae42 3785 5042 d595 0ac3
00000040: 1cd0 4fc2 a0ba c042 fc02 a6c3 e72d 5141
00000050: 401c f9c2 31ab b7c2 ef17 83c2 b0a4 8e40
00000060: ecae 28c3 53e0 0a42 fe2d 3143 17e7 3143
00000070: 1fda 09c2 a7d0 7943 c434 5343 2c8e 3742
00000080: 4a18 1443 c338 b442 2afd 7d43 8ab6 f342
00000090: c83a edc1 7efe ae41 6929 4d43 698e 7543
000000a0: 004d b5c1 3e7c 95c2 1a2e 04c3 04ba bec2
000000b0: 342f fb41 22f0 9441 5f50 bf42 fe93 dcc2
000000c0: c679 e242 83e1 2541 fdbc 3d43 4c5a c942
000000d0: 5877 af42 56f9 12c3 7e40 09c3 d5c4 3343
000000e0: 29e2 0ac3 4bac 0443 9fb4 6542 d191 4842
000000f0: 2be2 cbc1 d353 25c3 a950 84c3 246e c941
-36.889133 -130.63866 -211.68915 -29.802847 -23.022413 47.233063 120.35909 -136.31253
81.99286 17.693556 52.379368 161.64929 -54.053772 87.14988 52.130093 -138.58528
-51.95323 96.3645 -332.02332 13.073707 -124.555176 -91.83436 -65.546745 4.4576035
-168.68329 34.719067 177.17966 177.9027 -34.46301 249.81505 211.20612 45.88884
148.09488 90.11086 253.98892 121.85652 -29.653702 21.874264 205.16176 245.55629
-22.662598 -74.74266 -132.18008 -95.36331 31.398048 18.617252 95.656975 -110.28905
113.23784 10.367557 189.73824 100.67636 87.73309 -146.97397 -137.25192 179.76888
-138.88344 132.67302 57.426388 50.1424 -25.485434 -165.32744 -264.63016 25.17878

embed_layer.1.running_var f4 [64]
00000000: a112 7143 01ea 5f44 fe20 0f45 2f18 9143
00000010: 3533 ed42 3ebe 4743 869f 3044 85a2 7344
00000020: a900 2744 259b b242 7f47 7c43 8f24 a744
00000030: 2093 1c43 cdeb 3244 1dfd 0a44 8a23 bd44
00000040: 5722 0244 b7c3 2e44 b37a aa45 1b6e be43
00000050: 3572 3f44 05af eb43 9e49 8d43 d4e2 2643
00000060: cbdf b144 2af4 0443 f5a5 f344 287f 0e45
00000070: 48e2 c343 2916 3a45 dfd1 0a45 14fb 4f43
00000080: 6d2e 9144 17f5 d843 d5e4 3e45 4a9b 5c44
00000090: 14b3 b743 2ea7 cc42 f42e 2445 b194 3a45
000000a0: 0f1e 5c43 25a9 c543 e3a3 5444 f72c 0444
000000b0: 94d1 ba43 570a 3643 926e f043 a30d 5144
000000c0: 6d26 2044 457c 6b42 e102 0945 68d5 2244
000000d0: 7336 1a44 1e0d 8844 5c42 8844 5885 ca44
000000e0: 2c5d 9144 3f65 b244 b3b1 2244 ca1e 8743
000000f0: a11c c542 392b a644 9d56 5e45 6f33 f342
241.07277 895.6563 2290.062 290.18893 118.60001 199.74313 706.49255 974.53937
668.0103 89.30302 252.27928 1337.1425 156.5747 715.6844 555.9549 1513.1106
520.53656 699.05804 5455.3374 380.8602 765.7845 471.36734 282.57513 166.88605
1422.9935 132.95377 1949.1862 2279.9473 391.76782 2977.385 2221.117 207.98077
1161.4508 433.91476 3054.302 882.4264 367.39905 102.32652 2626.9346 2985.2932
220.11742 395.32144 850.5607 528.7026 373.63733 182.04039 480.86383 836.2131
640.6004 58.871357 2192.18 651.3345 616.85077 1088.4099 1090.0737 1620.167
1162.9116 1427.164 650.77655 270.24054 98.555916 1329.3507 3557.4133 121.60046

embed_layer2.0.weight f4 [16, 64, 16, 1]
00000000: c52d a8bc c400 c43c 663a 75bc c0e9 f73c
00000010: 9ec7 8cbc 9ce5 343c 62f1 9abb 68ae ea3c
00000020: 3b02 633c ee62 a3bc 5e0d 873c e6a5 3bbc
00000030: e745 063d 2acf b4bc 77a9 eebc c4a8 ecbc
00000040: 584d 55bb f91b 3dbc 1b65 f9bc 7235 dc3b
00000050: bc6a 98bc b137 06bd 7e29 a13a f8b2 7d3c
00000060: fc80 f63c 9e14 9e3b 7a46 02bd 747e fe3b
00000070: 74fb 29bc ac9a 9bba 9bcf 91bb f553 debb
00000080: 58cb 9e3a 07ec 7c3a 562b a83c ed6b c53c
00000090: d7d9 5bbc 0be1 c6bc 4bf9 d1bc 55f4 943c
000000a0: 1b2a ec3c f8cf 2fbc cb95 023b 3d9e adbc
000000b0: a058 80bc 6a0f 75bc 07b5 ffbb f797 713b
000000c0: 0adb e038 e420 01bd 61d2 3dbc 09c3 edbc
000000d0: 510b 70bc 4c93 9dba f713 1b3c f9d1 7abc
000000e0: 8cc7 b23b ccf4 6e3c 780c 4dbc b8ef 863b
000000f0: d64a 8ebc 3765 613c 1c59 e5bc c130 d0bc
00000100: 0ef2 a93c deaa 893b f0cf 1a3c 948e 6d3c
00000110: aafa daba b259 cebb 299e 963c e7a5 c63c
00000120: 82ca 8c3c f21f aebc cd1a 183b 74f3 583b
00000130: 7b3b e13b 7fd7 4c3b 7586 48ba e345 783c
00000140: 5f6b 68bb 0638 b83c 05ce 4a3c 0977 8f39
00000150: 5184 d13c 6074 053c db86 953c 938b 9fbc
00000160: 6e71 86bc 2173 eebc 6747 aabb 64c4 0bbd
00000170: dec7 bf3c 0ad1 c1bc b762 94bc 951f e53b
00000180: f60e e33c a856 993c a191 b43b f0a6 d5bc
00000190: 2ec5 50bc c4be dd3b 8790 683c 9051 073c
000001a0: fcc8 f6bc f2d8 603c ab23 d23c 279a 11bc
000001b0: 4100 af3c 702e 233c f0be 97bc 35c5 83bb
000001c0: b12f d43c 91bd 9e3c 23e9 e73c 4506 b73b
000001d0: 765a 99bc 6ccf 1ebc 278d a6bc fcbd 773c
000001e0: 3a04 0c3d 6e9f 51ba 1659 9b3b 7118 76bc
000001f0: b565 a13c d001 e4bc 4e52 9c3c 9b2d 1038
00000200: b4f0 debb 7b81 693c 8ab3 c73c 034f 2fbb
00000210: 04b9 79b8 e241 8eb9 14a9 f13c 8e09 febc
00000220: 148b 6fbb 2425 cbbc 370b 783c cce7 99bc
00000230: e75e 0d3c 50fb 3cb9 f139 f83b 02fa 4bbc
00000240: 72e2 c83c 6971 803c 9986 b83b 7b6b 2fbc
00000250: b8a0 a33b cef6 053c 5d7b 3d3a b8da 0fbc
00000260: 2600 90bb 3fa7 8abc c583 ecbb 4557 76bc
00000270: 0bef 2dbc ce24 59bc 9f7a 02bb c791 31bc
00000280: 0a0e a5bc 6c72 47bb 5137 f43c e321 dc3b
00000290: eef1 4bbb 32d9 d7bc 9efe cd3c 1aa1 d6bc
000002a0: 5274 afbb b168 3c3c ced9 df3c ef38 2d3c
000002b0: 7c77 04bd 68e7 823c 58ea ec3c 720e cabc
000002c0: 12f0 d63c 1b71 18bc 0ca3 88bc 16cd a0bc
000002d0: 59d9 603c 52af 28bc d735 cabc 90cb d43c
000002e0: a977 02bc 4cf5 443c 8e85 d53c a62e 91bb
000002f0: 1eef 723b 7784 e8bc aa87 7b3c b082 523c
00000300: a7bf c53c 6899 213c 86b3 cdbb 6968 c13c
00000310: caef 29bc b9ba 0e3c 70d8 663c bd37 d13c
00000320: f5b1 4e3c e412 f03c 8f1d 8f3c 4052 9ebc
00000330: 0a93 60bc fe20 e83b 7568 bc3c 9b99 a4bc
00000340: f3ce 723c b887 fbbc 7139 0c3c adba b6bc
00000350: 4713 f23b 0228 97bc fb69 c7ba a183 33bc
00000360: d624 31bc 36fd 0a3b c6c6 d9bc de25 3a3b
00000370: abd6 003b 0896 693c f883 b7bc 9fb3 a6bc
00000380: 04a7 97bc 8599 fe38 6f9c aebb 43ab c93c
00000390: 1ee7 02bd d88a f53c f405 d5bc 1dc8 2f3c
000003a0: 57b7 983c c0b9 93bc 8085 ffbc 7ffb 4a3b
000003b0: b76b 813c 9a78 2b3c 0439 0b3c 6862 233b
000003c0: 8275 fbbb eaaf f6bc 71e4 f53c ae75 97bc
000003d0: 5f23 f4bc 0f85 c43c e5ef 8dbb 8c9c 99bc
000003e0: 9809 24bc 824f 88bc abd2 4f3b 003c 3ebc
000003f0: 21f2 6dbc c498 0c3c 22da 503c 7d6e 81ba
-0.020529637 0.023926146 -0.014967537 0.030262828 -0.017185029 0.011041071 -0.004728482 0.028647617
0.013855512 -0.019944634 0.016485866 -0.0114531275 0.032781508 -0.02207144 -0.029133542 -0.028889067
-0.0032547321 -0.011542314 -0.030443719 0.0067202384 -0.018605582 -0.032767955 0.0012295691 0.015484564
0.030090801 0.004824235 -0.031805493 0.007766539 -0.0103748925 -0.0011871657 -0.0044497973 -0.006784911
0.0012115045 0.0009648208 0.020528477 0.024099315 -0.013418636 -0.02427723 -0.025631567 0.018182913
0.028828671 -0.010730736 0.001992571 -0.021193618 -0.01566726 -0.014957288 -0.0078035626 0.003686426
0.000107219515 -0.031525508 -0.011585803 -0.029023664 -0.014651136 -0.0012022047 0.009465209 -0.01530885
0.0054559167 0.014584731 -0.01251518 0.004117932 -0.017369669 0.013757042 -0.027996592 -0.025413873
0.020745303 0.004201277 0.00944899 0.014499325 -0.0016706784 -0.0062973136 0.018385964 0.02424903
0.017186407 -0.021255467 0.0023209334 0.0033104094 0.0068735457 0.0031256375 -0.000764943 0.015153381
-0.0035464389 0.022487652 0.01237822 0.00027363774 0.025575789 0.008145422 0.01825278 -0.019475734
-0.01641151 -0.029107632 -0.0051965 -0.03412284 0.023410734 -0.023659248 -0.018113477 0.0069922903
0.027717095 0.018718079 0.0055105244 -0.026080579 -0.012742324 0.006767126 0.014194614 0.008259192
-0.030125134 0.013723599 0.025651773 -0.00888685 0.021362426 0.009959802 -0.018523663 -0.0040213116
0.025901647 0.019377502 0.02830941 0.005585464 -0.018719893 -0.009693008 -0.020330979 0.015120979
0.03418372 -0.0007996474 0.0047408445 -0.015020476 0.019701818 -0.027832896 0.019082215 3.437475e-05
-0.0068035964 0.014252062 0.024377603 -0.0026749976 -5.9538535e-05 -0.00027133437 0.029499568 -0.031010415
-0.0036551403 -0.024797983 0.015139393 -0.018787287 0.0086285835 -0.00018022698 0.0075752665 -0.012449743
0.02452204 0.015679078 0.0056312797 -0.010706778 0.0049935244 0.008176519 0.00072281604 -0.008780174
-0.004394549 -0.016925452 -0.0072178566 -0.015035455 -0.010616074 -0.013253404 -0.0019909514 -0.010837979
-0.020148296 -0.003043319 0.029811533 0.006717907 -0.0031119543 -0.026348684 0.025145825 -0.026199866
-0.0053544426 0.01149957 0.027325537 0.010572656 -0.03234051 0.015979484 0.028920338 -0.024665091
0.026237521 -0.00930431 -0.01667931 -0.019629043 0.013723695 -0.010295706 -0.024683876 0.025975972
-0.0079630995 0.012021374 0.02606466 -0.0044306098 0.0037068794 -0.028383477 0.015352169 0.012848541
0.024139239 0.009863235 -0.0062775044 0.023609357 -0.010372112 0.00871151 0.014089689 0.025539273
0.01261567 0.029305883 0.01747015 -0.01932633 -0.013706932 0.007084011 0.022999028 -0.020092776
0.014819848 -0.030704364 0.008558617 -0.02230581 0.007387552 -0.018451694 -0.001521408 -0.010956676
-0.010812005 0.0021208054 -0.02658404 0.0028403918 0.0019659202 0.014256962 -0.022401795 -0.020349322
-0.018512256 0.00012140259 -0.005328707 0.024617797 -0.03195869 0.029973432 -0.026003815 0.010728863
0.01864211 -0.018032908 -0.031191587 0.0030972657 0.015798433 0.010465765 0.00849748 0.002493048
-0.00767392 -0.03011318 0.030016156 -0.018488731 -0.029802023 0.023989229 -0.004331576 -0.018751405
-0.010012053 -0.016639475 0.0031711261 -0.011610985 -0.01452306 0.008581344 0.012747319 -0.0009874847

embed_layer2.0.bias f4 [16]
00000000: da71 8a3c d7e9 c9bb 7230 793c 1d32 bb3b
00000010: b6f9 b1bc ba9c 633c ed26 d13c 1e00 da3c
00000020: 0746 d2bc 2537 8f3c 5b91 afbb 610b 4bbc
00000030: b4df 543c cd2b ee3c e358 ca3c 71d3 903c
0.016899992 -0.006161909 0.015209304 0.005712761 -0.021725517 0.013892347 0.025531257 0.026611384
-0.025668157 0.01748235 -0.005357904 -0.01239285 0.012992788 0.02907362 0.024700588 0.017678948

embed_layer2.1.weight f4 [16]
00000000: 6f18 803f b787 803f 06bf 803f a43b 813f
00000010: 3d77 7f3f 7505 803f ba31 803f 0425 813f
00000020: 914c 7f3f 094d 803f adb6 803f 7b6a 7e3f
00000030: 1ed9 803f 38f4 803f c5df 7f3f 522e 7f3f
1.0007457 1.0041417 1.0058296 1.0096326 0.9979132 1.0001665 1.0015175 1.0089421
0.99726206 1.0023509 1.0055748 0.99381226 1.0066259 1.007453 0.9995082 0.99680054

embed_layer2.1.bias f4 [16]
00000000: 9a72 ce3a 6acd a93b e65c 053a 0c86 003c
00000010: 363f 61bb 1987 3db8 44d0 dfb8 7d57 253b
00000020: 5847 563a 3a74 ed3a 295a fb3a ce2b ffbb
00000030: c94b e43a 6e38 d73b c3c6 ddb8 bc28 8cbb
0.0015750707 0.005181958 0.00050873903 0.007844459 -0.0034369952 -4.518693e-05 -0.00010672261 0.002522915
0.0008174083 0.0018116303 0.001917665 -0.0077872043 0.0017417605 0.0065680062 -0.000105751235 -0.004277317

embed_layer2.1.running_mean f4 [16]
00000000: 747c ad3d e3b6 adbe f49c 27be b519 933c
00000010: 1cc3 013e 8daf de3e 738d 9bbd 1ffd 82be
00000020: 273b 503e 9650 b1be a710 6bbc 3a7f cc3d
00000030: e0ec a0be 713d 693e be58 f4bd 55f6 85be
0.08471003 -0.33928594 -0.16368467 0.017956594 0.12672085 0.4349331 -0.07595339 -0.2558374
0.20335065 -0.34631795 -0.014347232 0.09985204 -0.3143072 0.22777344 -0.11930989 -0.261645

embed_layer2.1.running_var f4 [16]
00000000: a598 bb3d e766 153e e9a3 fb3c 1003 4a3d
00000010: 73af bd3d a1a1 4e3d dd2e 5e3d 1fa2 873c
00000020: 75b1 713e 4c10 143e 522a 673d 4716 663e
00000030: a57f ad3d bb25 183e 0fe0 c93d a346 f03d
0.09159974 0.14590035 0.030717807 0.049319327 0.0926198 0.05044711 0.05424391 0.016556798
0.2360285 0.14459342 0.056436844 0.22469436 0.08471612 0.14858143 0.09857189 0.11732223

Fix_Position.pe f4 [1, 161, 16]
00000000: 0000 0000 0000 803f 0000 0000 0000 803f
00000010: 0000 0000 0000 803f 0000 0000 0000 803f
00000020: 0000 0000 0000 803f 0000 0000 0000 803f
00000030: 0000 0000 0000 803f 0000 0000 0000 803f
00000040: 6f31 cb3d a5bc 7e3f 81b3 003d a4df 7f3f
00000050: d6d1 223c c4fc 7f3f 99f4 4d3b adff 7f3f
00000060: 0442 823a f8ff 7f3f bdc3 a439 ffff 7f3f
00000070: a169 d038 0000 803f cecf 0338 0000 803f
00000080: c830 4a3e c5f5 7a3f 3da3 803d 987e 7f3f
00000090: c7cf a23c 0ef3 7f3f 56f4 cd3b b5fe 7f3f
000000a0: ff41 023b dfff 7f3f bcc3 243a fdff 7f3f
000000b0: a169 5039 0000 803f cecf 8338 0000 803f
000000c0: 0865 963e e9b4 743f 33cc c03d f5dc 7e3f
000000d0: 8632 f43c e0e2 7f3f ed76 1a3c 16fd 7f3f
000000e0: f462 433b b6ff 7f3f 9925 773a f9ff 7f3f
000000f0: 394f 9c39 ffff 7f3f b6b7 c538 0000 803f
00000100: bf35 c63e df09 6c3f 3662 003e e3fa 7d3f
00000110: 8cc7 223d 3acc 7f3f 4cf3 4d3c d2fa 7f3f
00000120: ef41 823b 7cff 7f3f bac3 a43a f3ff 7f3f
00000130: a169 d039 ffff 7f3f cecf 0339 0000 803f
00000140: bd11 f43e 8d0a 613f de3d 203e 9cd8 7c3f
00000150: b771 4b3d 1caf 7f3f 92b7 803c e9f7 7f3f
00000160: 5ad2 a23b 31ff 7f3f a6f4 cd3a ebff 7f3f
00000170: 0542 023a feff 7f3f c1c3 2439 0000 803f
00000180: 94c2 0f3f b9d2 533f 02f1 3f3e 6976 7b3f
00000190: be16 743d 888b 7f3f 2b75 9a3c 5af4 7f3f
000001a0: bb62 c33b d6fe 7f3f 9125 f73a e2ff 7f3f
000001b0: 384f 1c3a fdff 7f3f b6b7 4539 0000 803f
000001c0: 1f11 243f c983 443f a273 5f3e a3d4 793f
000001d0: cc5a 8e3d 7d61 7f3f 6132 b43c 25f0 7f3f
000001e0: 11f3 e33b 6afe 7f3f 3d2b 103b d7ff 7f3f
000001f0: 6b5c 363a fcff 7f3f a9ab 6639 0000 803f
00000200: 31c1 363f 6944 333f c3bd 7e3e b5f3 773f
00000210: a0a6 a23d fe30 7f3f 21ef cd3c 4aeb 7f3f
00000220: ab41 023c eefd 7f3f b2c3 243b cbff 7f3f
00000230: a069 503a fbff 7f3f cecf 8339 0000 803f
00000240: 96a3 473f 2a40 203f bee3 8e3e 17d4 753f
00000250: 58ee b63d 0afa 7e3f 5dab e73c cae5 7f3f
00000260: c589 123c 61fd 7f3f 245c 393b bdff 7f3f
00000270: d376 6a3a f9ff 7f3f c849 9439 ffff 7f3f
00000280: a68d 563f 17a7 0b3f 7d44 9e3e 5376 733f
00000290: 6e31 cb3d a5bc 7e3f 80b3 003d a4df 7f3f
000002a0: d6d1 223c c4fc 7f3f 96f4 4d3b adff 7f3f
000002b0: 0442 823a f8ff 7f3f c1c3 a439 ffff 7f3f
000002c0: b459 633f 725a eb3e 377d ad3e 04db 703f
000002d0: 636f df3d cf78 7e3f 0191 0d3d d8d8 7f3f
000002e0: dd19 333c 16fc 7f3f 058d 623b 9cff 7f3f
000002f0: 9c48 8f3a f6ff 7f3f bb3d b539 ffff 7f3f
00000300: 6be7 6d3f 2b14 bd3e 148a bc3e d002 6e3f
00000310: b1a7 f33d 892e 7e3f 246e 1a3d 67d1 7f3f
00000320: d761 433c 57fb 7f3f 7525 773b 89ff 7f3f
00000330: 374f 9c3a f4ff 7f3f b6b7 c539 ffff 7f3f
00000340: 241c 763f 3cf0 8c3e 4a67 cb3e 6fee 6a3f
00000350: ebec 033e d7dd 7d3f e44a 273d 51c9 7f3f
00000360: c6a9 533c 88fa 7f3f f1de 853b 74ff 7f3f
00000370: d055 a93a f2ff 7f3f af31 d639 ffff 7f3f
00000380: 22e3 7b3f 7ed0 363e 1311 da3e ab9e 673f
00000390: a702 0e3e b986 7d3f 3827 343d 94c0 7f3f
000003a0: a7f1 633c a8f9 7f3f 272b 903b 5eff 7f3f
000003b0: 685c b63a f0ff 7f3f a9ab e639 feff 7f3f
000003c0: ce2d 7f3f 60e5 a33d b983 e83e 5814 643f
000003d0: cc14 183e 3329 7d3f 1603 413d 33b7 7f3f
000003e0: 7839 743c b8f8 7f3f 5c77 9a3b 46ff 7f3f
000003f0: 0263 c33a edff 7f3f a125 f739 feff 7f3f
0.0 1.0 0.0 1.0 0.0 1.0 0.0 1.0
0.0 1.0 0.0 1.0 0.0 1.0 0.0 1.0
0.09921538 0.995066 0.03142119 0.99950624 0.009937724 0.99995065 0.003142631 0.99999505
0.0009937887 0.9999995 0.00031426354 0.99999994 9.937888e-05 1.0 3.1426367e-05 1.0
0.19745171 0.98031265 0.06281135 0.9980254 0.019874467 0.9998025 0.0062852306 0.9999803
0.0019875763 0.99999803 0.000628527 0.9999998 0.00019875776 1.0 6.2852734e-05 1.0
0.29373956 0.95588547 0.09413948 0.99555904 0.029809248 0.9995556 0.009427768 0.99995553
0.002981362 0.9999956 0.0009427905 0.9999996 0.00029813664 0.99999994 9.427911e-05 1.0
0.3871288 0.9220256 0.12537464 0.9921095 0.039741084 0.99921 0.0125702135 0.99992096
0.003975145 0.99999213 0.0012570538 0.9999992 0.0003975155 0.99999994 0.00012570547 1.0
0.47669783 0.87906724 0.156486 0.9876802 0.049668994 0.9987657 0.015712533 0.99987656
0.0049689235 0.99998766 0.001571317 0.99999875 0.0004968944 0.9999999 0.00015713183 1.0
0.5615628 0.8274341 0.18744281 0.98227555 0.059592 0.9982228 0.018854698 0.99982226
0.0059626973 0.99998224 0.00188558 0.9999982 0.0005962732 0.9999998 0.00018855822 1.0
0.64088625 0.7676359 0.21821454 0.9759008 0.06950912 0.9975813 0.021996679 0.99975806
0.006956466 0.9999758 0.0021998428 0.99999756 0.00069565204 0.99999976 0.00021998458 1.0
0.71388537 0.7002626 0.24877076 0.9685624 0.079419374 0.9968413 0.02513844 0.999684
0.007950227 0.9999684 0.0025141058 0.99999684 0.00079503097 0.9999997 0.00025141094 1.0
0.7798399 0.62597907 0.27908128 0.9602675 0.08932179 0.9960028 0.028279955 0.99960005
0.00894398 0.99996 0.002828368 0.999996 0.0008944098 0.9999996 0.0002828373 0.99999994
0.8380989 0.54551834 0.30911627 0.95102423 0.09921537 0.995066 0.031421185 0.99950624
0.009937724 0.99995065 0.0031426302 0.99999505 0.0009937887 0.9999995 0.00031426366 0.99999994
0.8880875 0.45967442 0.33884594 0.9408419 0.10909917 0.9940309 0.034562115 0.9994025
0.010931459 0.9999403 0.0034568917 0.99999404 0.0010931673 0.9999994 0.00034569003 0.99999994
0.9293124 0.3692945 0.36824095 0.9297304 0.11897219 0.99289757 0.037702695 0.999289
0.011925182 0.9999289 0.0037711535 0.9999929 0.0011925463 0.9999993 0.00037711643 0.99999994
0.9613669 0.27527034 0.3972724 0.9177007 0.12883346 0.99166626 0.040842906 0.9991656
0.012918895 0.99991655 0.0040854146 0.99999166 0.0012919251 0.99999917 0.00040854278 0.99999994
0.9839345 0.17852971 0.42591152 0.90476483 0.138682 0.99033695 0.043982714 0.99903226
0.013912595 0.9999032 0.0043996754 0.99999034 0.0013913037 0.99999905 0.00043996915 0.9999999
0.9967927 0.08002734 0.45412996 0.8909354 0.14851683 0.9889099 0.047122084 0.99888915
0.01490628 0.9998889 0.004713936 0.9999889 0.0014906826 0.99999887 0.00047139547 0.9999999

attention_layer.relative_bias_table f4 [321, 8]
00000000: f5b6 9abb fc35 463b 2e1c 0e3b 6f2d 70bb
00000010: 3a28 323a 9ec4 fabb 6d8f f439 bdd2 36bb
00000020: eb33 babb f9ed 703b 1697 d43a bfab 6ebb
00000030: 4349 c13a 27b9 f3bb 7d9a 7d3a eb9e 12bb
00000040: 10de b7bb 4fc1 f83a 5792 e33a 6382 7abb
00000050: 01b8 053b 321e d3bb c081 6f3a 3d95 0fbb
00000060: 5dd2 c9bb 633f b33a 0141 f13a 760b 68bb
00000070: 26e8 ca3a 0ee8 cfbb 27d9 833a 868e 05bb
00000080: 5bd7 bebb 0472 56b9 0ed3 d73a 3461 74bb
00000090: 3a01 c03a dfd4 d4bb 8a83 7f3a 62f0 dfba
000000a0: 1a93 abbb 7fe8 6ab9 1477 cc3a 52ad 6fbb
000000b0: 2cc9 a93a 4c18 e1bb 1a63 893a 9a78 aeba
000000c0: 8a77 9bbb cb0b aab9 1adb c23a 1897 73bb
000000d0: 0ca8 753a 14aa e3bb aee0 8e3a 426e a1ba
000000e0: 7f52 91bb 247e a5b9 4eb0 b83a 4682 77bb
000000f0: c9c6 2e3a 4a89 e6bb 273f 933a 2896 7bba
00000100: 087d 89bb 1734 90b9 f96d ad3a 0409 7dbb
00000110: 8c2d 023a a640 eabb e77c 9a3a c53e 49ba
00000120: 3fa6 83bb bfc0 7fb9 7c3b a53a 32ee 7ebb
00000130: 16fb b139 01b4 eebb 181f a03a 4d82 04ba
00000140: a5bf 78bb 6d03 86b9 fb73 9e3a 2daa 80bb
00000150: 8a09 3f39 0c9c f0bb 4dae a63a 0943 a6b9
00000160: e676 69bb 9a9f 8cb9 9c06 973a d960 82bb
00000170: d98e 80b7 8a8c eebb 1d39 ab3a 8fa2 05b9
00000180: 963c 5fbb 7399 45b9 f05e 8f3a f9f7 82bb
00000190: 4010 46b9 574c efbb 24d9 b03a 69fa 6438
000001a0: 6edb 57bb 7387 35b9 daf8 8a3a b014 84bb
000001b0: 2d4d 99b9 c975 ebbb 5ad4 b23a ec7c 8139
000001c0: 6467 50bb 4306 3cb9 c97c 833a dbee 84bb
000001d0: 7198 dbb9 e8f3 ecbb 3fb9 b23a 96be e539
000001e0: 0426 4cbb ebd9 50b9 925f 803a 2b47 85bb
000001f0: 4cf6 00ba cf7d f2bb b187 b33a a17c 1a3a
00000200: 654c 46bb 79ca 51b9 5db7 7c3a a060 86bb
00000210: 059b 18ba f81f f2bb 66c2 b53a cd29 4b3a
00000220: e30e 42bb be2f 40b9 e827 723a 26d5 86bb
00000230: 9767 1eba db5d f2bb 5b72 b63a 4d2d 703a
00000240: b020 3cbb b3b6 7eb9 46a1 643a 9c8f 87bb
00000250: 201b 38ba e7a4 f3bb c603 b83a fc98 893a
00000260: 0b04 36bb 473f 8eb9 c504 603a 7967 88bb
00000270: 598f 40ba bd0a f4bb 1415 b93a 0f03 9d3a
00000280: 12ee 31bb b2cd 98b9 4e34 5a3a 7e36 89bb
00000290: de08 3dba 79db f0bb f7ca b93a 858f b23a
000002a0: 7d9c 2ebb 0963 acb9 2475 533a ba83 89bb
000002b0: 7182 35ba 8bdb f0bb 559a b63a fef9 c73a
000002c0: 2b93 2cbb 95b3 bbb9 d066 4f3a fd02 8abb
000002d0: 7903 39ba 3d0e f2bb 34a8 b73a 6e0f db3a
000002e0: 2964 28bb a01a e0b9 83e7 453a a604 8abb
000002f0: da6c 38ba 698b f0bb 95ec b73a 3ee1 ed3a
00000300: eaec 25bb 840f 03ba a786 3f3a 81c7 8abb
00000310: d2d5 34ba a46d f0bb dfe1 b83a 3c00 003b
00000320: 8e34 22bb 1ed5 14ba de07 393a 3391 8bbb
00000330: 384a 30ba 93dd eebb dea7 b93a 3704 0b3b
00000340: 3e57 1fbb 4bff 29ba 6181 393a 0114 8cbb
00000350: c0d9 2cba 8690 edbb e116 ba3a bafb 143b
00000360: b073 1bbb d5e5 36ba ca4a 363a f0d9 8cbb
00000370: dbf6 27ba 070d edbb a78e bc3a cabb 1c3b
00000380: f283 1abb 4dd5 4fba 55a6 313a e1df 8dbb
00000390: 2b99 24ba a625 e9bb e34b bf3a 6bc3 243b
000003a0: a644 17bb 31dd 5fba 7d32 2a3a fc9b 8ebb
000003b0: b788 1cba 91a2 e5bb b48f c03a ddc2 2b3b
000003c0: c614 14bb e83a 73ba 94f8 253a 5eb5 8fbb
000003d0: e811 0aba 355a e3bb 8ea2 c23a 9a59 333b
000003e0: 1b1c 10bb 5fab 82ba b04c 233a 5b47 90bb
000003f0: d3d8 03ba 9818 dfbb 09ce c33a d85f 393b
-0.004721517 0.003024458 0.0021684277 -0.0036648174 0.00067961554 -0.007652833 0.00046646167 -0.0027896606
-0.0056824586 0.0036762937 0.0016219344 -0.0036418287 0.0014746565 -0.0074378434 0.00096742046 -0.0022372555
-0.0056111887 0.0018978509 0.0017362338 -0.003822469 0.0020403864 -0.0064428085 0.0009136461 -0.0021909021
-0.0061591105 0.0013675507 0.0018406213 -0.0035407222 0.0015480563 -0.0063448017 0.0010059223 -0.002037914
-0.005824012 -0.00020451105 0.0016466097 -0.0037289383 0.0014648803 -0.006495103 0.0009747079 -0.001708519
-0.0052360417 -0.0002240259 0.0015599453 -0.0036571813 0.0012953631 -0.0068693515 0.0010481805 -0.0013311089
-0.004744475 -0.00032433713 0.0014866323 -0.0037168916 0.0009371049 -0.006947765 0.00109007 -0.0012316185
-0.004434883 -0.00031565235 0.0014090629 -0.0037766858 0.00066671945 -0.007035409 0.0011234031 -0.0009597265
-0.004195813 -0.0002750463 0.0013231627 -0.003861011 0.00049658935 -0.00714882 0.0011786491 -0.0007676895
-0.004017621 -0.00024390499 0.0012606229 -0.00388993 0.00033947144 -0.0072846417 0.0012216298 -0.0005054817
-0.0037956026 -0.00025561024 0.0012089008 -0.0039265365 0.00018218733 -0.007342821 0.0012716741 -0.00031711932
-0.0035623848 -0.00026821793 0.0011522355 -0.0039788303 -1.5325308e-05 -0.007279937 0.0013063286 -0.00012744426
-0.0034063212 -0.00018844548 0.0010938328 -0.003996846 -0.00018888805 -0.0073028016 0.0013492447 5.459265e-05
-0.0032937187 -0.00017311964 0.0010602728 -0.0040307865 -0.00029239935 -0.007185672 0.0013643608 0.0002469787
-0.0031799907 -0.0001793141 0.0010031696 -0.004056794 -0.00041884513 -0.0072312243 0.001363553 0.0004382028
-0.0031150589 -0.00019917607 0.0009794107 -0.004067322 -0.00049195136 -0.0074002515 0.0013697055 0.0005893205
-0.0030257937 -0.0002000722 0.00096403604 -0.004100874 -0.00058214396 -0.007389065 0.0013867139 0.0007750064
-0.0029610924 -0.00018328332 0.0009237514 -0.0041147647 -0.0006042658 -0.0073964424 0.0013919579 0.0009162024
-0.0028706007 -0.00024291388 0.00087215414 -0.0041369926 -0.0007023085 -0.0074354294 0.001403921 0.0010497863
-0.0027773406 -0.00027131496 0.00085456326 -0.0041627255 -0.0007345579 -0.007447569 0.0014120662 0.0011979061
-0.0027149958 -0.00029144954 0.0008323834 -0.004187404 -0.0007211099 -0.007350382 0.0014174868 0.0013623094
-0.0026643567 -0.00032880183 0.00080664665 -0.0041966112 -0.00069240393 -0.0073503903 0.0013931493 0.0015256999
-0.0026332836 -0.00035801218 0.00079117436 -0.004211782 -0.00070577074 -0.0073869512 0.001401192 0.0016712972
-0.0025694466 -0.00042744447 0.00075494515 -0.00421198 -0.0007035263 -0.0073408377 0.0014032299 0.0018148792
-0.0025318214 -0.00049995654 0.00073061365 -0.0042352085 -0.0006898317 -0.007337289 0.0014105401 0.001953139
-0.0024750563 -0.0005677509 0.0007058362 -0.0042592525 -0.00067249266 -0.0072895973 0.0014164408 0.002121223
-0.0024313475 -0.000648488 0.0007076469 -0.0042748456 -0.00065937266 -0.0072498946 0.0014197492 0.0022733049
-0.0023720078 -0.00069769967 0.00069538935 -0.004298441 -0.0006407329 -0.007234219 0.0014385775 0.0023915642
-0.002357718 -0.00079282076 0.00067767996 -0.004329667 -0.00062789273 -0.0071150837 0.001459476 0.0025140892
-0.002308169 -0.0008539735 0.00064925087 -0.004352091 -0.00059713 -0.007007905 0.0014691264 0.0026208677
-0.002259539 -0.0009278492 0.00063312915 -0.0043856343 -0.00052669505 -0.0069382438 0.001484947 0.002736664
-0.0021989408 -0.0009969285 0.0006229384 -0.0044030375 -0.0005029563 -0.0068083517 0.0014938723 0.0028285887

attention_layer.key.weight f4 [16, 16]
00000000: 5b1f 983d c094 11bc 273e 5e3e d389 febd
00000010: 740d c83d a846 52bd 2b3a 743e 46b3 10be
00000020: e5df f5bd 8834 3f3e 32d3 f3bd d726 493e
00000030: 1319 783e 9656 3b3e bb02 6b3e 5aae 5c3e
00000040: 9202 d13d a016 743e b63c 09bd 3acc 43be
00000050: 71c1 0b3d 4fce 28be 632b 33bd 8a23 3a3e
00000060: 9e8f a73d a4b1 b33d d437 78be 0972 6abd
00000070: cd45 f4bd 99ce 3a3d b890 f3bd e970 4ebe
00000080: 2060 d33d e165 253e fe95 303d 30a7 0e3e
00000090: 6948 643e 3456 1b3d 8e23 8f3c cc35 513e
000000a0: b372 5d3e 0b02 203e b1d8 803d 2e23 363e
000000b0: b1b7 84bd 7564 3e3d b703 db3d b6c5 25be
000000c0: bfad 2abe 1b4e 803e 8137 7abe 53f9 133c
000000d0: dde0 393d 527b 013e 0f0c edbc b000 f23d
000000e0: 9296 21be 36f8 b8bd cf14 0f3e 4dd6 0a3e
000000f0: 04a9 0fbe 1039 9fbc 014d 41be 93f4 32be
00000100: 7d8b 55be 2b56 2abe 40d8 233d 8288 4b3e
00000110: d90f 1a3d 60c4 613e c5fd dfbc 2c0c 6fbe
00000120: 5d77 133e e1e7 2fbe c866 b1bd 3afc 54bd
00000130: 3424 2e3e 8efc 32be 5eca 0dbe 903e 6c3d
00000140: dd4a 59be 004c dfbd 7418 253e 7753 bbba
00000150: d753 e03d c6ba 6a3e 800b 423e 4653 26be
00000160: 714c 98bd add1 0fbe 29db 3bbd a3a7 633e
00000170: 44cc 3cbe 069e 5c3e 6714 b73c 06bc 64be
00000180: e097 4abe 8e1f bebd 01cf 823c 290a 923c
00000190: 5292 1abe 2d20 22be 106d 89bc bdb9 12be
000001a0: 55db 673d ff69 46be adbf 16be 618c 1f3e
000001b0: ae48 5fbe df0d bf3d 48ce 52bd e847 633e
000001c0: 8545 443e 99fb 4c3e 593c 673d f9ba 45bd
000001d0: 4699 21bd 0b0a 8ebd e3d1 8dbd 4953 173e
000001e0: d6eb 65be 8dfe 5abd 9e56 b63d 8088 4abd
000001f0: 2ad8 6e3e 8e8f cfbd cc57 473e 960a 093e
00000200: c27f 35bc d621 76bc cdc3 28be c932 78be
00000210: 358f 833d 9f74 1cbe 0ab1 143d 72b7 20be
00000220: f847 023e b2e1 65bd e7ce cabc b7ad 503d
00000230: 2392 fc3d e7ee 523e dda4 cc3d aa42 9dbb
00000240: ac77 073e 56ce 823d 3a50 a23d 9a71 273e
00000250: 62e0 25be 4ffe 063e 1fbb 0abe 5e07 b7bd
00000260: 9a8a a6bc 1834 713d 6a02 4ebe 37b9 4dbd
00000270: d3e5 66be 0a88 29bd 3b7f 793e 0184 2dbe
00000280: 2849 cebd 86d0 093e 1359 1d3e 2ff2 1f3d
00000290: 7054 4f3e a6cb 7a3e 9ac9 023e ba88 4e3e
000002a0: 974f b4bd e2da 31be 9185 b6bd b217 50bc
000002b0: 666b 3e3e 1d0e a2bd 9231 ea3a baa7 5ebe
000002c0: ab88 f4bd f3f6 33be c02b 943d 6d08 393e
000002d0: 8c8d a0bc e849 94bc c5df d7bc d149 a2bd
000002e0: 67fb 98bd 9baa b0bc 3710 4e3e 5854 e33b
000002f0: 5527 6e3e 69e9 a03d ed4b 70be 26b7 51be
00000300: ae48 9d3d 43fb cb3b 93d2 07bd bea8 203c
00000310: 6206 68be 9cdd 02be 1aed 7d3e 0f48 593d
00000320: 9c5a 393e 2317 e2bd 220b 713d b1e3 b73d
00000330: 7172 1a3e b2e7 acbd deaa 2a3e 0b6a 3d3e
00000340: 45d9 76be c468 5b3e 0743 bc3d 444d 9ebd
00000350: dde2 b93d f5bf b73d b77b 053e f952 f2bd
00000360: 7cc0 2fbe a8ab 0cbe 38ac 4e3e fa2b 6cba
00000370: 646b 683e 94ef bfbc 317a 3dbd b80f 7abe
00000380: 94b2 57be b6d2 4c3e a407 20bc a6fd 79be
00000390: 648b 34be e754 dfbc 9048 5bbd 65db 6a3e
000003a0: 6000 e2bd d9a9 72be c739 6d3e 4938 f338
000003b0: cf77 7c3e 2389 8abd f4e6 013e a98a 093e
000003c0: 41b8 4fbc 85cb 4d3e a6b1 2dbe dc5f 7e3d
000003d0: 4d50 f63d d927 583e 85bd 13be 77ec 633d
000003e0: 88d5 32bd f7af 523d 3546 b8bd 8602 743c
000003f0: 667f 39be 5aee 2abe 9092 193e 9453 133d
0.074278556 -0.008885562 0.21703397 -0.12428632 0.09768191 -0.051336914 0.23850314 -0.14130887
-0.12005595 0.18672383 -0.11905517 0.19643722 0.24228315 0.18294749 0.2295026 0.21550885
0.102055684 0.23836756 -0.033505164 -0.19120875 0.034120027 -0.1648495 -0.04374255 0.1817762
0.0818169 0.08774117 -0.24240047 -0.05723766 -0.11927376 0.045607183 -0.11892837 -0.2016026
0.10321069 0.16152145 0.043111794 0.13930964 0.22293247 0.037924007 0.017473008 0.20430678
0.21625786 0.1562578 0.062913306 0.17786857 -0.06480349 0.046482522 0.10694068 -0.16188702
-0.16667841 0.2505959 -0.24435236 0.0090316115 0.045380462 0.12644699 -0.028936414 0.118165374
-0.15780094 -0.090317175 0.13972782 0.13558312 -0.14029318 -0.01943639 -0.18877031 -0.1747611
-0.20853992 -0.16634433 0.040001154 0.19876292 0.03761277 0.22047567 -0.027342686 -0.23344487
0.14401002 -0.17178299 -0.08662182 -0.051998354 0.17005998 -0.17479154 -0.13846728 0.05767685
-0.21219964 -0.10903168 0.1612261 -0.0014291842 0.10953491 0.22922811 0.189497 -0.16242704
-0.07436455 -0.14044829 -0.045863304 0.22231917 -0.18437296 0.21544656 0.022348596 -0.2233735
-0.19784498 -0.09283362 0.015967848 0.01782711 -0.1509488 -0.15832587 -0.016775638 -0.14328666
0.056605656 -0.19376372 -0.14721556 0.15580894 -0.21805069 0.093288176 -0.051466256 0.22195399
0.19167145 0.20017852 0.056454036 -0.048274014 -0.039452814 -0.06935509 -0.06924798 0.14777865
-0.22453246 -0.053465415 0.0890324 -0.049446583 0.23324648 -0.10134803 0.19467086 0.13382944
-0.011077823 -0.015022716 -0.16480942 -0.24238123 0.06423799 -0.15278862 0.03630165 -0.15694979
0.12722766 -0.056123443 -0.024756862 0.050946917 0.12332561 0.20598947 0.09992383 -0.0047992067
0.13229245 0.06387012 0.07925458 0.1635193 -0.16198877 0.13182949 -0.13547944 -0.08936952
-0.020329762 0.05888757 -0.20118108 -0.050225463 -0.22548608 -0.041389503 0.24364941 -0.16944887
-0.10072547 0.13458452 0.1536601 0.039049324 0.20247054 0.24491748 0.12772217 0.20169345
-0.08804243 -0.17368653 -0.089121945 -0.012700962 0.18595657 -0.07912848 0.0017867556 -0.2174367
-0.1194013 -0.17574672 0.07234907 0.1806962 -0.019598745 -0.018101647 -0.026351819 -0.079242356
-0.07469826 -0.021565726 0.20123373 0.006937545 0.23257191 0.078570195 -0.23466463 -0.20480022
0.07679878 0.006225021 -0.033159804 0.009805856 -0.22658685 -0.1277985 0.24797478 0.053047236
0.18100971 -0.11039569 0.058848508 0.089789756 0.15082718 -0.0844263 0.16666743 0.18497483
-0.24106319 0.21426684 0.09192472 -0.07729581 0.09076474 0.0897216 0.13035475 -0.11832232
-0.1716327 -0.13737357 0.20182884 -0.00090092386 0.22697216 -0.02342967 -0.04625911 -0.24420059
-0.21064216 0.20002255 -0.009767447 -0.24413165 -0.17631298 -0.027262164 -0.053535998 0.22935255
-0.11035228 -0.23697604 0.23166572 0.00011597627 0.24655078 -0.06764438 0.12685758 0.13431801
-0.012678207 0.20097168 -0.16962299 0.062103137 0.12027035 0.2110895 -0.14427765 0.055645432
-0.04366067 0.051437344 -0.08997766 0.01489318 -0.18115005 -0.16692486 0.14997315 0.03596838

attention_layer.value.weight f4 [16, 16]
00000000: a015 683d fe59 63be b44e 1c3d 2e46 34bb
00000010: 6c0a 07be 0358 9f3d c821 a93d b0d9 1c3e
00000020: a1e4 583c 5b6e 60bd 8d0c 11bd 99fc da3d
00000030: 1384 a0bd 62cc ebbd c77e ab3d 4ffe dfbd
00000040: a37d dfbd 405e 00bd 95af 3abe b84b 733d
00000050: 8969 40be 8247 8ebd 6cb6 fcbd b309 4dbe
00000060: 9f46 6fbe b68c bbbd ebeb 3dbd a734 4c3e
00000070: 7203 0d3e 05f8 6e3d 4102 adbd 564d 453d
00000080: 644c 34be 1d9d 19be ba56 b83d 4b15 6cbd
00000090: 4697 73be 10b5 a83c f060 68be 82ae 583e
000000a0: 8a75 54be 16af e5bd 8fb8 a43d 1a7f 82bc
000000b0: 8e8e 163e e156 8fbd 6028 f63d 24b3 e4bd
000000c0: 54c4 3a3e 6054 86bd 0580 5e3d 9d6a 42be
000000d0: 3d69 f5bd 4180 083e 3f3d 263d 2041 3cbc
000000e0: d0e2 aa3d 607a 713e 4a5c 4a3e 7fb0 06be
000000f0: eff5 48be 60e0 113e e019 41be 2ae1 0abe
00000100: bc84 073d ca8f de3c 2402 4fbe 97a3 3cbd
00000110: 9294 58be a3c6 523d 6782 1b3e c7ab ddbc
00000120: d4f8 013e d4b6 7e3e 33a9 863c 78df 21bd
00000130: 9031 3dbd 1724 f3bc c127 1f3e 9ba9 37bd
00000140: b2ce fc3d c05a 623e 55e6 3cbe 5dfe 69bc
00000150: 5e98 0c3e 6c7f c63d 4c9e 733e 47b4 983d
00000160: 9212 04be 783e 2cbe bb22 b6bc f8e1 6d3e
00000170: f31b 30be f178 63be 476b c03d 581a 723e
00000180: c8a3 34bd 32d2 53be 333b b6bc 3ddc 533e
00000190: adf4 15be 71f9 733e 5c24 d73c b448 80be
000001a0: f952 1e3e 19f3 c33d e8b4 203e 280d afbd
000001b0: 047f 48bd 66eb 1c3e 033a 15be e05c c53d
000001c0: 26b7 84bd 3012 eebd 9489 f73d f3c0 40be
000001d0: 8500 333e 52c2 81be 03e4 f63d 39e6 a5bd
000001e0: 02c5 23be 93fa 773e b4e8 5d3e efba e73d
000001f0: aacc 3c3e d481 5c3e 1702 6b3e 42b9 273e
00000200: aded 9cbd 2836 523e 6ad7 603c 58c6 673e
00000210: 56b5 9abc fe49 1fbe fc1c b03d d486 ddbd
00000220: f6a8 20bd 24d9 dc3d 403c 313e fed3 61be
00000230: 7cb1 25be 799c 823e cc2c a3bb d004 59be
00000240: 3cf0 4ebe 8d54 c73d 714e 23bc 31dc 43be
00000250: f0ee 3c3d 8559 c4bd 613c 803e d3e8 2b3e
00000260: 9b92 c3bd 2315 2bbe cd4e bebc 3944 c6bc
00000270: a85c 6abe 195c 98bd 29f7 ec3d 4894 4ebd
00000280: f46e 0a3e b741 8cbd f9ec 2b3c f864 1e3e
00000290: 8f13 aabd bf59 24be 2dd0 853c 80cb 3f3e
000002a0: 9208 403d f171 51be d145 763d 91cc 3f3e
000002b0: 7d8e 57be a50a 47bd 5eca 67bd 318b 26be
000002c0: e5cf dabc 33b8 f0bd b384 0f3c 6d09 263c
000002d0: f3a9 2a3e 436e 7cbe fb9b 66be 351f 793e
000002e0: 0a4a c53d d347 573e 3051 56bd d5d1 92bc
000002f0: 09f9 cbbc 1be6 38be 8db6 ae3a 9df6 5d3e
00000300: f9f3 52bd a357 3fbe fc0e 5d3e 92af 753e
00000310: 54e5 ef3d 441d c93c 7409 4c3e 39de b03d
00000320: f572 34be b93f 553d 88ef 1a3e 5ede 5a3e
00000330: 167e 06be 04a4 76be 722f 40bc dd19 07be
00000340: 2876 173e bf76 29be d1e7 cabd 0e06 2e3e
00000350: 4bf9 88bc 1b70 59be c89d 623e 706a 303e
00000360: aad2 513e e440 1fbb 59b7 de3b 0636 c6bc
00000370: 09af fabb 85dc f53c ec90 0d3e d0a3 2a3c
00000380: faaf a73c 21e9 2d3d 4155 cabd 92aa 463e
00000390: daa8 3b3e 587f 183e 27cc 80be 42fd 383c
000003a0: 7a9a 933c 0927 443d 981d 3f3d db9a 433e
000003b0: 1433 5cbe 53ee a1bd 413a ddbd 96df 23be
000003c0: 2dd0 483d ebb7 2c3e 4baf d4bd 45e2 80be
000003d0: 1fae 273d 7361 763e 1c04 a0bc 8b62 6ebe
000003e0: 6b1c ef3b edb8 f3bd c01f 5dbe 2481 903d
000003f0: d38b 083e 9d7c d73d 89ab 163e 3b56 c6bd
0.05666125 -0.22202298 0.038160995 -0.002750765 -0.1318757 0.07780459 0.082583964 0.15317416
0.013238103 -0.054792743 -0.03541236 0.106927104 -0.07837691 -0.11513592 0.0837379 -0.109371774
-0.10912635 -0.031339884 -0.18231042 0.059398383 -0.18790258 -0.06947233 -0.12339482 -0.20023231
-0.23366784 -0.09157698 -0.046367567 0.1994196 0.13770846 0.058342 -0.084476955 0.048169456
-0.17607266 -0.1500134 0.09000917 -0.057637494 -0.23788175 0.02059415 -0.22693229 0.2116032
-0.20747963 -0.112150356 0.08043014 -0.015929747 0.14702818 -0.06998993 0.1201942 -0.11166981
0.18238956 -0.06559062 0.054321308 -0.18985982 -0.11982963 0.13330175 0.040585753 -0.011490136
0.08344042 0.23581839 0.19761768 -0.13153265 -0.19625066 0.14245749 -0.18857527 -0.13562456
0.03308557 0.027168173 -0.2021566 -0.04605445 -0.21150425 0.051458966 0.15186463 -0.027059449
0.12692577 0.24874431 0.016438102 -0.039519757 -0.046189845 -0.029680295 0.15542509 -0.044839483
0.123441115 0.22104931 -0.1844724 -0.014281836 0.13729998 0.096922725 0.23790854 0.0745626
-0.12897709 -0.16820705 -0.022233358 0.23230731 -0.17198162 -0.22214104 0.093954615 0.23642862
-0.044101506 -0.20685652 -0.022245025 0.20689483 -0.14644118 0.23825623 0.026262455 -0.25055468
0.15461339 0.095678516 0.1569401 -0.08547431 -0.048949257 0.15324172 -0.14572911 0.09636855
-0.06480245 -0.11624563 0.12086788 -0.18823604 0.17480667 -0.25343567 0.120552085 -0.08100552
-0.15993121 0.2421668 0.216708 0.11314952 0.18437448 0.215339 0.22950016 0.16379264
-0.076625206 0.20528471 0.013723234 0.22634256 -0.018885296 -0.1555557 0.08599278 -0.10816732
-0.039223634 0.10783604 0.1730814 -0.22053525 -0.16180986 0.25510004 -0.0049797054 -0.21193242
-0.2020883 0.09732924 -0.009967432 -0.19126965 0.046126306 -0.09587387 0.25046065 0.16788034
-0.09549447 -0.16707282 -0.023230935 -0.024202453 -0.22886908 -0.07439441 0.115705796 -0.05043438
0.13518888 -0.068484716 0.01049351 0.15468204 -0.08304512 -0.1604986 0.016334618 0.18729973
0.046883173 -0.20453621 0.060125176 0.1873038 -0.21050449 -0.048594136 -0.056589477 -0.16264035
-0.02671046 -0.11753883 0.008759665 0.010134083 0.16666393 -0.24651437 -0.2252044 0.24328311
0.096332625 0.21023493 -0.05232352 -0.017922321 -0.024899023 -0.18056528 0.0013329551 0.21676107
-0.0515022 -0.18685775 0.21587747 0.23992756 0.11713663 0.024550088 0.19925481 0.086361356
-0.17621978 0.052062724 0.15130436 0.21373889 -0.13134035 -0.24086004 -0.011730062 -0.1319346
0.14791167 -0.16549204 -0.09907497 0.16994497 -0.016720435 -0.21234171 0.22130501 0.17228103
0.20490518 -0.0024300152 0.006796759 -0.024195682 -0.0076502603 0.030012378 0.13824815 0.0104150325
0.020469654 0.042458657 -0.09879542 0.19401005 0.1832613 0.14892328 -0.25155756 0.01129085
0.018017996 0.04788879 0.046659082 0.19102041 -0.2150386 -0.07906785 -0.10802127 -0.1600326
0.049026657 0.16867034 -0.10384997 -0.2517263 0.04093754 0.24060611 -0.01953321 -0.23279779
0.007297089 -0.11900506 -0.21594143 0.070558816 0.13334589 0.10521815 0.14713873 -0.09684416
