models/ConvTran/Results/Dataset/UEA/Dataset/UEA/2024-11-25_16-05/checkpoints/ArticularyWordRecognition_0.pth (torch, 467254 bytes, 77 tensors)

embed_layer.0.weight f4 [64, 1, 1, 8]
00000000: 8c8e 733e 8e66 5c3e a45d 2c3e 13b8 7dbd
00000010: 4453 7f3d ea7a aabd 8ff3 7ebd d73a af3d
00000020: c361 703e d912 dcbb 7c2a 39bd 32e0 43be
00000030: 32bd 06be c814 87be aad9 383e 0109 a0bd
00000040: e534 a9be 4216 773e 9520 2cbc fc54 b53d
00000050: c7b7 abbe 1306 a7be 40ed 3b3e 9238 983e
00000060: a1f5 42bd 3e98 4fbe 1c9f 9b3e 9855 803b
00000070: c0f1 683e eae5 65be 97ee b4bb 22c4 88be
00000080: 45bc a53e 5ce1 82be 1ddc 423e d355 4fbe
00000090: 532d 61bd 3ba8 8abe be85 113e 92fc 4abe
000000a0: 058e b23e f337 133e d8e1 20be 3273 553e
000000b0: 161a 4ebd 69ae bdbe 59fb 9ebd 81cb 4a3e
000000c0: 3e2a 4ebd 9812 22be 63fb 99be 25be 41be
000000d0: e019 263d 2ea2 533d 2329 413e 7aa3 fe3c
000000e0: 0423 98be 3476 723e 4b79 c53d c030 0bbd
000000f0: 310c 84bc 309d 08be be9a 11be 2ca2 8b3e
00000100: 1b4a 8f3e 980b 4a3e 88d5 353e 0813 87be
00000110: a5c8 453e c6c8 533d bc38 26be 6cb8 653e
00000120: d0bc f23d f2db 203d d3c9 d2bd 0768 ca3d
00000130: e8ab 393c 2fed c7bd 5e9c 9cbe d77d 663e
00000140: ac00 b73c 0803 d7bc 5dfb 5bbe 8254 24be
00000150: b9bf 9e3d 2672 843d f387 753e 9bde e33c
00000160: 5ca9 0a3e e606 8fbe 81f2 893e b57e 65be
00000170: f9c7 9c3e 14f3 8e3e 6579 d43c 497c 99bd
00000180: 00c5 9abe 5113 373d f549 6a3e 8d36 553e
00000190: 243c 18bc 3f7a 03be 4811 f8bd 6398 85be
000001a0: e5c4 40be d21a 5c3e 3819 c0ba 9341 08be
000001b0: 6111 d43d 4bf6 b83d 1c0a 9d3e 707f bdbd
000001c0: ba0b 943c ffd8 043e 1706 5fbd b66a 5fbe
000001d0: aaa2 913d 2450 c83c 5a3a 663e dd16 623e
000001e0: b5af d6bb 07fb d03d f0ca 8c3e cee1 91be
000001f0: 19e0 443e 4748 ae3e 180c 053e 9f47 883e
00000200: 3d28 9fbe 5e15 83bd acab a83e 9d46 53be
00000210: d9d4 6c3b 062f 0dbe 29fc 1d3e cdeb 0f3e
00000220: e8c1 fa3d 9af4 1a3e 26e9 833e 45fc cdba
00000230: 6832 dfbd b9b5 92be 56f5 cabd 76d2 f1bd
00000240: a061 a7be d27d 973d 1f30 2abd 9161 3f3c
00000250: 2fb3 103e 14a0 cc3d 1025 323d 8e46 253e
00000260: d946 b83e fe2f 71be 9934 45bd 3607 ddbd
00000270: f202 253e 0038 7c3e 4fd4 65bc 1538 de3d
00000280: 5a58 1ebd 9994 34bd fdd1 163d a6de e33d
00000290: 0917 5b3d 322f 71bd 80df 8ebe b923 cbbb
000002a0: 3d08 85bd 9d61 66be 70ba 9b3e 8265 733e
000002b0: eb22 473c f271 94be ca05 b3be 677a 18be
000002c0: 749e a03e 34b0 abbe b38b 943e 0c62 e33e
000002d0: 2347 13bd 201a d73e 0784 813e 851a 0e3d
000002e0: e721 9cbe ed26 6cbd 4211 da3d 0145 a8be
000002f0: a395 1dbe 32e4 613e 64cd 38be b46a ac3e
00000300: de49 b0be a078 573e 27a7 1e3c f4b0 1d3d
00000310: 3769 84be 378d 9fbe 71bc 5abe deac a93e
00000320: 38b6 bd3d 9318 a63e 4271 6cbe e299 df3d
00000330: 652c 5cbb ba84 1d3d a17b 6fbe e691 4ebe
00000340: 4462 32be 154c 213c ce6c b03c 07bf bf3d
00000350: d9a0 dabc 6136 913e 6b85 5fbd 7022 b2be
00000360: ca01 47bd 7ffd 113e ea6a 853e 3875 a43e
00000370: be60 e53d 8fa3 393e c664 55bd a8e5 883d
00000380: 0cb5 af3d a65d 3b3d 8c61 1f3d 1b6d 9c3e
00000390: fbdc abba 9e44 84be ac0c 82bd 66a3 9ebe
000003a0: 638e ab3e 8ab7 04be eadd 30be 62a4 90bd
000003b0: d54d 813d 7219 403e 657a a73e 190d ee3d
000003c0: a60a 4a3e f4c8 043e ec47 843e 52db 0e3e
000003d0: 23d6 68be 92fb 393c 9209 92be a681 87be
000003e0: 40db bd3d 3f7d 603d c290 5b3d 9094 72be
000003f0: dd49 8f3e 4a3c 453e 57de 01be bbcf 57be
0.23784846 0.21523497 0.16832596 -0.061943125 0.062335268 -0.08324225 -0.062243994 0.08556145
0.23474793 -0.006716114 -0.045206532 -0.19128492 -0.1315811 -0.26383042 0.18051782 -0.07814217
-0.33048168 0.24129584 -0.010505815 0.088541 -0.33538648 -0.32621822 0.18352222 0.2973066
-0.04759753 -0.2027292 0.30394828 0.0039164536 0.2274847 -0.22450987 -0.005521606 -0.26712137
0.323702 -0.2556256 0.19029279 -0.20247583 -0.054974865 -0.27081475 0.14211175 -0.1982291
0.34873977 0.14376812 -0.15711153 0.20844725 -0.050317846 -0.37047127 -0.077627845 0.19804193
-0.050333254 -0.15827405 -0.30074605 -0.1892019 0.04055202 0.05166834 0.18863349 0.031083811
-0.29714215 0.23677903 0.096422754 -0.03398204 -0.016119095 -0.13341212 -0.14219186 0.27272165
0.27986225 0.19730985 0.17757237 -0.26381707 0.19314821 0.051705144 -0.1623258 0.22433633
0.118524194 0.039272256 -0.10292401 0.09883123 0.01133249 -0.09762036 -0.3058805 0.22508942
0.022339188 -0.026246563 -0.21482606 -0.16047862 0.07751412 0.064670846 0.23977642 0.027816107
0.13541168 -0.2793495 0.26942828 -0.22411616 0.30621317 0.2791983 0.025936792 -0.07494409
-0.30228424 0.044696156 0.22879775 0.2082159 -0.009291682 -0.12839602 -0.12112671 -0.26092824
-0.1882511 0.21494606 -0.0014655953 -0.13306265 0.10354877 0.09031352 0.30671775 -0.092528224
0.018071998 0.12973402 -0.054449167 -0.2181805 0.07111104 0.024452277 0.22483197 0.22079034
-0.0065517076 0.1020413 0.2749858 -0.28492588 0.19226111 0.34039518 0.12992895 0.26617143
-0.31085387 -0.0640056 0.32943475 -0.20632406 0.003613761 -0.1378747 0.15428223 0.14054795
0.12244016 0.1513237 0.25763816 -0.0015715441 -0.10898286 -0.28654268 -0.09910075 -0.1180772
-0.3269167 0.07397045 -0.041549798 0.0116809765 0.14130853 0.0999147 0.043492377 0.16140196
0.35991552 -0.23553464 -0.048145864 -0.10792391 0.16114405 0.24630737 -0.014027669 0.108505405
-0.038658477 -0.044087026 0.036821354 0.11126451 0.053488765 -0.0588829 -0.27904892 -0.006199327
-0.06495712 -0.22498174 0.30415678 0.23769191 0.012154321 -0.28993183 -0.34965354 -0.14890443
0.3137089 -0.3353287 0.29012832 0.4441074 -0.035956513 0.4201212 0.2529604 0.03469326
-0.30494615 -0.05765431 0.10647823 -0.32865146 -0.15389113 0.22059706 -0.180471 0.33675158
-0.34431356 0.21042109 0.009683407 0.038498834 -0.25861523 -0.31162426 -0.21360947 0.331397
0.09263271 0.32440624 -0.2309008 0.10918023 -0.0033595797 0.038456656 -0.23387004 -0.20172843
-0.17420298 0.0098447995 0.021536257 0.093626074 -0.026688026 0.283618 -0.054570597 -0.347919
-0.04858569 0.14256857 0.2605813 0.3212068 0.11200093 0.18128799 -0.05209806 0.066844285
0.08579454 0.045743607 0.038911387 0.3055199 -0.0013112122 -0.258336 -0.06350073 -0.30984038
0.3350707 -0.1296064 -0.17272153 -0.070626035 0.063136734 0.18759707 0.32710567 0.11623592
0.19730625 0.12967283 0.25836122 0.13950852 -0.22737937 0.011351483 -0.28522927 -0.264661
0.09270334 0.054806944 0.05360485 -0.23689485 0.2798604 0.1926128 -0.12682472 -0.21075337

embed_layer.0.bias f4 [64]
00000000: 1c9b 7d3e d47d 043d f9c8 36be ab8f 8fbe
00000010: 1b44 8dbe 123f ddbd 446f 6b3e 6825 acbc
00000020: 378c 9cbe 87ce 3c3e a28d 26be 7d11 953e
00000030: ae42 503d cc5d 65bc 3c94 06bd 6a8d 99be
00000040: b414 5f3e 47e0 273d 8aeb a4bd 7433 a2ba
00000050: cb16 563e f838 813e d53a f7bd e9da 823d
00000060: 1dfd 01be 7d8e 02be 6091 f73d efb9 a83e
00000070: 789e b4bd 78aa 7f3d 5b86 1bbe 79f9 81be
00000080: c868 8abd 240b 843e 8d70 833e e480 aabe
00000090: 78e5 a53e 4ccf bcbc 38b3 92bc 032c 05bc
000000a0: 9d62 9b3e 0e6b 293c b658 40be 5e30 463e
000000b0: ff24 adbe de10 1fbe 51dc aa3d d3c9 6abe
000000c0: 70c8 443c c401 e4bd d5e6 353e d1be 82be
000000d0: 602d 98be 40a4 3d3e a4f0 a83e 5993 93be
000000e0: 6920 55be c73a 263e fdbf 9dbe c0b2 653e
000000f0: 8801 283e ea39 b4bd 2a0a 90be 17f1 823d
0.24766201 0.03234656 -0.17850102 -0.28039297 -0.27591023 -0.10803045 0.22991663 -0.02101393
-0.30575725 0.18438159 -0.16264966 0.29114905 0.05084484 -0.013999414 -0.03285621 -0.29990703
0.21785241 0.040985372 -0.08052738 -0.0012374953 0.20907132 0.25238776 -0.12071768 0.0638941
-0.12694211 -0.12749667 0.12088275 0.32954356 -0.08819288 0.06241843 -0.15187971 -0.25385645
-0.06758267 0.2578975 0.25671807 -0.3330146 0.32401633 -0.023048066 -0.017907724 -0.008128169
0.30348673 0.010340465 -0.1878384 0.19354388 -0.33817288 -0.15533778 0.08342803 -0.22928552
0.012010679 -0.11133149 0.17763837 -0.25536206 -0.29722118 0.18519688 0.32996094 -0.28823355
-0.20813145 0.1623336 -0.30810538 0.22431469 0.16406834 -0.08800109 -0.28132755 0.063936405

embed_layer.1.weight f4 [64]
00000000: e478 823f 9294 7e3f 715e 7e3f 29f6 803f
00000010: f786 803f bda4 813f 32b3 833f 8d34 823f
00000020: d72d 7e3f 5932 893f 8f6e 843f aff6 7b3f
00000030: 8cc7 823f 6705 7d3f f975 7c3f 12e1 7a3f
00000040: 61c7 883f 9b42 8e3f e9ca 813f 24d2 7c3f
00000050: 854a 7d3f 61d8 753f d469 793f a66c 833f
00000060: fc0f 7d3f 01a1 863f a0c3 7f3f 5423 813f
00000070: 7f1b 823f c460 783f 997a 843f 0223 803f
00000080: 9b55 7b3f 1463 8c3f 7bcc 773f caa0 7d3f
00000090: 652c 803f 4396 7f3f 428e 803f f0b9 803f
000000a0: 3b80 7d3f 6f63 843f 3dac 823f 8528 8a3f
000000b0: 5f9c 7b3f 9508 8d3f 149a 853f 7565 773f
000000c0: 17a5 803f 4b80 813f 85bf 803f 8961 813f
000000d0: ddaf 7e3f 6c97 7e3f 92bc 7e3f 5b73 793f
000000e0: 1d0e 773f 426d 833f 788b 7c3f eb20 793f
000000f0: d140 833f 8e6f 843f 04a2 803f 00dd 823f
1.0193143 0.9944545 0.99362856 1.0075122 1.0041188 1.0128399 1.0289061 1.0172287
0.99288696 1.071849 1.034624 0.98423284 1.0217147 0.9883637 0.9861751 0.9799968
1.0685846 1.1114076 1.0140048 0.9875815 0.9894183 0.96033293 0.97427106 1.0267532
0.98852515 1.0517884 0.99907875 1.0088906 1.0164641 0.9702265 1.0349914 1.0010684
0.981775 1.0967736 0.9679639 0.9907347 1.0013548 0.99838656 1.0043414 1.0056744
0.9902379 1.0342845 1.0208813 1.0793616 0.9828548 1.1018244 1.0437646 0.96639186
1.0050381 1.0117277 1.0058447 1.010789 0.99487096 0.994498 0.99506485 0.97441643
0.9650591 1.0267718 0.9865031 0.97315854 1.0254155 1.0346544 1.0049443 1.0223694

embed_layer.1.bias f4 [64]
00000000: 57a1 98bc a886 5bbd 707c dc3b bffb c63c
00000010: ea88 98bc 8414 e53c e81c f3bb 22cb 9a3b
00000020: 56e6 bbbd f832 12bd 5494 5cb9 3360 3abd
00000030: a835 abbc 6f8c 2cbd 0149 c4bb dafa 91bd
00000040: 10ac c83d ae8d ae3d 6ad7 213c 7183 e9bc
00000050: 18f9 babb 7c09 6abc b4ea 9abc 4025 64bd
00000060: f8fd 6dbd 3049 71bb 2467 33bd 70f7 b4bb
00000070: 225d 8c3c ca2e 8abd a4c2 233d cf7a 373c
00000080: d392 a03a 6ea3 17bd 318f 9cbd 19ac 72bd
00000090: 2831 47bc 69e6 833d fd78 b6bc dc1c 5d3c
000000a0: 5f52 2f3d 9f81 073d 35c1 113d 448c 3c3c
000000b0: 1248 76bc eaa7 ca3d 03c3 98bc 764d 9dbc
000000c0: 2b2d 99bb 5b5e 91bd 9a70 4cbd e2e7 8fbb
000000d0: e0ef a83b ad51 483a 97d1 89bd 2e97 e2bc
000000e0: dd15 3bbb 3aca 4d3c 00e3 a9bd 6ed7 4abd
000000f0: 9f71 093d 7425 bc3c b35f 933b 56d3 19bd
-0.01863162 -0.053595215 0.0067287013 0.024289964 -0.018619973 0.027963884 -0.0074192174 0.0047239223
-0.091747925 -0.03569314 -0.00021036091 -0.0455019 -0.020899609 -0.042126115 -0.005990148 -0.07127924
0.09798443 0.08523117 0.009878019 -0.028505059 -0.005705964 -0.014284488 -0.018910743 -0.055699587
-0.05810353 -0.0036817305 -0.043799534 -0.005522661 0.017134253 -0.067472056 0.039980546 0.011198713
0.0012250788 -0.037021093 -0.07644499 -0.059246156 -0.012157716 0.064404316 -0.022274489 0.01349565
0.042803165 0.0330826 0.035584647 0.011508051 -0.015031831 0.09895308 -0.018647676 -0.019201975
-0.004674574 -0.07098075 -0.049912073 -0.0043916563 0.0051555485 0.0007641565 -0.06729429 -0.027659979
-0.0028546967 0.012560422 -0.0829525 -0.049521856 0.033555623 0.022967078 0.004497492 -0.03755506

embed_layer.1.running_mean f4 [64]
00000000: 4588 7c3e f26d 093d f25d 39be 97ef 8cbe
00000010: 909c 8bbe 3df9 dcbd e2b9 683e 2e4a b6bc
00000020: fa5c 9ebe ef58 3d3e 518b 2abe 65c8 933e
00000030: 94f9 6b3d ae00 8cbc 0d76 21bd 173d 9ebe
00000040: ccb7 5c3e 75ec 3b3d 8088 acbd 50cb b6bb
00000050: f9c5 593e 5da0 853e 19a4 02be 7930 773d
00000060: bbcd 00be edcb fabd fc02 003e 7874 a73e
00000070: fbfc a5bd 9fa2 603d 53f6 13be 07fd 80be
00000080: bbe4 9bbd 1860 803e aa04 823e 41bf afbe
00000090: 2ee8 a63e a253 e1bc 380f 95bc 080e 51bc
000000a0: c24e 9b3e 092e fb3b fe84 41be 62e3 3f3e
000000b0: 2a6a acbe 8b1d 1dbe e24a a33d eccc 6bbe
000000c0: deb0 593c 8935 d7bd 711a 393e 3916 84be
000000d0: 2b79 95be ab3d 3c3e bb8b ab3e 60de 8fbe
000000e0: 47a6 53be c749 263e e980 9bbe 178c 6a3e
000000f0: 3836 263e 4c5a c2bd c3c4 8fbe 1860 8b3d
0.24661358 0.033552118 -0.18102244 -0.27526543 -0.27267885 -0.10789726 0.22727159 -0.022252169
-0.3093031 0.18490957 -0.16654707 0.28863826 0.057611063 -0.017090168 -0.039419223 -0.30905983
0.21554488 0.0458798 -0.08424473 -0.005578436 0.21266927 0.2609891 -0.12757911 0.06034896
-0.1257848 -0.12245927 0.12501138 0.32706046 -0.08104893 0.054842588 -0.14449434 -0.25193045
-0.07611986 0.25073314 0.25394183 -0.34325603 0.32599014 -0.0275057 -0.018195733 -0.012759693
0.30333525 0.0076654 -0.18898389 0.18739083 -0.33674747 -0.15343301 0.07973267 -0.2302739
0.013286797 -0.10508258 0.18076493 -0.25798205 -0.29194006 0.183829 0.33505043 -0.28099346
-0.20668899 0.16239081 -0.30371788 0.22905003 0.1623162 -0.09489879 -0.28079805 0.06805438

embed_layer.1.running_var f4 [64]
00000000: 3771 973e 40be e73d bb1c b13d 509f 753d
00000010: 9487 003e 5966 be3d 8b1d 363e 9acd ae3c
00000020: c163 df3e fd9d 7e3c 285c ca3c 6864 483e
00000030: 752d fe3d ad77 cb3d fd02 2a3e 8814 6b3f
00000040: afc2 213d 46ea 783d 880f 673d 5752 533e
00000050: 818d 5b3d e2ce 903e 4d04 dd3f a70e 2d3e
00000060: dfde 993e e89e 4c3d f818 4e3d cc9f 633f
00000070: a632 8b3d c044 cb3e 69d6 b23d b2f3 0d3d
00000080: 020b e23f d952 e13d da8d 9e3d f9a2 cb3f
00000090: 22a2 f63e 9b3b 0b3e ca71 b03d 3e17 b33d
000000a0: f4a6 0f3d a65a 7a3d 496f 423d 8da3 cb3d
000000b0: b97f 6d3e ef0b 463d d49c a33c 7719 a73c
000000c0: 69a6 c73c e3c8 5b3e 07fc 633d 5324 263d
000000d0: 283a dc3e bd33 0a3f dfdf d33f eafd c83e
000000e0: 5ef6 b43e 80bc ea3c cde4 043f 926c d63e
000000f0: e0fc 4d3c 6d9c b73d a5ef 613d 41e3 2b3f
0.29578564 0.11315584 0.08648058 0.059966385 0.12551719 0.09296865 0.17784707 0.021338273
0.43630794 0.015540597 0.024702147 0.19569552 0.12411014 0.09934936 0.16602702 0.91828203
0.039492305 0.060770296 0.056411296 0.20636879 0.053601746 0.2828284 1.7266937 0.1690012
0.3005285 0.049956232 0.05031678 0.88915706 0.0679677 0.3970089 0.08732302 0.034656234
1.7659609 0.1100213 0.077419 1.590911 0.48170573 0.13596956 0.086154535 0.087446675
0.03507133 0.061121605 0.04746941 0.09943304 0.23193254 0.048351225 0.019972242 0.020397885
0.024371343 0.21463351 0.055660274 0.040561985 0.4301312 0.53985196 1.6552695 0.3925622
0.35344213 0.028654337 0.5191162 0.41879708 0.012572497 0.08965383 0.055160183 0.67143637

embed_layer2.0.weight f4 [16, 64, 9, 1]
00000000: 5a92 b43c 3642 bf3c d2e7 1b3c c497 c5bc
00000010: f371 043d 8a57 fb3c e860 9cbb fdb5 50bd
00000020: 23d1 0cbd bc28 b5bc 19eb fe3c bc1d 4ebc
00000030: 623b 0cbc f728 e7bc d04b 4dbd 8e4e a63c
00000040: 5823 ac3b d97b 13bd ca82 d43c b067 0d3d
00000050: c15a 92bd e549 1dbd 7dd4 e8bc 0996 37bc
00000060: b0a5 47bc c7a6 c3bb 2990 c43c 8dda bf3c
00000070: a179 6f3c 1028 24bc 991a 813c c691 03bd
00000080: f302 19bd ec27 8fbc 4252 753c bc0f d4bc
00000090: 1f6f b73c 2f1c 773c c551 abbc f5ce 0abd
000000a0: e639 da3c a3bc 81bc 8977 01bc d305 58bd
000000b0: 5140 8039 7104 533c bb55 20bd eb9d 683d
000000c0: fa6b aebc 2816 d73c 4ae4 1bbc d36f 9c3c
000000d0: ef7d e7bc ab48 6e3c 64df 01bd 590a 963d
000000e0: 62b4 6abc 81d3 5dbc 52c1 253c ca9c 8abc
000000f0: 166f c03c 2073 a63c 2c14 8a3b 2177 c6bc
00000100: 28af 88bc e66b 48bd 4abf 543d 5e12 843c
00000110: 57f9 0d3d 5e67 80bb b2cf 6d3c 89f9 cf3c
00000120: 6e16 14bd 3b90 2fbc 9774 a63c 1305 163c
00000130: 9ebd 92b9 21b1 d73c 657b 3b3c fe21 0ebd
00000140: 4159 8a3a 1fc8 81bb 851a ffbc ba04 68bd
00000150: 5695 8d3d e648 60bd ffc2 87bd 9005 973c
00000160: 14a3 0dbd 1920 a43c 672a 5ebb 04c1 0bbc
00000170: d374 1b3c 263a 213b 0071 8ebd 6908 38bd
00000180: 8122 043c 48cb 11bd 0f6d 263b dbf8 fab8
00000190: 48ec 29bd 3904 433d eaa1 11bc ccbe b6bc
000001a0: 7dd7 073d cb5c 253d 84a1 15bd 471a 44bd
000001b0: 0303 19bd 6246 173b 62dc 873c ee8f 8ebc
000001c0: 5e6b ecbc 6122 2d3c 60a0 10bd 2a87 c53c
000001d0: 2e35 56bc 89b1 c0bc e42b 41bd 9d41 0d3c
000001e0: 1468 05bd ea98 023d 4765 47bc b50e 4c3c
000001f0: 8e7d 65bb b170 93bc 12fa dcba debf 09bd
00000200: 39cf ed3c 8973 b33c 9a21 873c cc58 4dbc
00000210: d3bc cf3c 5195 79bd cc93 2e3c 4db4 ccbc
00000220: 1fd6 89bc 260a 9dbc d353 bfbc 5dcc f03a
00000230: 73f8 0ebc b90c a73c 5d9c 7fbd 2b84 a83b
00000240: e091 96bc 9675 613d 22bc 29bd cb42 0bbd
00000250: ab53 90bb 87b4 1fbd db6b f2bc e1cd cc3b
00000260: e542 183d 922e 443c 5866 143d 0769 ba3c
00000270: aeda d63a 0eb3 85bd 3ef9 afbc 0d2b 913c
00000280: c09c bd3b e49b 44bb 0eb1 6a3c 75d5 1e3d
00000290: 6bf7 db3b 33c6 1dbc a940 1f3b 5226 d13b
000002a0: d0c0 8cbc ceee 6c3d b489 113d 1d08 223c
000002b0: be7c bebb 6f3f a73c 0c04 e53c 7805 2fbc
000002c0: 5022 cfbc e7d0 d0bb 9ef8 98bd 874f 21bc
000002d0: c4ed 3a3c dfe0 503d 2a4b 2ebd cbc5 333c
000002e0: d0e4 b7bc bfdd ebba 08b2 20bd 4dc5 043d
000002f0: 793c 60bb 0bd8 ce3c c90e 303d 6dec 293c
00000300: 168f 443c 15fa f33b 8e16 a33c 2cec ba3c
00000310: 11f3 05bd 52cb 06bd deae f8bc 83c6 8d3b
00000320: fa99 e63a 7dc3 3cbc 3d5c bc3a 3bd5 ebbc
00000330: 0cc6 9a3c cb5c 1abd aef8 59bd 522d d5bc
00000340: 4b03 0e3d 15f6 bcbc b070 4cbd 9bb6 21bd
00000350: da99 ccbc 96ad 0bbb 8d59 a73b f701 3e3d
00000360: 329a 653c fef4 903d 276e d83a 2b1d e93c
00000370: 6b15 0abd 0d8a 3f3c 37c8 d7bc 8d60 0ebc
00000380: 784f 7fbc 710e b53c 69b7 2b3d 2625 753d
00000390: fb28 1c3d f2be 4cbd 9487 92bc 342f b73c
000003a0: 3a7b b63b 9005 383d ad42 74bd 5067 6e3c
000003b0: 2ee6 96bc 05ca 5a3d f1d7 843c 584c 1fbc
000003c0: 3769 53bc 6301 aa3c cbfb 9d3c 10ec 7e3c
000003d0: 1918 b63b 8eda 263d 95a7 46bc 7408 e4bc
000003e0: dadc f0ba bc73 ddbb 5a99 91bc 1901 4fbb
000003f0: 8ab0 dd3c aebc 113c 5fe3 73bc 288c 9d3b
0.022042442 0.023347002 0.0095157195 -0.024120219 0.032335233 0.03068139 -0.0047722943 -0.050954808
-0.034379136 -0.02211415 0.031117963 -0.012580331 -0.00855908 -0.028217776 -0.05012113 0.02030113
0.0052532367 -0.036006782 0.025941271 0.034522712 -0.07146216 -0.03840055 -0.028421635 -0.011205205
-0.012185499 -0.005970809 0.023994522 0.023419643 0.014616401 -0.010019317 0.015759753 -0.032121442
-0.03735633 -0.01747509 0.014973225 -0.025886409 0.022391854 0.015082403 -0.020913014 -0.033888776
0.026638936 -0.01583702 -0.007902035 -0.05273993 0.00024461982 0.012879477 -0.03914426 0.056791227
-0.021291722 0.026255682 -0.009514878 0.01909629 -0.028258292 0.014543693 -0.031707183 0.073261924
-0.014325233 -0.013539196 0.010116892 -0.016920466 0.02349047 0.020318568 0.0042138305 -0.024226727
-0.016685084 -0.048931025 0.05194024 0.01612204 0.034661617 -0.0039185723 0.01451485 0.025387542
-0.036154203 -0.01071554 0.020319266 0.009156483 -0.00027988566 0.026329579 0.011442994 -0.034700386
0.0010555164 -0.003960624 -0.031140575 -0.056645133 0.06913249 -0.05475702 -0.066289894 0.01843527
-0.03457935 0.020034837 -0.0033899785 -0.008529905 0.009488302 0.002460131 -0.06955147 -0.044929896
0.008064867 -0.035594255 0.0025394594 -0.00011967282 -0.0414851 0.04761145 -0.008888701 -0.022307776
0.03316449 0.040371697 -0.036530986 -0.047876623 -0.037356388 0.0023082723 0.016584579 -0.017402615
-0.02885979 0.010567279 -0.035309196 0.024112303 -0.013074202 -0.023522155 -0.047160998 0.0086216
-0.03256996 0.03188411 -0.0121701425 0.012454678 -0.0035017463 -0.017998071 -0.0016859195 -0.033630244
0.029029476 0.021905677 0.016495515 -0.012533378 0.025358593 -0.060933415 0.010655355 -0.024988318
-0.016825734 -0.019169878 -0.0233554 0.0018371452 -0.008726227 0.020391809 -0.06240498 0.005142709
-0.018380105 0.05504378 -0.041439183 -0.033999246 -0.0044045052 -0.038990524 -0.029592445 0.0062501286
0.03717317 0.011973994 0.036230415 0.022755159 0.0016392076 -0.065282926 -0.021481153 0.017720724
0.0057865083 -0.0030000145 0.01432444 0.038777787 0.006712844 -0.009629774 0.0024300015 0.006382742
-0.017181784 0.05784493 0.035531715 0.00988963 -0.0058132103 0.02041599 0.027956031 -0.010682456
-0.025284916 -0.0063725593 -0.07469295 -0.009845621 0.011409227 0.050995704 -0.04255215 0.0109724505
-0.022447973 -0.0017995163 -0.039232284 0.032414723 -0.0034215732 0.025249502 0.04298285 0.01037131
0.011997005 0.0074455836 0.019908216 0.022817694 -0.03270251 -0.032908745 -0.03035682 0.004326643
0.0017593496 -0.011521217 0.0014370751 -0.0287882 0.018893264 -0.03768615 -0.053215675 -0.026022587
0.03467111 -0.02306656 -0.049912155 -0.039480787 -0.024975706 -0.0021313182 0.005107111 0.046388593
0.014013814 0.070779786 0.001651232 0.028456291 -0.033711832 0.011690629 -0.026340587 -0.008690012
-0.015582912 0.022101613 0.04192296 0.05984988 0.03812502 -0.049986787 -0.017886914 0.022361375
0.005568889 0.04492718 -0.0596339 0.014550999 -0.018420305 0.053415317 0.01621625 -0.009722792
-0.012903503 0.020752614 0.019285103 0.015559211 0.005557072 0.040735774 -0.012124916 -0.027836062
-0.0018376366 -0.0067581814 -0.017773319 -0.0031586348 0.02706172 0.008895082 -0.014885752 0.0048079677

embed_layer2.0.bias f4 [16]
00000000: 60a0 2abd 4d65 403c 8f7b c0bb 0e15 90bb
00000010: b627 d43c 001f 0ebd cf0d be3c 371f 3fbc
00000020: 02fe 2f3c cfd0 8cbb b406 cf3c c68e e4bc
00000030: 4075 c73c 9271 803c 7cb4 0e3d bb8c 263d
-0.04165685 0.011742902 -0.0058741043 -0.004397041 0.025897842 -0.034697533 0.023199944 -0.011665157
0.0107417125 -0.004297353 0.025271751 -0.02790011 0.024347901 0.015679155 0.034840092 0.040661555

embed_layer2.1.weight f4 [16]
00000000: b432 7b3f 5e7d 823f 152e 7f3f 4f06 783f
00000010: d77a 7e3f 0f47 763f 43ae 7b3f d312 7a3f
00000020: 0652 7e3f 3ea7 753f 390d 813f fc90 7b3f
00000030: 3439 793f 7c3d 6e3f 37fa 7a3f 6139 7a3f
0.9812424 1.0194509 0.9967969 0.96884626 0.9940619 0.96202177 0.9831278 0.97684973
0.9934391 0.95958316 1.008216 0.98268104 0.9735291 0.9306257 0.9803805 0.97743803

embed_layer2.1.bias f4 [16]
00000000: 7d31 f9bb a578 bc3a ef2a 88bc fef1 b9bc
00000010: 7f2b cfbc b275 d3bc f19c 81bc 760b a3ba
00000020: 1fde a0bc 2146 71bd 1677 e3bc 0aad 29bd
00000030: b3c3 0c3b a7c1 6abd 31ba 15bc dacf 15bd
-0.0076047764 0.0014379217 -0.016622035 -0.022698399 -0.025289295 -0.025812957 -0.015821906 -0.0012439329
-0.019637166 -0.05890477 -0.027766746 -0.04142479 0.002147895 -0.057313588 -0.00913863 -0.036575176

embed_layer2.1.running_mean f4 [16]
00000000: 9df5 59be e57b 36bd ace7 753b 5466 0fbe
00000010: 785e c83e 0442 28bb dc0b 6e3d 1d2a 94be
00000020: 67ac d7be 180f 1bbf 724b 4d3e 3369 f0be
00000030: 5630 603d d3a1 01bf 1416 fd3c 3cf9 ebbe
-0.212851 -0.04455175 0.003752212 -0.14003879 0.39134574 -0.0025674114 0.05811678 -0.2893838
-0.4212372 -0.60569906 0.20048311 -0.4695526 0.054733597 -0.5063755 0.030894317 -0.46088588

embed_layer2.1.running_var f4 [16]
00000000: 3193 c93e 09f2 d73e 094b 913f 5fed 5f3f
00000010: 9c1f 403f abe7 043f 3a04 573f ca8c 233f
00000020: 337c 0e3f 146f 683f 4488 323f 7334 323f
00000030: a67c 253f 0bfc b23e fcf4 923f d483 8e3f
0.3937011 0.42176846 1.1351024 0.87471575 0.7504823 0.51916 0.83990824 0.638867
0.5565826 0.9079449 0.69739175 0.6961128 0.64643323 0.3495792 1.1481013 1.1133981

Fix_Position.pe f4 [1, 144, 16]
00000000: 0000 0000 0000 803f 0000 0000 0000 803f
00000010: 0000 0000 0000 803f 0000 0000 0000 803f
00000020: 0000 0000 0000 803f 0000 0000 0000 803f
00000030: 0000 0000 0000 803f 0000 0000 0000 803f
00000040: 6f16 e33d df6b 7e3f a0e3 0f3d 8dd7 7f3f
00000050: 6b0a 363c f4fb 7f3f 0145 663b 99ff 7f3f
00000060: b2a2 913a f6ff 7f3f 4a37 b839 ffff 7f3f
00000070: 5204 e938 0000 803f 735f 1338 0000 803f
00000080: f2af 613e 7ab4 793f e4cc 8f3d 405e 7f3f
00000090: 8a07 b63c d2ef 7f3f a444 e63b 62fe 7f3f
000000a0: aca2 113b d7ff 7f3f 4937 383a fcff 7f3f
000000b0: 5204 6939 0000 803f 735f 9338 0000 803f
000000c0: 1186 a73e b3e8 713f 857a d73d 3f94 7e3f
000000d0: 0f82 083d 98db 7f3f 06b3 2c3c 5cfc 7f3f
000000e0: f273 5a3b a3ff 7f3f 7529 8a3a f7ff 7f3f
000000f0: 3dc3 ae39 ffff 7f3f 2d0f dd38 0000 803f
00000100: 3e23 dc3e 2821 673f 0872 0f3e cc79 7d3f
00000110: 09fc 353d 49bf 7f3f 2f43 663c 87f9 7f3f
00000120: 95a2 913b 5aff 7f3f 4637 b83a f0ff 7f3f
00000130: 5104 e939 feff 7f3f 735f 1339 0000 803f
00000140: b204 073f e17f 593f 78f9 323e 3e0f 7c3f
00000150: 4270 633d e49a 7f3f 4fe9 8f3c e3f5 7f3f
00000160: 230b b63b fdfe 7f3f 1545 e63a e6ff 7f3f
00000170: b4a2 113a feff 7f3f 4f37 3839 0000 803f
00000180: 7c4d 1e3f e82f 493f 5848 563e 0855 7a3f
00000190: a56e 883d 6b6e 7f3f 92b0 ac3c 70f1 7f3f
000001a0: a373 da3b 8bfe 7f3f 7029 0a3b dbff 7f3f
000001b0: 3cc3 2e3a fcff 7f3f 2d0f 5d39 0000 803f
000001c0: 79a2 333f bc64 363f 8453 793e b64b 783f
000001d0: da20 9f3d e039 7f3f 4a77 c93c 2eec 7f3f
000001e0: 13dc fe3b 05fe 7f3f 5630 213b cdff 7f3f
000001f0: c6e3 4b3a fbff 7f3f 85f3 8039 0000 803f
00000200: 4fc0 463f b559 213f f107 8e3e edf3 753f
00000210: 07ce b53d 43fd 7e3f 5d3d e63c 1ce6 7f3f
00000220: 36a2 113c 69fd 7f3f 3a37 383b beff 7f3f
00000230: 5004 693a f9ff 7f3f 735f 9339 ffff 7f3f
00000240: a46a 573f 4151 0a3f 3e39 9f3e 6b4e 733f
00000250: 7775 cc3d 98b8 7e3f 5b81 013d 3cdf 7f3f
00000260: 57d6 233c b9fc 7f3f 1c3e 4f3b acff 7f3f
00000270: 6d12 833a f8ff 7f3f 61cb a539 ffff 7f3f
00000280: db6c 653f 3028 e33e 3a38 b03e 045c 703f
00000290: 6e16 e33d df6b 7e3f 9fe3 0f3d 8dd7 7f3f
000002a0: 6b0a 363c f4fb 7f3f fe44 663b 99ff 7f3f
000002b0: b2a2 913a f6ff 7f3f 4f37 b839 ffff 7f3f
000002c0: b69a 703f b2e0 ae3e 85ff c03e a91d 6d3f
000002d0: 38b0 f93d 1d17 7e3f 6f45 1e3d 0ecf 7f3f
000002e0: 703e 483c 1bfb 7f3f dc4b 7d3b 83ff 7f3f
000002f0: f532 a03a f4ff 7f3f 3da3 ca39 ffff 7f3f
00000300: ecd0 783f 1ce2 703e d389 d13e 5f94 693f
00000310: 0f21 083e 52ba 7d3f bfa6 2c3d c1c5 7f3f
00000320: 6572 5a3c 2dfa 7f3f 5c29 8a3b 6bff 7f3f
00000330: 3ac3 ae3a f1ff 7f3f 2d0f dd39 ffff 7f3f
00000340: 90f5 7d3f 550a 013e ead1 e13e 44c1 653f
00000350: b565 133e 8355 7d3f 8307 3b3d a5bb 7f3f
00000360: 49a6 6c3c 2af9 7f3f caac 953b 51ff 7f3f
00000370: 7f53 bd3a efff 7f3f 1a7b ef39 feff 7f3f
00000380: 64f8 7f3f d8b1 793c a4d2 f13e 8ea5 613f
00000390: b3a5 1e3e b1e8 7c3f b067 493d bab0 7f3f
000003a0: 19da 7e3c 12f8 7f3f 3630 a13b 35ff 7f3f
000003b0: c2e3 cb3a ecff 7f3f 85f3 003a feff 7f3f
000003c0: 0ed3 7e3f b00a c4bd 78c3 003f 8942 5d3f
000003d0: ace0 293e e273 7c3f 39c7 573d 00a5 7f3f
000003e0: ea86 883c e6f6 7f3f a1b3 ac3b 17ff 7f3f
000003f0: 0674 da3a e9ff 7f3f 7c29 0a3a feff 7f3f
0.0 1.0 0.0 1.0 0.0 1.0 0.0 1.0
0.0 1.0 0.0 1.0 0.0 1.0 0.0 1.0
0.11088263 0.9938335 0.03512919 0.9993828 0.011110882 0.99993825 0.0035136344 0.99999386
0.0011111109 0.9999994 0.00035136408 0.99999994 0.000111111105 1.0 3.5136425e-05 1.0
0.22039774 0.9754101 0.07021502 0.9975319 0.022220392 0.9997531 0.0070272256 0.9999753
0.0022222204 0.99999756 0.0007027281 0.99999976 0.00022222221 1.0 7.027285e-05 1.0
0.32719472 0.94495696 0.105214156 0.99444956 0.03332716 0.9994445 0.010540729 0.99994445
0.003333327 0.99999446 0.001054092 0.99999946 0.0003333333 0.99999994 0.00010540928 1.0
0.42995638 0.9028497 0.14008343 0.9901397 0.044429813 0.99901253 0.014054104 0.99990124
0.00444443 0.9999901 0.0014054559 0.99999905 0.0004444444 0.9999999 0.0001405457 1.0
0.5274154 0.8496075 0.17477977 0.9846076 0.05552698 0.9984572 0.017567305 0.9998457
0.005555527 0.99998456 0.0017568195 0.99999845 0.00055555557 0.9999999 0.00017568211 1.0
0.6183698 0.78588724 0.20926034 0.97786 0.06661729 0.9977786 0.021080289 0.9997778
0.006666617 0.99997777 0.0021081828 0.9999978 0.00066666654 0.99999976 0.00021081856 1.0
0.7016979 0.7124746 0.24348265 0.96990526 0.07769938 0.99697685 0.024593014 0.99969757
0.0077776997 0.9999698 0.002459546 0.99999696 0.00077777763 0.9999997 0.000245955 1.0
0.7763719 0.6302751 0.27740434 0.96075326 0.08877187 0.99605197 0.028105432 0.99960494
0.008888772 0.9999605 0.002810909 0.99999607 0.0008888887 0.9999996 0.0002810914 0.99999994
0.84147096 0.54030234 0.3109836 0.9504153 0.09983342 0.9950042 0.031617504 0.99950004
0.009999833 0.99995 0.0031622713 0.999995 0.0009999998 0.9999995 0.00031622782 0.99999994
0.89619225 0.44366598 0.34417897 0.93890405 0.110882625 0.9938335 0.035129186 0.9993828
0.011110882 0.99993825 0.0035136337 0.99999386 0.0011111109 0.9999994 0.00035136423 0.99999994
0.9398607 0.34155804 0.37694946 0.9262338 0.12191814 0.9925402 0.038640436 0.99925315
0.0122219175 0.9999253 0.0038649952 0.99999255 0.0012222218 0.9999993 0.00038650064 0.99999994
0.9719379 0.23523754 0.40925464 0.9124202 0.13293861 0.9911243 0.04215121 0.99911124
0.013332938 0.9999111 0.004216356 0.9999911 0.0013333329 0.9999991 0.00042163712 0.99999994
0.99202824 0.12601598 0.44105464 0.89748025 0.14394267 0.98958606 0.04566146 0.998957
0.014443942 0.9998957 0.004567717 0.99998957 0.001444444 0.999999 0.0004567735 0.9999999
0.9998839 0.015240155 0.4723102 0.8814324 0.15492897 0.9879256 0.04917115 0.9987904
0.015554928 0.999879 0.0049190773 0.9999879 0.0015555548 0.9999988 0.00049191 0.9999999
0.99540794 -0.09572351 0.5029826 0.8642965 0.16589612 0.98614323 0.052680228 0.99861145
0.016665895 0.9998611 0.005270437 0.9999861 0.0016666658 0.9999986 0.0005270464 0.9999999

attention_layer.relative_bias_table f4 [287, 8]
00000000: befd 1fbd ec87 e13b 314c 953c d1a1 e73c
00000010: 40fb 6cbd 9021 5cbd e43e 513d f5a5 84bc
00000020: f04e aebc c518 e43c 3be9 573c d546 83bc
00000030: 64e3 53bd 1cc4 013d 2561 f73c 76d5 22bc
00000040: 59fe 07bd 79e8 ff3b 0c92 bc3c b7d5 b53c
00000050: 6e39 cfbc c622 97bc a2ad 243d 122c 0cbc
00000060: 52ab bbbc 0880 223c a3f5 d43b 66f7 0e3c
00000070: 9717 b0bc cdae 013d 466d 373d cacf 0dbc
00000080: 6c09 54bc 9999 bc3c d17b 22bb 5340 b33b
00000090: 57cb c0bc eede 7c3b cc95 0a3d e693 5abb
000000a0: 6d5d febb 160e 803c bd3f 283c 62a4 b53b
000000b0: bdda b9bc f24d 6b3c f613 b83c 2917 d0bb
000000c0: 2212 70bb d0fb 5f3c cd91 033c f12e 3a3c
000000d0: b823 9dbc bb13 7a3c 30ea 043d 27f2 95b9
000000e0: 6e52 0cbc a1de 303c d3c0 133c 7764 4d3c
000000f0: 5554 60bc 6d9d 7b3c 1ae3 ef3c f720 26ba
00000100: 0ca6 f6bb fb10 823c f70a 453c 0d76 533c
00000110: ca14 9dbc 4f1c 2b3c 4d5a e53c 00a2 2bba
00000120: 2672 c4bb 4ffa 373c 7102 1c3c a964 223c
00000130: 3410 8cbc 5bb2 5a3c b4ca d63c fff2 21bb
00000140: 10ae 88bb cc22 113c 071a 163c 5539 273c
00000150: b2f3 9bbc d95e 533c 989d be3c cace 77bb
00000160: 9fe9 8cbb f6cb 353c 2db6 043c 27dd 1c3c
00000170: 05c8 71bc 9369 5d3c a1fb c23c fa0a 80bb
00000180: b1f1 93bb 505c 183c 2303 df3b 04f1 143c
00000190: b98f 6dbc bdf6 5f3c dbee cb3c 71a1 42bb
000001a0: 033b bdbb 67d5 363c a83c 113c 645f 1e3c
000001b0: 1929 51bc 351d 713c d1e5 d23c e789 3ebb
000001c0: 712c d4bb 00b6 2c3c ecb5 233c 56e5 2e3c
000001d0: 5f88 3cbc a199 3c3c 3174 d03c c82b c0b9
000001e0: 93c1 d8bb daa0 013c e0af 6f3c 02eb 1f3c
000001f0: c244 34bc 5e7c 503c e8a9 e13c 84cb fcb9
00000200: f34b c5bb 5ffc 5e3c a95b 383c 0cb5 273c
00000210: 3f0d 62bc 091e 743c 89ab e53c 54b7 2d3a
00000220: e3a1 c1bb e46d 613c 817b 403c 5584 213c
00000230: 2456 52bc e565 4d3c dc1f ea3c 47e9 3038
00000240: 63d5 ebbb 7de6 4e3c a98f 1c3c ccf0 103c
00000250: c646 67bc 5d8a 313c 15f5 e53c 8c98 3eb9
00000260: 854c 07bc 48a9 3d3c 6fe3 573c 4065 1a3c
00000270: 5bbf 3ebc db87 643c 2451 e03c 0abf 2aba
00000280: e9a6 edbb 2a53 3b3c bbda 613c a037 333c
00000290: 61dd 57bc ab3c 603c b485 e63c 58f7 92ba
000002a0: 77ed f2bb 5dcf 583c 02f0 623c 51ab 273c
000002b0: e4cd 3ebc 8301 7a3c 76c5 f53c fc9c 713a
000002c0: 69b6 08bc 2efb 373c a8ee 843c 0dd3 303c
000002d0: 1f1b 2cbc 8c62 753c ba04 df3c 4329 403b
000002e0: e993 d1bb a533 533c 3d88 893c 6f65 063c
000002f0: 7310 13bc e6f7 823c d1a2 c83c 4d0d 193b
00000300: ae22 d8bb ec34 313c 7a7b 543c 45dc 0f3c
00000310: 1b65 13bc 2c3f 563c 4065 de3c be1f a83a
00000320: 906b d8bb acca 2c3c f791 683c 25b2 173c
00000330: 6ff0 2abc e6ce 583c ad42 e53c c289 c1ba
00000340: 9aef 01bc 2702 473c 5b48 643c a05f 2e3c
00000350: 4530 febb d6ab 6d3c f470 d23c 2c14 e23a
00000360: 1fdd f2bb a2ac 423c c56b 373c 30f1 2c3c
00000370: 6ad1 10bc 1ada 5f3c 009f d63c 4ced 6b3a
00000380: 24f0 06bc 9e6b 3a3c 05c2 513c 1e34 2b3c
00000390: 5e48 20bc 733b 453c 43d3 df3c 384b 853a
000003a0: 6f20 13bc 3714 353c 6302 533c 10c2 303c
000003b0: 95c2 37bc c175 3a3c ee1e e13c c45a ef39
000003c0: 376c 0fbc 2430 3f3c 84d3 543c 5f31 113c
000003d0: 3573 22bc d473 4c3c ec85 d93c eb31 823a
000003e0: 45fa 07bc c15c 393c 2e7e 383c 0742 0d3c
000003f0: 2c0a 1dbc cc49 3e3c 32f9 cf3c a17e 6038
-0.039060347 0.006882658 0.018224807 0.028275402 -0.0578568 -0.053742945 0.051085368 -0.016192416
-0.021277875 0.027843842 0.013178165 -0.016024986 -0.05173053 0.031681165 0.03019769 -0.009938588
-0.03320155 0.0078096953 0.02301886 0.022196634 -0.02529594 -0.018449198 0.04020465 -0.008555429
-0.02290884 0.00991822 0.0064990087 0.008725977 -0.021495624 0.031660844 0.044781946 -0.008655498
-0.0129416995 0.02302246 -0.0024793039 0.0054703145 -0.02353446 0.0038585025 0.033834264 -0.0033352314
-0.007762602 0.015631717 0.010269103 0.0055432776 -0.02268731 0.014361845 0.022470456 -0.006350417
-0.0036631902 0.013670877 0.008030367 0.011363731 -0.019182071 0.015263493 0.0324499 -0.00028599912
-0.008564575 0.010795266 0.009018141 0.01253616 -0.013691981 0.015357357 0.029283095 -0.00063373096
-0.0075271185 0.015877238 0.01202654 0.0129065635 -0.019174952 0.010443761 0.02799716 -0.0006547272
-0.005995053 0.011229112 0.009522066 0.009911695 -0.01709757 0.013348187 0.026219703 -0.0024711487
-0.0041711405 0.008858394 0.009161479 0.01020654 -0.019037101 0.012901031 0.023268506 -0.0037812465
-0.0043003107 0.011095991 0.008100075 0.009574211 -0.014757161 0.01351394 0.023801627 -0.0039075585
-0.004514896 0.009299353 0.006805794 0.009090666 -0.014499598 0.013669667 0.024894169 -0.0029698277
-0.005774857 0.0111592775 0.008864559 0.009666298 -0.012766146 0.014716436 0.02574435 -0.0029073895
-0.0064750244 0.010541439 0.009992104 0.010674795 -0.011507123 0.011511237 0.02544603 -0.00036653713
-0.0066148727 0.007911885 0.014629334 0.00976062 -0.011002721 0.012724964 0.027546838 -0.00048216817
-0.0060210167 0.013609975 0.011252322 0.010236036 -0.013797103 0.014899739 0.028035896 0.0006626744
-0.005909191 0.01375911 0.011748196 0.009858211 -0.01283792 0.012536501 0.028579645 4.2178926e-05
-0.0071970685 0.012628195 0.009555736 0.008846473 -0.014115995 0.010836211 0.028070966 -0.0001817664
-0.00825799 0.011576004 0.013176783 0.009423554 -0.011642302 0.013948406 0.02738244 -0.00065134524
-0.0072525633 0.011433402 0.01378506 0.010938555 -0.013175339 0.013686339 0.028139926 -0.001121263
-0.007413562 0.013233033 0.013851168 0.010233716 -0.011645768 0.0152591495 0.030001383 0.0009216813
-0.008344271 0.0112293195 0.016227081 0.010792506 -0.010504513 0.014977109 0.027223933 0.002932147
-0.006395806 0.012890731 0.016788596 0.008202895 -0.00897609 0.015987348 0.0244917 0.0023353875
-0.006595931 0.01081584 0.012968892 0.008780544 -0.008996273 0.013076585 0.02714789 0.0012826843
-0.0066046193 0.010546368 0.014194957 0.009258782 -0.0104333 0.013232922 0.027985895 -0.0014765786
-0.007930661 0.012146509 0.0139332665 0.010642916 -0.007757219 0.014506301 0.025688626 0.0017248443
-0.0074116136 0.011881979 0.011195128 0.01055555 -0.008838991 0.013662839 0.026198864 0.00089998986
-0.008235965 0.011378197 0.0128026055 0.010449437 -0.009782879 0.0120381 0.027322417 0.0010169512
-0.008979901 0.011052183 0.012878987 0.010788456 -0.011215826 0.011380614 0.027480569 0.00045653258
-0.008753828 0.011669192 0.012989882 0.008861869 -0.009915163 0.012478787 0.026553117 0.000993309
-0.008299415 0.011313618 0.011260552 0.008621699 -0.009584945 0.011614274 0.02538738 5.3523694e-05

attention_layer.key.weight f4 [16, 16]
00000000: c79c 1c3e ed85 6c3d 2bd3 693e 9118 cdbe
00000010: 9148 44bd 6cff b9bc 4188 69bd a346 85bd
00000020: 9dd9 b43e 69c6 a43e bffa 983e 6870 a73e
00000030: 8130 1e3d 9534 603e a080 7ebd ae1b e0bc
00000040: 8914 8c3e 762b 0f3e 5d93 043d 11ee 22be
00000050: 9d64 e23d 8863 cbbd c9cc 513e 672a f33d
00000060: de99 f23e 80df 463e 1c55 e73d 7e57 3fbe
00000070: bc35 16be 19e5 4dba 87bc 49be 8f0d 183d
00000080: 38cb 56be 97e0 9cbe 0043 243c 3604 af3d
00000090: 5b21 6a3e a8e4 86bd 6307 9a3e 7f83 0dbe
000000a0: 85f8 7dbd e82d 873e 5e27 57bd 4312 ef3c
000000b0: 9a7d 963d 6bf4 2a3e bf29 b3bd 3422 483e
000000c0: fe2c b4bd c1ff 203e 6780 4f3d 9070 6e3e
000000d0: 4622 bb3d 7f02 fbbd 4c33 903b 2c04 c3ba
000000e0: 5cdf 4cbe 07b5 7ebe 946c 1d3e 8846 653e
000000f0: 7a78 09be 9901 19be 8ce0 2cbe b7ae 46be
00000100: 4eb6 ea3d 1527 053e 88b6 89be bfd5 a1bd
00000110: a450 8e3d 778b 33be c16f f3bd b522 92be
00000120: bb2a bf3d 71a8 aabe d38e c83e 5876 573e
00000130: 1bb6 2cbe 545b 07bd 7c6b 693e 552f a93d
00000140: 4636 4c3e 07f1 293e 1ba7 5ebe a3f9 dfbd
00000150: e4ce 6c3e 1b7b 7c3e 2b62 8bbe 28e2 19be
00000160: 563c 813c ba2e 123c 2377 8b3e b023 a93d
00000170: 4b04 203a 4ed3 f33d 8d41 88bd 68b4 b33d
00000180: c433 893e 16fc 70bd abd3 4abd c103 863e
00000190: b86b 7abd cee2 e8bd 10ad d33e 845c 5abe
000001a0: affd 8a3e 87b3 4ebe f327 263e f9b3 f13d
000001b0: 8de6 94bd 6b03 a83d 3a77 203e c182 61bd
000001c0: c466 ddbc d686 a1bd 6e13 a73d ff26 063e
000001d0: e17a 04be b2ac 343e 571b aabe 6ae8 28bd
000001e0: de03 fb3c c320 13be d858 f03d 0a38 abbe
000001f0: 1bdd 43bd 8939 b73d ae3c 193e 4304 53be
00000200: 436b 253e d7e2 953e 1e41 173e 41dc 3a3e
00000210: f2c9 3dbe fa78 fa3d 4069 83bd c218 3c3e
00000220: e9b3 543d 27ec 6c3b 4a27 b6bd b1b1 013e
00000230: 9270 f9bd 83cf 173e 9af7 823e c2e8 61be
00000240: 90b8 f6bd e4a3 bf3d 85ff babe e69f 4bbe
00000250: e5e3 353d f62b b6be 5a5a cc3e 679b 3bbe
00000260: 242d 2dbd e363 093e 337e 47be 052f a5be
00000270: 5ac3 2dbc 926f 173e 5f84 023e a990 a9bd
00000280: f34d a6be b362 4b3e dd8c 853d 7e08 9dbe
00000290: ce8e 93bd ef16 81be 6005 fabd d156 383e
000002a0: 8a45 eabc a798 28bd 7629 b0bc 2a24 adbd
000002b0: 6045 593e 4abb 84be 0b73 18bd a2d8 26bd
000002c0: 4ab7 aabe f887 f3bd ddf5 3a3c 4286 7c3d
000002d0: 193f 043d 1024 bc3d 05c0 4cbd 0d97 583e
000002e0: 6e05 593e acc0 353e d1b9 27be ca78 103d
000002f0: 9a5b a63d 4fcd 8abd ba25 463e a562 023e
00000300: cbd6 e9bd 793c 423e d007 ee3a 0a4c d93d
00000310: 34d0 133e acf6 123e a968 613e 2bf1 1a3d
00000320: a601 433e bf33 c03d e6a2 883e 4740 6dbe
00000330: 26f3 9bbd 13bd 313e bf64 28be dd06 01be
00000340: 7b6a 4e3e c9dc 8e3e efe7 563e c58d 203d
00000350: bf59 20bd 4230 93be df72 0d3e 7968 64bd
00000360: bc61 8d3e e90f 63be b0d2 02be 1c27 3e3e
00000370: 455c 3d3c c0ec db3d a593 23be b73c 6a3e
00000380: 4d0e 0dbe 1bdd 593b 72fe 863d bf79 4dbe
00000390: 46a4 32be e1bf fb3c dac4 a03e a3de 19be
000003a0: f39b 8bbd 9856 7abe 04f2 c7be 06a5 81be
000003b0: 2617 29be 2f60 7a3e 5078 55bd b0e6 82bc
000003c0: d7cc d83d ec8d bd3d b2a9 da3c e3ea ca3d
000003d0: b415 f4bd 8ae0 c2bd d52b 843e b835 023e
000003e0: 52e9 37be f96c 4abe 3b7b 533d 3eb8 c1be
000003f0: 1aed 27bb 5fc9 083d 149b b8bd c933 80be
0.15294181 0.05774491 0.2283446 -0.40057805 -0.047920767 -0.022704802 -0.057014707 -0.065076135
0.35322276 0.32182625 0.29878804 0.32702947 0.038620476 0.21895058 -0.062134385 -0.027356949
0.27359417 0.13981423 0.0323671 -0.15911128 0.11054347 -0.099310935 0.20488276 0.11873322
0.47383016 0.19421196 0.1129553 -0.1868572 -0.14668936 -0.00078542676 -0.19700824 0.037122305
-0.2097596 -0.30640098 0.01002574 0.08545725 0.22864287 -0.065865815 0.3008376 -0.13819693
-0.062004585 0.2640221 -0.052527778 0.029183513 0.07348175 0.166948 -0.08748197 0.19544297
-0.08797644 0.15722562 0.050659563 0.23285127 0.091373965 -0.122563355 0.0044006463 -0.0014878563
-0.2000708 -0.24873744 0.1537345 0.22390187 -0.13424864 -0.14942016 -0.16882533 -0.19402586
0.11460553 0.1300319 -0.26897073 -0.07902097 0.06948975 -0.1753367 -0.1188655 -0.28542104
0.09334322 -0.33331636 0.39171466 0.21041238 -0.16866343 -0.03304608 0.22794908 0.08260981
0.19942579 0.16595851 -0.21743433 -0.10936286 0.23125798 0.24656336 -0.27223334 -0.15027678
0.01577584 0.008922273 0.27239332 0.0825876 0.00061041553 0.119055375 -0.06653128 0.08774644
0.26797307 -0.058834158 -0.04951827 0.2617474 -0.061137885 -0.113713846 0.41342974 -0.21324354
0.2714667 -0.20185672 0.16226177 0.11801905 -0.072705366 0.08203777 0.15670481 -0.055056337
-0.027026542 -0.07887046 0.08158003 0.13100813 -0.129375 0.17644003 -0.33223984 -0.041237272
0.030641492 -0.14367966 0.117356956 -0.33441192 -0.047818284 0.08946521 0.14964554 -0.20607094
0.16154198 0.29274628 0.14770934 0.18248083 -0.18534067 0.12230106 -0.06416559 0.1836882
0.05192939 0.00361515 -0.088942125 0.1266544 -0.12179674 0.14825253 0.2557953 -0.22061446
-0.12046921 0.093574315 -0.3652307 -0.19885215 0.04440679 -0.35580415 0.39912683 -0.18321
-0.042279378 0.1341701 -0.19481735 -0.32262436 -0.0106056575 0.14788654 0.12745808 -0.08279545
-0.32481346 0.1986187 0.06521008 -0.30670542 -0.07204972 -0.2521281 -0.122080564 0.18001868
-0.028597612 -0.041161206 -0.021504145 -0.08454163 0.2121787 -0.2592414 -0.03721909 -0.04073394
-0.33342963 -0.11891168 0.011411157 0.061651476 0.032286737 0.09186566 -0.04998781 0.21151371
0.21193478 0.1774928 -0.16379477 0.035271443 0.0812294 -0.06777441 0.19350329 0.12732942
-0.11417922 0.18968381 0.0018160287 0.106102064 0.14434892 0.1435191 0.22012581 0.037827652
0.19043598 0.0938487 0.26686782 -0.23169051 -0.07614736 0.17357282 -0.16444682 -0.12600274
0.20157807 0.2790282 0.20986913 0.039197702 -0.03914809 -0.28747755 0.13813351 -0.055763695
0.27613628 -0.22174038 -0.12775683 0.18569607 0.011557643 0.10738516 -0.1597429 0.22874723
-0.13774987 0.0033243361 0.065915 -0.20065974 -0.17445478 0.030731143 0.31400186 -0.15026335
-0.06816854 -0.24447095 -0.3905183 -0.25321215 -0.16512737 0.24450754 -0.052116692 -0.015979141
0.10585945 0.09255585 0.026692245 0.09908082 -0.11918202 -0.09515484 0.2581469 0.12715805
-0.17960098 -0.19768132 0.051631194 -0.37835878 -0.0025623501 0.033395167 -0.09013954 -0.2503951

attention_layer.value.weight f4 [16, 16]
00000000: 3050 62be f3ee 773d 5238 f03d 16c3 313e
00000010: 98d6 fabd 862a 0dbd 7477 86bd cb02 8cbd
00000020: 00af 6e3d d301 6fbe 0880 dd3d 9b3f fa3d
00000030: 2860 9ebe cda9 3dbd 9927 15be 576e 68be
00000040: cb79 fbbd bdd6 4a3e 18ca 5dbe fa36 88be
00000050: c531 19be a8ac a4bd cfcd aa3e a11d 883e
00000060: 1cf3 79bd de1f 07be eda0 bebd 77a9 00be
00000070: 9910 edbd aa33 b4bc 0f42 073d 1dac 04be
00000080: 91fe 45be 4d95 80be 39dd 373e 64c7 46be
00000090: 0dbe 9ebd cfe1 a03d 9ae7 cb3d 4146 46be
000000a0: 5a9d aebd a910 413e 6be7 683c 4d47 b1bd
000000b0: d523 313e 8272 9e3d 169b 1abe 914c 003e
000000c0: d972 4cbe 1e34 a3bd 9cf1 863e 71d7 933e
000000d0: 2a4b ca3d a9ac 233e 7fb7 fe3d 8dcf 82be
000000e0: c3b2 543e b8e2 a33d 9a07 573e a54c 62be
000000f0: ae66 0cbe 92ab 323e 069c 403e 9560 7bbd
00000100: 1422 87be 2cb0 313d 4ee7 2dbe 315d f2bc
00000110: a4bd aebd feac 5bbd 71f3 31be 3586 ea3d
00000120: e980 1a3d b931 0d3d 46c8 083d 9067 013e
00000130: 6147 63be a054 723e 4d3a d3bd 1593 0fbe
00000140: fd02 56bd 85fd 28be 63f5 b4bd 444b 473e
00000150: 39a9 81be 8959 403e 5b0c 8fbe e6f4 363e
00000160: 4ae2 8fbe 9d50 97bd efe8 313c efc0 023e
00000170: 81ef 4bbe b031 873d 3f38 95bc 15bf 1b3e
00000180: 3792 153e 94d1 67be 644c 3fbd b6b9 883e
00000190: 31d7 303e 55e2 34bd a03c dc3d 8276 7abe
000001a0: 731e 733e 2e6d b33d 1c78 98bc 0241 ddbc
000001b0: befb fdbd 2ab7 f43b 7f29 533e 1668 b4bc
000001c0: 043f aebd 5bf9 26be 1f99 63be 6aeb 3abc
000001d0: ed56 0fbe 6fdc 68be 0df3 883e f0e9 533e
000001e0: fa5f 2cbe 6259 2bbe d0d8 623e f8e5 563e
000001f0: dfd3 073e cbf3 01be c839 673b c929 153e
00000200: c901 273d 770d 903e 986b 023e a3ca 6c3d
00000210: 345f febd 13e3 70bc bac6 943c 4041 c13d
00000220: 7870 303e 96d5 9c3c d58f 383c 779c 10be
00000230: 449c 9cbd dca9 383e b336 6c3e 1ec3 73be
00000240: 5138 15be 55d4 9a3e 56c9 b0bd b71c e73c
00000250: 3476 543e d9c8 773e b061 32be 47f3 563d
00000260: 2112 413e 626b 18be 4f88 3dbe 3eb4 6f3e
00000270: c0c3 643e dd0f 40be 5b2c 7dbe 2e5c 50be
00000280: 44df 1c3d 2a87 2bbe ce4a 673e 91a2 3a3e
00000290: 8228 523e f3a8 00be a46d 35be 5fed 68be
000002a0: 0946 60bc bb9b b03d 59a0 4a3e 973e 253d
000002b0: 4bbd b0bd cf96 1cbe 0805 2ebe e7f8 673e
000002c0: 3dda 22bd 60a2 5c3d 48cd 44be 8055 7e3c
000002d0: 3d42 1fbe cc8c e9bd 2a7a 2b3d 7644 f03d
000002e0: 7d3e e83c 4e48 373e 8736 17be 940a 4abd
000002f0: b46d 87be 0c78 6cbc cf5c 343d 7465 fb3d
00000300: 749e 44be bc9c 39be 836e 12be 8b2e 88bd
00000310: d986 f1bd 59d2 653c 3216 83be 6264 0f3e
00000320: a600 943d ed0a 423c 2dcf 04be c928 5fbc
00000330: b55f 1a3c 4944 db3b a8ce 2fbe aa4c 753e
00000340: a4f7 25be 5fad 663d 715b acbd 8bb5 9f3d
00000350: 1aef 29be dbc6 293e 8c5d b83d 7540 c6bb
00000360: cbe3 29bd cedd 173e 688e 4a3e 7b00 59be
00000370: 034c 28be 62f5 0b3e e0a2 cabd 588c 723c
00000380: 825b 7d3e 8502 a93d ec69 273b 3422 20be
00000390: 59bc 1a3e 7b10 d4bd 6fad c73d a021 803d
000003a0: 6683 4e3d a8d7 3f3e 0613 ebbd c630 14be
000003b0: 6f20 6f3d 0859 2dbe db47 703e 7578 9abd
000003c0: 0659 493d b11e 653e 9854 b93d 0af4 063d
000003d0: a5a9 273e 1681 93be 3a65 23be 5799 5bbe
000003e0: 610b 6cbe 04db df3d 1cd1 fb3d 5d1b 253e
000003f0: f27d 433e c0a5 a93d a732 02bd 5b48 553d
-0.22100902 0.060530614 0.11729492 0.17359576 -0.12247962 -0.03446438 -0.065657526 -0.0683647
0.05827236 -0.2334054 0.10815436 0.12219163 -0.30932736 -0.046304513 -0.14565887 -0.22698341
-0.122790895 0.19808479 -0.21659124 -0.26604444 -0.14960392 -0.08040744 0.33360144 0.26585105
-0.061022863 -0.1319575 -0.09308038 -0.12564646 -0.115754314 -0.021997292 0.033021983 -0.12956281
-0.1933539 -0.25113907 0.17955483 -0.19411999 -0.07751093 0.078555696 0.09956284 -0.19362737
-0.08526106 0.18854012 0.014215331 -0.08656178 0.17298825 0.077366844 -0.15098223 0.12529208
-0.19965686 -0.07968925 0.26356208 0.28875306 0.09877618 0.15983833 0.12437343 -0.25548974
0.20771317 0.080022275 0.20998994 -0.2209955 -0.13711044 0.17448261 0.18809518 -0.061371405
-0.26393187 0.0433809 -0.16982767 -0.029585453 -0.08532265 -0.053631775 -0.17378022 0.11451379
0.037720595 0.034471247 0.03339412 0.12637162 -0.22195198 0.23665094 -0.10313854 -0.14020951
-0.052248944 -0.1650296 -0.08835866 0.19462305 -0.2532442 0.18784155 -0.27939114 0.17866859
-0.28102332 -0.07388423 0.010858758 0.12768911 -0.19915582 0.06601274 -0.018215297 0.15209611
0.14606558 -0.22638541 -0.04670371 0.26704186 0.17269589 -0.04416116 0.10753751 -0.2445927
0.23742084 0.08761059 -0.01861196 -0.027008537 -0.12401532 0.007468124 0.20621298 -0.022022288
-0.08508113 -0.16306059 -0.2222638 -0.011408666 -0.13998003 -0.22740339 0.26747933 0.20694709
-0.16833487 -0.16733316 0.2215302 0.20986164 0.13264416 -0.12690656 0.0035282243 0.14566721
0.040773187 0.28135273 0.12736356 0.057810437 -0.12420502 -0.014702576 0.018161166 0.094362736
0.17230403 0.019144814 0.011264761 -0.14122187 -0.07646993 0.18033546 0.23067741 -0.238049
-0.14572264 0.3024012 -0.08632152 0.028211934 0.20748216 0.24197711 -0.17420077 0.0524781
0.18854572 -0.14884713 -0.18509029 0.234086 0.22340298 -0.18756051 -0.24723952 -0.20347664
0.03829886 -0.1675078 0.2258713 0.18226077 0.20523265 -0.12564449 -0.17717606 -0.227468
-0.013688573 0.08623453 0.1978773 0.040342893 -0.08629855 -0.15291904 -0.16994107 0.22653542
-0.03975891 0.05386579 -0.19218934 0.0155233145 -0.15552612 -0.11403808 0.04186455 0.11731808
0.02835011 0.17898676 -0.14766894 -0.049326494 -0.26450884 -0.014432918 0.04403382 0.1227521
-0.1920107 -0.18126196 -0.1429997 -0.06649502 -0.11793298 0.014027202 -0.2560287 0.14003137
0.07226686 0.011843425 -0.12969656 -0.013620564 0.009422232 0.00669149 -0.17168677 0.23955026
-0.16207749 0.056317683 -0.084158786 0.077982984 -0.16595116 0.16579764 0.09002218 -0.0060501643
-0.041477006 0.14830706 0.19780886 -0.2119159 -0.16435246 0.13667825 -0.09894347 0.014803968
0.24741939 0.08252434 0.0025545312 -0.15638047 0.15110911 -0.10354706 0.09749877 0.062564135
0.05041828 0.1873461 -0.11478238 -0.1447173 0.05838054 -0.16928494 0.2346491 -0.075425066
0.049157165 0.22374989 0.09049338 0.032947578 0.16373308 -0.28809422 -0.15956584 -0.21445213
-0.23051216 0.10930446 0.12295744 0.1612372 0.19091013 0.082835674 -0.031786587 0.052070957
